Save/Trainings/RL_AM/4800000/actor.pt (torch, 46871 bytes, 6 tensors)

layers.0.weight f4 [100, 8]
00000000: 9bb1 df3d b73c a33e 2322 ff3e 48ec 40bf
00000010: e968 a43e dbf0 5a3d ab1d 5b3d 1b76 31bd
00000020: 8bb2 c23e ac60 d53e 1480 01be fd38 bb3d
00000030: 57f1 2abe c414 753b efa6 833b 8abc 803e
00000040: 50ca 84be 7e3e b2be 98d0 e83e 4e00 a33e
00000050: 231b 523e a8a8 6e3c 6726 a0bd 4bb2 c9be
00000060: 298a e7be b111 e43d 41ee 42bf 82ae 1fbe
00000070: 6ae7 c73e a3a7 913c bc11 1a3d d95f 0abf
00000080: 120c 86bd 2bda 073f a854 083c 7076 dd3e
00000090: 7c94 c5bd db06 2dbc 0f23 b7bb 8ac8 d33e
000000a0: 2816 4d3c 6086 f8be 49ee 6fbc b64f fcbd
000000b0: 2f55 a73e eccf e73c e939 1bba 5e11 08be
000000c0: 84d1 e13e 7e40 e73d fad8 ddbe b717 5d3e
000000d0: 4bcd 09be 0f78 8a3b 2836 f0bc a0f4 3b3e
000000e0: 809a 4d3f 0b8c 033e 328b bd3e b3bc 043f
000000f0: f247 c2bb 898c 52bc 0680 983c d8cb 15bd
00000100: 2d94 51bf 75ab 2a3e 672a 5b3e fbe5 23be
00000110: ec16 02bb a2fb 01bd f90d c93c 18b2 3e3e
00000120: 9782 2cbe e811 c9bd 41fb 363f 6e3c 353d
00000130: a179 a83c de9f c8bc 7b5e 2abc 5ef5 8dbe
00000140: 6bf4 093f 79ed 643e 3a32 ac3e ed6a 9c3e
00000150: 739f 2a3e 311e d13c 4e91 09bd 6a0e a0be
00000160: 3359 15bf 6882 2a3e 1ae1 04bf c5f8 2b3d
00000170: 9462 3ebe 4525 df3a a071 923c 7898 04bf
00000180: d315 a0be 257a 6e3d 96a6 f2be 08e3 fcbd
00000190: fa95 033f 6595 82bc c37a 4cbc 66ac 24be
000001a0: 9243 dd3c 06ae aabd d6a6 1fbe fa2f 8cbe
000001b0: 311c 0d3f 6e0d 6c3c 0238 323b af3f 383e
000001c0: d7d4 0cbf 29e3 ae3e ce90 a0be 8b57 d63d
000001d0: 09d7 26bf 900d cbbc 8ead b0bb 1789 19bf
000001e0: 0656 07bc 6cf6 58be 361c ee3e 881a ed3d
000001f0: 0a10 5ebe 5724 88bb 16cf c23c a7c9 b93e
00000200: 607b 82be 9b7c 193f 572f 643e cc73 80bd
00000210: 9a62 a23e 4fa4 5fbc 8081 0f3d 3f9f 18bf
00000220: dae8 90bd 2282 b8be 2fd8 15bf 90c7 ad3e
00000230: 212a 57be 7511 cd3c 1907 8abc 9def 5d3c
00000240: 2a31 3d3d 151b 493e 1a3d 293f 566f 2fbf
00000250: aa39 5cbe 4228 bc3b b8e1 e33c a429 133d
00000260: 4f0a c43e 98ab e33e cf14 28be a9c8 a83e
00000270: c254 d9be a4e2 9d3a 92e5 6ebc 3be7 a33c
00000280: 3bbe f23e 3574 703e d26e 803d 1845 10be
00000290: 723f 023e ed5a 1a3d 51de 093d fa0a 783d
000002a0: 9c05 2b3e 4c71 063f 7de8 f03e faee 0bbe
000002b0: 115f c43d 9806 e8ba 0640 2f3d e86f 28be
000002c0: 54be dabe ca8b 383e 50c1 21bf 05cd fdbc
000002d0: 6239 603e 7de2 2eba ecbb 493c b54f 57be
000002e0: 8573 3d3f ee04 503e 1a1a a53e ad4d 0a3e
000002f0: 5f4e a83d 0161 763b db61 823d 7121 98be
00000300: ae52 fbbe c4e8 03bf 14f9 153f 6599 4fbe
00000310: 6960 153d 1670 623c a13c efbc c936 9b3e
00000320: 685b d5be 5dc1 18be 19f7 e83e 8085 f4bd
00000330: 9059 73bc 3f43 443c 751c f2bb 21ec 08bf
00000340: 7b9b babe e391 66be cc84 df3e c205 b63e
00000350: cdfc 1e3f 4851 a1bb 035a c0bd 7c97 3bbe
00000360: 53d2 d2be 48f0 80be 5617 ac3d 7eb2 25bd
00000370: 9a80 2e3e 1667 8a3b f767 99bc 3bd4 1d3e
00000380: 9ec7 ca3e 2bc1 57be 5717 343e f881 8e3e
00000390: 266b b33d e456 543b e333 18bd fd83 8abe
000003a0: 3bdf 2c3e 8ebc b3be ce65 913d c351 60be
000003b0: 11a7 0e3f a9dd 2c3d 810d a2bb c427 05be
000003c0: 899d da3d f3da 633e 3243 9ebe 29b2 0b3e
000003d0: f644 05bf 4254 d0bc 9076 fdbb a998 71be
000003e0: 5b4d cf3e 1895 973e 01db 04be 4e84 b93c
000003f0: 0ae1 003e 11a4 d53d 5786 983d b58e 52be
0.109225474 0.3188226 0.49830732 -0.75360537 0.3211129 0.053452354 0.05349509 -0.043325525
0.38026842 0.41675317 -0.12646514 0.09141729 -0.16693626 0.003739641 0.004017703 0.25143844
-0.25935602 -0.34813303 0.45471644 0.3183617 0.20518164 0.014566578 -0.07819825 -0.3939384
-0.45222595 0.11136187 -0.76144797 -0.15593913 0.39043742 0.01778013 0.03761457 -0.540525
-0.06545271 0.5306727 0.008320965 0.43254423 -0.09647462 -0.0105607165 -0.005588896 0.41363937
0.0125174895 -0.4854002 -0.014644214 -0.12319891 0.32682177 0.028297387 -0.000592141 -0.13287875
0.4410516 0.11291598 -0.43329602 0.21591078 -0.1345722 0.004225738 -0.029322699 0.18355036
0.80313873 0.12846391 0.3702026 0.5185043 -0.0059289867 -0.012850889 0.018615734 -0.036571354
-0.81866723 0.16666968 0.21402894 -0.160057 -0.0019850088 -0.031734116 0.024542795 0.18622625
-0.16846691 -0.098178685 0.71477133 0.044247083 0.02056581 -0.024490293 -0.010398502 -0.27726263
0.5388858 0.22356214 0.3363207 0.30550328 0.16662388 0.025527092 -0.03358584 -0.31260997
-0.5833923 0.16651309 -0.5190598 0.041985292 -0.18592292 0.0017024657 0.017876446 -0.5179515
-0.3126665 0.058221955 -0.4739272 -0.1234799 0.5140072 -0.015940377 -0.012480441 -0.1608139
0.02700976 -0.083339736 -0.15590987 -0.27380353 0.5512114 0.014407499 0.0027194028 0.17993043
-0.5501227 0.34157684 -0.31360477 0.10465916 -0.6517187 -0.02478674 -0.005391783 -0.5997481
-0.008260256 -0.21187752 0.46505898 0.11577326 -0.21685806 -0.0041547227 0.023780387 0.3628666
-0.25484753 0.5995576 0.22283684 -0.062720865 0.31715852 -0.013650014 0.03503561 -0.5961799
-0.07075663 -0.36036783 -0.58532995 0.33941317 -0.21012165 0.025032738 -0.016849088 0.013545898
0.046189465 0.19639237 0.6610886 -0.6852926 -0.21506372 0.005742104 0.027817592 0.035928383
0.38289115 0.44466853 -0.16414188 0.32965592 -0.42447478 0.0012045694 -0.014581101 0.02000772
0.4741076 0.2348183 0.06271137 -0.14088857 0.12719515 0.03768437 0.033659283 0.060557343
0.16701359 0.5251663 0.47052374 -0.13665381 0.09588445 -0.001770216 0.042785667 -0.16448939
-0.42723334 0.18022075 -0.63185596 -0.03098155 0.2189689 -0.00066713226 0.0123128705 -0.210265
0.74004394 0.2031438 0.32246476 0.13506193 0.08218073 0.003759444 0.06366321 -0.29713014
-0.49086517 -0.5152705 0.5858319 -0.20273359 0.036468897 0.013820669 -0.029203715 0.30315235
-0.416713 -0.14917512 0.4550102 -0.119395256 -0.014852896 0.011978923 -0.0073886462 -0.53485304
-0.36446747 -0.22516589 0.43656003 0.35551268 0.62104493 -0.0049230196 -0.093921684 -0.18319505
-0.4117609 -0.2518332 0.084028885 -0.040453427 0.17041245 0.0042237146 -0.018726332 0.15412991
0.3960542 -0.21069781 0.17587028 0.27833533 0.08760671 0.0032400424 -0.037158858 -0.27053824
0.1688203 -0.35104793 0.07099496 -0.2190619 0.55723673 0.04220358 -0.0049454574 -0.1300345
0.10674579 0.22251491 -0.3091064 0.13642181 -0.5205835 -0.025430802 -0.007735081 -0.23593391
0.40488705 0.29605937 -0.12974168 0.022646096 0.12585846 0.10431684 0.07447498 -0.20562251

layers.0.bias f4 [100]
00000000: c598 5dbe 3a5b 1b3d 808c adbe 7952 25bf
00000010: 60d9 3fbe af5e 383e 9ab5 37bf b0d8 36be
00000020: 12f2 b5bd c12e 2bbf ecd4 d7be db1a 81bd
00000030: 4556 3ebf f46c a7be 8655 2cbe f9ef 47bf
00000040: 9b9b e5be 07f2 fb3d ecb3 0c3d 093c 87bc
00000050: f220 2bbf f206 5b3d c05b 10bf ad79 f1be
00000060: 0382 10bf 0fd9 0a3e cd15 aebe cd7f d4be
00000070: cf17 773d 04f8 bcbd a290 273d a25a 8fbe
00000080: 983c a83e 49f7 0abe c789 38bf 4471 683e
00000090: 8d99 643d 0353 373d c711 313e b4e6 4a3e
000000a0: f007 cebc dfa1 0bbf c743 8a3e 3e49 40be
000000b0: 172a 63be 419e c2bd d79c f83d 1603 e9be
000000c0: 177b 18bf 411a a9be 685f 20bf 5dce 8b3e
000000d0: 1865 01bf bb4c 1bbf 3965 e5be 3cfd 05bf
000000e0: f823 b23d 1aa2 19be 88ba 50be 1bed ba3c
000000f0: 2d7a 3bbe 86fc 0cbf 8bf2 c83d c05a cd3e
00000100: daa6 4bbc 3301 c23b 7841 9cbe a096 1abf
00000110: 8178 293e b49f 78be c165 0dbd 9f55 0f3e
00000120: 2eb6 323e e056 3d3e a193 a1be 0a58 3fbf
00000130: a71a 833e 43c7 26be 58aa 8ebe 7922 23be
00000140: b9af 0abe fe46 7dbe 99d1 98be 7b22 8dbe
00000150: 12b5 e0bd ea9f e9be 25be 42bf 0877 71bc
00000160: d00b 96bd 9462 f9be 8a94 d1be 4d3a 0ebe
00000170: f64f 6c3e 91ae 19bd 66e5 a5be 067c 7f3e
00000180: b988 7dbe fde7 02be 2152 c4bd be43 273e
-0.21640308 0.037928797 -0.33896255 -0.6457897 -0.18735266 0.18004869 -0.71761477 -0.17856097
-0.08884062 -0.66868216 -0.42154634 -0.063039504 -0.74350387 -0.32700312 -0.168295 -0.78100544
-0.4484528 0.123020224 0.034351274 -0.01650812 -0.66847146 0.05347342 -0.5639 -0.47163144
-0.5644838 0.13559364 -0.34001008 -0.41503754 0.06032544 -0.09226993 0.040909417 -0.27998835
0.3285873 -0.13570894 -0.7208523 0.22699457 0.0558105 0.0447569 0.17291938 0.19814569
-0.02515027 -0.5454387 0.27004835 -0.1877794 -0.22184025 -0.09502841 0.1213929 -0.45510167
-0.5956282 -0.33027843 -0.6264558 0.2730588 -0.5054488 -0.60663956 -0.4480379 -0.5233953
0.08698267 -0.15003243 -0.20383656 0.022818139 -0.18308325 -0.5507282 0.098118864 0.401083
-0.012429917 0.005920553 -0.305187 -0.60386086 0.16549875 -0.24279672 -0.03452087 0.13997506
0.17452309 0.18490171 -0.31557944 -0.7474371 0.25606272 -0.1628695 -0.27864337 -0.15931119
-0.13543595 -0.24734113 -0.2984741 -0.2756537 -0.109720364 -0.45629817 -0.7607139 -0.014737852
-0.07326472 -0.48708022 -0.4093364 -0.13889427 0.23077378 -0.037519995 -0.3240158 0.24949655
-0.24759187 -0.12783809 -0.09585977 0.16334435

layers.2.weight f4 [100, 100]
00000000: 6a0e 963d 5961 21bd 6679 f0be a73b 97bd
00000010: 05c1 c33c 6f07 c1be d5f6 383e 17d8 973d
00000020: 2ff9 14bd 3339 013d 6e09 26be aa42 2cbe
00000030: 1880 713e 4c0a 1cbc 06cd 0b3d 01dd 14bd
00000040: fbf6 d93d 542e e3bc e4a6 9dbe 3f38 2c3e
00000050: 1d11 843d fca1 0cbe 3e2e 85be 8bd2 84bd
00000060: 2c32 81bd ba21 f3be 596c ecbd 9f32 cdbd
00000070: cb83 a1bb e358 e5bd de0a 7ebe 285c 103d
00000080: b4e9 cdbd e885 b3be 5aec 4b3e b431 41bd
00000090: 52c0 623e e002 af3d b8dc a33d 9adc 15be
000000a0: 6f26 42be 5ea3 ea3a 9c01 fb3d aa44 503e
000000b0: ac61 f93d 78a9 87bd d1ee 6dbe 40e3 ef3c
000000c0: 2ad3 59bd 36f7 a1be a002 1cbe 4f45 3e3d
000000d0: 08d2 fe3d 6667 62be 00c1 3f3e 787d 533d
000000e0: 7839 2cbc 8bff 3fbe 3d9b ec3d 73bc b3bd
000000f0: 4779 3abe ad6b febe 54f5 c73d 2943 aebe
00000100: 64d7 b8be 5287 15be 47e0 003e f8c5 463d
00000110: 39e0 23be d2ba 30be 57b1 3f3d 9ed3 5bbe
00000120: 79b2 76bd 7c91 123e 6578 a33c 09fe a2bc
00000130: c5b5 9abe 05ee d9bc d8d6 06be fc37 fa3d
00000140: 3a64 00be 3a8d 513e 57dc a0be 1458 d8be
00000150: 4fe0 dbbd 75b0 01bf 94b9 ab3d 7c7d dabd
00000160: 1e8f 22be 1683 05bf 82b8 f73d 7424 9ebe
00000170: b078 a7bd 4aa6 843d c581 3d3d b9e7 aebe
00000180: 80ce 0cbe 433c 33be a13b 6bbd b94d f3bd
00000190: de15 1cbe 8724 03be f9d7 bb3e 02ec 73bd
000001a0: 6c92 903d 5239 ffbd 4694 073e b980 1cbe
000001b0: 907a 2abf 5ba9 0cbe 0594 2abd fcc3 74be
000001c0: 51df 76bd a872 27be 0961 7a3d 4b51 883e
000001d0: 329c 6fbf 50f8 21bd 8a39 52bf b71e 87be
000001e0: 56ef 853c e128 87be 2e0d 583d 0440 593e
000001f0: eaab b83e 9186 05bd cfc5 a43e f602 043e
00000200: 3e87 1ebe 7db2 58be 2e38 2fbe 6559 0abc
00000210: 9863 21be dca6 0a3e 3011 77be b5e8 43be
00000220: 1dcd 5fbe 3ea7 223e abec 67be e614 86be
00000230: 028f e33d 6b40 b0bd 1d9d 50bd 6ee9 46bf
00000240: cd72 89be 40b7 59be 7f00 11be d57c c53d
00000250: e75b 413c 15a5 b63e 51cc f03d cdbc 96be
00000260: 734d cfbd 47e4 773e c50d df3d e2af 573d
00000270: 1f15 bf3d b3b4 dd3d 158e 0cbe 962e 2fbe
00000280: 770b 0a3f f675 43bf 0f12 17bf fe69 70be
00000290: 3f66 1cbe 3e36 e5be 3c99 bd3a a325 753d
000002a0: d98b 15bd e60a 1c3e ed50 31be e657 82bd
000002b0: 8d10 6a3d 5ee1 0dbe 47a1 293e 8309 003e
000002c0: 8dd0 60be 66ac 8d3e 1f09 d83e 0b68 1bbe
000002d0: 8f87 00be 20aa 343d fdab e2be 388e 383e
000002e0: 0b47 3f3e e9e1 5a3d 0916 1dbd 4780 6bbe
000002f0: 33ff d3bd 9741 06be e212 80bd 3c4d ecbd
00000300: e65c bdbe 1da7 e4bd 826c b5bd 1020 b3be
00000310: 3c37 5bbd 17d5 783d 56ec 193e f630 1dbe
00000320: c985 4bbf 497e a0be b021 6f3e cec9 65be
00000330: cd95 7fbe 3978 6abe 33be 13bf 7d2a 1fbf
00000340: f6db 2abf 7838 36be c544 92bc 8eb7 c3be
00000350: d41b 98be 05f5 223e 29e4 b1be 7009 b3be
00000360: ff9b 0bbf f7df 70be b368 f7be b9a9 bcbe
00000370: 870f 9a3e c94b a0bb effa 31be 39cd 2cbe
00000380: a5df f13e 2256 7ebe 3107 303e 412c b33e
00000390: 98cc 20be 70a9 c4be 1996 05bf 66d3 94bc
000003a0: 63bb c83d 31a6 b73d 8d20 043e 8993 84be
000003b0: 9651 c8be 7e01 cb3c 55b2 06bf 17f4 62be
000003c0: ef40 4fbe 2b49 eebe 8a0e 23be 6a99 b9bd
000003d0: 79cf bdbe 2156 82bd 2214 f1bc a947 47be
000003e0: 08f7 ffbe b4e6 8a3d 1d93 84be 53f0 183d
000003f0: bb4c 77bd 999e 903e a4f6 9d3d 2780 cebd
0.07326968 -0.03939948 -0.4696762 -0.07384425 0.02389575 -0.37700984 0.18062909 0.07414263
-0.036370452 0.03154869 -0.16214535 -0.16822305 0.2358402 -0.009523939 0.034131072 -0.03634358
0.10642811 -0.027732052 -0.3079139 0.16818331 0.064485766 -0.13733667 -0.26011842 -0.064854704
-0.06308398 -0.4748667 -0.11544103 -0.10019421 -0.004929041 -0.111985944 -0.24808833 0.035244137
-0.10054341 -0.350631 0.1991438 -0.04716654 0.22143677 0.0854547 0.08001083 -0.14634934
-0.18959974 0.001790147 0.12256166 0.20338693 0.121768326 -0.066241205 -0.23235632 0.029283166
-0.053179897 -0.3163392 -0.15235376 0.046452817 0.12442404 -0.22109756 0.18725967 0.05163333
-0.0105117485 -0.18749826 0.11553047 -0.08776178 -0.18210326 -0.49691525 0.097635895 -0.34035614
-0.3610183 -0.14602402 0.12585555 0.04852864 -0.16003503 -0.17258766 0.046799984 -0.21467444
-0.0602288 0.1431331 0.01995487 -0.019896524 -0.30216804 -0.026602754 -0.13167894 0.122177094
-0.12538233 0.2046403 -0.31418106 -0.42254698 -0.10736143 -0.5065988 0.083850056 -0.106684655
-0.15874907 -0.52153146 0.12095739 -0.30887187 -0.08177316 0.064770296 0.046266336 -0.34161165
-0.13750648 -0.17503457 -0.057429913 -0.11880059 -0.15242717 -0.12806903 0.36688212 -0.059551246
0.07059178 -0.12462105 0.13240156 -0.15283479 -0.66593266 -0.13736479 -0.04164507 -0.23902887
-0.060271565 -0.16352332 0.061127696 0.26624522 -0.9359771 -0.03954345 -0.8211905 -0.2639062
0.016349476 -0.26398376 0.052746944 0.21215826 0.3606866 -0.032599036 0.32182166 0.12891755
-0.15481278 -0.21161838 -0.17111275 -0.008444165 -0.15760648 0.13540214 -0.2412765 -0.1913174
-0.21855588 0.1588411 -0.22648875 -0.2618782 0.11111261 -0.08606037 -0.050931085 -0.77699935
-0.268454 -0.2126131 -0.14160345 0.096429504 0.011801696 0.35672823 0.1175772 -0.2944092
-0.10122194 0.24208175 0.10891298 0.05265797 0.093302004 0.10825481 -0.13726075 -0.17107615
0.53923744 -0.7635187 -0.5901193 -0.23477933 -0.15273379 -0.44767946 0.0014465223 0.059850346
-0.036510322 0.15238532 -0.17316027 -0.063644215 0.05714469 -0.13855502 0.16565429 0.12503628
-0.21954556 0.27670592 0.4219446 -0.15176408 -0.12551711 0.044107556 -0.44271842 0.18023002
0.18679444 0.0534381 -0.038351092 -0.22998153 -0.1035141 -0.13110958 -0.062536016 -0.11538169
-0.36984938 -0.11164687 -0.08858587 -0.349854 -0.053519472 0.060750093 0.15031561 -0.15350708
-0.79501015 -0.31346348 0.23352695 -0.22440264 -0.24959488 -0.22897424 -0.57712096 -0.62174207
-0.66741884 -0.17794979 -0.017855057 -0.3822598 -0.2970873 0.1591378 -0.34744385 -0.34968138
-0.54534906 -0.23522936 -0.48322067 -0.36848238 0.3008997 -0.004891847 -0.1738088 -0.16875161
0.4724094 -0.24837545 0.17190243 0.349947 -0.15703046 -0.3841052 -0.52182156 -0.018167209
0.09801366 0.08967245 0.12903042 -0.2589381 -0.39124745 0.024780985 -0.52615863 -0.22163425
-0.20239614 -0.46540198 -0.15923515 -0.090624645 -0.37072352 -0.06364084 -0.029428545 -0.1946093
-0.49993157 0.067822844 -0.2589349 0.037338566 -0.06037591 0.28246 0.077130586 -0.10083037

layers.2.bias f4 [100]
00000000: 79d4 5ebd 2d4e 8bbe bdb2 82bd c694 bf3c
00000010: b371 c9bd 515a 113e 3b5e 93bc e3f5 c7bc
00000020: 7ff2 b8be b2fe 79be 82e9 85be 4bf3 19be
00000030: 7ce7 803b aff9 a93d c146 c5bd 4287 59be
00000040: 589f efbd 6ae6 31bd 0571 3cbe 85d5 d8bd
00000050: 5985 e6bd 5a52 48bd 7570 72be bb04 5c3c
00000060: 37b9 133c 1b8b 733d 587a 20bd 8320 aebd
00000070: 418c 19be be0e f7bd eb16 5fbd d966 2c3e
00000080: 9c06 05be e08e 2dbe 222c 783b 53ed 02bb
00000090: 69e4 283e dd44 4ebe 0985 763e 128f 0abe
000000a0: eb82 05be aba9 853d dd21 d53d bd54 e6bd
000000b0: 5f77 98bd dc66 40bc 7d1c 60bc 7880 98bd
000000c0: 8c9f aabd 30d8 113c 5ee0 4fbe 4ecd 85bd
000000d0: 4fbc a3bd 8dbc 6fbd 4833 ac3a 38a8 47bd
000000e0: 4fed 96bc d582 2b3d 3a8d 27bd 0bc7 37be
000000f0: 26a2 74be e86a 753c 3258 a0bc 8b59 983c
00000100: f73b 43bd e098 31be e5c7 cdbd 17e4 babe
00000110: e5ba 5abe 57d2 07be 09c7 a63d 231e 94bd
00000120: b60e 8dbd f398 7ebe 4de4 4abe 7d04 1dbe
00000130: dc40 84bd 8819 3ebc 2aa3 65be 991d 5f3d
00000140: c0cf b1bd c36c 6fbe 1368 05bd cf64 3e3c
00000150: 6470 85be 6380 69bd 6242 ddbd 6052 09bb
00000160: 9ba8 46be c2fe ebbd 4361 e23d 90a4 66bd
00000170: 74b3 0fbe 7383 d7be 5a33 d0bd 1cc5 a5bc
00000180: 2bed 0fbe 704d d9bd fc53 2ebd bcee 07bd
-0.05440185 -0.2720808 -0.06381748 0.02338637 -0.098361395 0.14194609 -0.017989269 -0.02440924
-0.3612251 -0.24413565 -0.26154715 -0.15034215 0.003933845 0.082995765 -0.09632636 -0.21243003
-0.11700314 -0.04343263 -0.18402489 -0.105876006 -0.11255903 -0.04890666 -0.23675711 0.013428862
0.009016327 0.059458833 -0.039179176 -0.08502295 -0.14994909 -0.12063359 -0.054465216 0.16836108
-0.12990803 -0.16949034 0.0037868102 -0.0019977882 0.16493382 -0.20143457 0.24074186 -0.1353114
-0.13038222 0.06526502 0.104068495 -0.11246631 -0.07444643 -0.011743274 -0.013678667 -0.074463785
-0.083312124 0.008901641 -0.20300433 -0.065332994 -0.079949014 -0.058529425 0.0013137842 -0.04874441
-0.018423704 0.041872818 -0.04090617 -0.17947023 -0.2388998 0.014979102 -0.019573305 0.018597385
-0.04766461 -0.17343473 -0.100478925 -0.36502144 -0.21360357 -0.13263832 0.08143432 -0.072323106
-0.068875715 -0.24863033 -0.19813652 -0.15333743 -0.064576834 -0.011602767 -0.22425523 0.054471586
-0.08682203 -0.23381333 -0.032569956 0.011620714 -0.2606231 -0.057007205 -0.10803677 -0.002095364
-0.19400255 -0.115232006 0.110537075 -0.056309283 -0.140333 -0.42092475 -0.101660445 -0.02023559
-0.14055316 -0.10610473 -0.042560562 -0.03318666

layers.4.weight f4 [2, 100]
00000000: 26d1 18be 94fa 1cbc 29ea 2d3d cfc6 3a3c
00000010: d632 d6bc 7899 e8bc 673b 08be 294b 9d3f
00000020: 3fe3 83bc 5586 fd3e 274f db3e 3e2a 333e
00000030: 974d 03bf 157f d0bb 5c3e 693c dc71 a23c
00000040: 9df5 413d db3c c23e 5610 0c3f f139 103f
00000050: df6d a2bd cbc9 a0be 0482 f03f ac38 01bd
00000060: 3759 61be fc3c 053c 1876 c2bd e7ce 12bc
00000070: b3ad 873d 9e5d 70be bc0f be3c 0466 5d3c
00000080: a73f ad3c b746 b0be 43dd 1abf bef7 64be
00000090: ce37 0c3e 7837 a6be 64ab 5eb8 37ab d43b
000000a0: 28f6 3d3f 9e45 87bd 6edd 53bd d53e a93e
000000b0: d375 a53d 91e8 b33e 92e3 b8bd c1dc 5e3e
000000c0: d5da 93bc 4dc3 0abd 56d1 02be 0609 683d
000000d0: f3d4 003d 9fbb 1f3f df16 59be 0349 7abd
000000e0: 7c13 513f 3de8 4fbf 120f e3bd ca06 e93e
000000f0: cac1 39be 96a9 653f f1da 1cbe 9ed1 c1bc
00000100: 7713 25bf 3535 3cbf 67a6 d6be 63ba 043f
00000110: f476 92bd ab70 15bd 09f1 d0be 8cde 033f
00000120: e04e a73d 53a8 9d3f 2c28 173e bdc3 533e
00000130: 634f ea3e 6cdd 2a3f d056 cfbe a979 bebc
00000140: ee0e b33f 7d68 213c 380a 07be a2f6 2a3f
00000150: 3598 50be e2c7 c5bd d346 e83c 68fc 043e
00000160: 17c0 593f 6b7e 7bbd 77c1 ab3b 43fc 81bb
00000170: 5a25 19bb 8d5c f6bc c003 013e 790c 553f
00000180: 3e88 8f3e d071 983e b44c 1dbe 17e2 083e
00000190: 8ba8 273e c008 1c3f 1ca1 743f e3cf 5cbe
000001a0: 6e82 d63d fec2 59bf b720 d83e 9541 f0be
000001b0: 35f0 d23f e5fd 723f 188e 09bf 423f 49bf
000001c0: 91d1 063f 0f83 0e3f 700a c43e d7d7 cc3e
000001d0: 5933 4f3d d333 99bd fb4e debf e88f b7bf
000001e0: 5df6 0dbd b36b 74bd c17e 203f 8e19 82bd
000001f0: 536c 6b3e 49be 9fbe 5414 ea3d e53c 16be
00000200: 685b af3d 9f9a 77bc 3602 fa3b 8634 1bbe
00000210: bd9a b23c 6736 34be 1ea0 f53e f803 c53e
00000220: 0d36 23bd ef97 b0bf ddde 3fbe da16 063e
00000230: d5fd d33b 106c 05be d302 55bd becd ac3e
00000240: 6711 5c3d 440c 41bf 4a9f 043f 9a7a b03e
00000250: 2cd7 b1bf 9b7a 84bf a4d4 d03e 1b75 533e
00000260: 0e95 52bc 2a8d 253e 91f4 fa3c 946a bf3c
00000270: c67c 81be 52d9 4f3e a361 a8bd 3692 62be
00000280: fae4 1e3f c424 5cbe 08aa 25be 1c35 b73e
00000290: 8658 2dbd 5081 e0be 1c3f dfbe 4452 503f
000002a0: c8ca 79be 3a1d 1c3f cd19 0a3b d0a5 373e
000002b0: 0ef6 82be 69b8 9d3d 0930 a53d cd13 07bf
000002c0: 97a0 5c3e a792 4cbe 6869 2dbf 71d6 363e
000002d0: 951a 003d 5ba1 29c0 c97c 473f eac5 6f3f
000002e0: d7c1 c8bf 8641 563d 779f a93d cb27 d3be
000002f0: ee4b b2bf 9958 c43d 3625 073f 5542 b73d
00000300: 052f b2be 1591 f43f 5d94 2b3e 84f7 cfbd
00000310: f5c8 873e 5bd7 bfbf 0ff3 cb3e d24b c339
-0.14923534 -0.009581227 0.04245964 0.011399939 -0.026147287 -0.028393492 -0.1330391 1.2288562
-0.01609957 0.4951655 0.42833826 0.17496583 -0.5129027 -0.0063628056 0.014236059 0.019829683
0.047353376 0.37937054 0.54712427 0.5633841 -0.079311125 -0.31403956 1.8789678 -0.031548187
-0.22006689 0.008132216 -0.09495181 -0.008960462 0.06624927 -0.23473212 0.023200862 0.013513092
0.021148516 -0.3442895 -0.6049387 -0.22360131 0.13693163 -0.32464194 -5.3088545e-05 0.006490137
0.7420373 -0.06605075 -0.051724844 0.3305575 0.08079114 0.35138372 -0.090277806 0.21763898
-0.018048683 -0.03387766 -0.12775168 0.05664923 0.031453084 0.6239566 -0.21200131 -0.061104786
0.81670356 -0.8121374 -0.11086859 0.45512992 -0.18140331 0.8971189 -0.15317895 -0.023659524
-0.64482826 -0.7351869 -0.4192383 0.51846904 -0.07151595 -0.0364844 -0.40808895 0.51511455
0.08169341 1.2316993 0.14761418 0.20680137 0.45763692 0.6674411 -0.4049592 -0.023251371
1.3988931 0.009851572 -0.13187492 0.6678258 -0.20370562 -0.09657265 0.028354084 0.1298691
0.8505873 -0.06139986 0.0052415687 -0.0039668395 -0.002336821 -0.030073429 0.12599087 0.83222157
0.28033632 0.29774332 -0.15361291 0.13367496 0.16372888 0.6095085 0.95558333 -0.21563677
0.10474096 -0.8506316 0.4221246 -0.46925035 1.6479555 0.9491866 -0.5373244 -0.7861215
0.5266352 0.5566873 0.38289213 0.40008423 0.05058608 -0.07480588 -1.7367853 -1.4340792
-0.03465878 -0.059673022 0.6269341 -0.063525304 0.22990541 -0.31199864 0.114296585 -0.14671667
0.08562356 -0.015112548 0.007629658 -0.15156755 0.0218023 -0.17598878 0.47973722 0.3847959
-0.03984647 -1.3796366 -0.1873736 0.13094655 0.006469468 -0.13029504 -0.052004647 0.3375072
0.053727534 -0.7540934 0.51805556 0.34468538 -1.389379 -1.0349916 0.40787232 0.20650141
-0.01285292 0.16167131 0.030634196 0.02336625 -0.25290507 0.20297745 -0.08221748 -0.22126088
0.6206814 -0.214984 -0.16178143 0.35782707 -0.04232075 -0.43848658 -0.43602836 0.8137553
-0.24393761 0.60982096 0.0021072507 0.17934346 -0.2557835 0.07701189 0.080658026 -0.5276459
0.21545635 -0.19977818 -0.6773896 0.1785524 0.03127535 -2.6504734 0.7792478 0.9366137
-1.5684155 0.05230858 0.08282369 -0.41241297 -1.3929422 0.09587211 0.52791154 0.08948199
-0.34801498 1.9106776 0.16755815 -0.10154632 0.26520506 -1.4987596 0.39833876 0.0003724979

layers.4.bias f4 [2]
00000000: 0aae 27bc fcbf 793d
-0.010234365 0.060974106
