Save/Trainings/RL_AM/4800000/actor_target.pt (torch, 46871 bytes, 6 tensors)

layers.0.weight f4 [100, 8]
0.10938176 0.31926182 0.49871352 -0.7550561 0.31852868 0.051254682 0.05171541 -0.043515917
0.38274908 0.41524902 -0.12752141 0.08859738 -0.16940151 0.004995969 0.008002129 0.25089872
-0.25879434 -0.34840912 0.4513752 0.3139877 0.20203069 0.012492548 -0.07746233 -0.3951288
-0.4555024 0.11042483 -0.76533663 -0.15583274 0.38512185 0.019652845 0.043796584 -0.5365789
-0.064858064 0.53231823 0.005692048 0.43467778 -0.09416326 -0.011173986 -0.006287554 0.41346037
0.014420756 -0.48434842 -0.014835636 -0.12440195 0.32523084 0.030077057 -0.0007818263 -0.13311435
0.4350113 0.11562163 -0.4310118 0.21128538 -0.1329408 0.0049838456 -0.0279245 0.18093039
0.8043336 0.13183299 0.36896494 0.51653045 -0.005793891 -0.014063179 0.020903468 -0.036963336
-0.8163473 0.16846219 0.21366979 -0.16113147 0.0021786024 -0.03217779 0.022076683 0.18460125
-0.1684682 -0.098180115 0.7147736 0.044247176 0.020565672 -0.02449064 -0.0103986915 -0.2772602
0.53618944 0.226776 0.3390364 0.30557373 0.16174184 0.021741599 -0.029909687 -0.30655146
-0.5773255 0.16910554 -0.5219846 0.04157221 -0.18346606 0.0002317806 0.015123734 -0.5170744
-0.31267136 0.05822224 -0.47393188 -0.12348082 0.5140012 -0.015940718 -0.012480572 -0.160812
0.02944743 -0.0849434 -0.1565039 -0.27436975 0.5495245 0.014472753 0.0043587284 0.18141904
-0.552104 0.34069008 -0.3176273 0.104813725 -0.65433925 -0.027307918 -0.006168105 -0.5971295
-0.0050293626 -0.2082138 0.46850187 0.11905804 -0.2164027 -0.0021820609 0.027161911 0.3628034
-0.25484884 0.5995696 0.22283962 -0.062721655 0.31715366 -0.013650128 0.035036013 -0.5961722
-0.069668174 -0.36149958 -0.58498263 0.3407734 -0.21296756 0.019432282 -0.016299618 0.012543428
0.045332737 0.19610894 0.6647886 -0.6832392 -0.21322905 0.005559778 0.025885843 0.032504775
0.38395733 0.44609818 -0.16375692 0.3322125 -0.42505834 0.0029479503 -0.012108401 0.018414013
0.4750614 0.2357792 0.062345784 -0.14145865 0.12649715 0.03901929 0.032218754 0.06124626
0.16102241 0.524312 0.46372902 -0.14219297 0.09997202 -0.00026764488 0.039806884 -0.16748665
-0.42619994 0.17885177 -0.62960964 -0.031003894 0.22033566 -0.0003965097 0.014451999 -0.21224311
0.7393092 0.20438 0.3214846 0.13755451 0.07818581 -0.0012173894 0.066009745 -0.29613143
-0.48801234 -0.5152411 0.5820565 -0.20307477 0.037366007 0.015654696 -0.0306706 0.30323547
-0.41973254 -0.14989172 0.45657283 -0.118640564 -0.017085273 0.010348078 -0.005163343 -0.5319588
-0.3627938 -0.2215629 0.435389 0.35615277 0.62192214 -0.005192466 -0.09309465 -0.18467933
-0.4097386 -0.24934839 0.08221658 -0.045128316 0.16964918 0.0074468227 -0.018836824 0.15235448
0.3986752 -0.2103522 0.17270231 0.2776661 0.08797366 0.005815645 -0.036747295 -0.2722806
0.17243072 -0.3528613 0.07158215 -0.22142063 0.55344397 0.036057867 -0.006721092 -0.12915327
0.10493722 0.22303283 -0.309172 0.13715495 -0.5215597 -0.02511729 -0.0070855827 -0.2367313
0.4043019 0.29876304 -0.13326119 0.020351334 0.12333119 0.10416216 0.07833933 -0.20252386
00000000: 8b03 e03d 4976 a33e 6157 ff3e 5b4b 41bf
00000010: 3116 a33e 6ef0 513d 8ad3 533d bf3d 32bd
00000020: b0f7 c33e 859b d43e f994 02be 8b72 b53d
00000030: 9777 2dbe 3ab5 a33b 5d1b 033c cc75 803e
00000040: b180 84be ae62 b2be a61a e73e ffc2 a03e
00000050: 22e1 4e3e 8bad 4c3c 92a4 9ebd 524e cabe
00000060: 9c37 e9be 6a26 e23d 1aed 43bf 9e92 1fbe
00000070: b12e c53e 01ff a03c 0c64 333d 3c5d 09bf
00000080: 4ed4 84bd 0246 083f 5c84 ba3b 168e de3e
00000090: abd8 c0bd 1813 37bc d307 cebb 14b1 d33e
000000a0: 0945 6c3c 84fc f7be 2b11 73bc 73c6 febd
000000b0: a884 a63e 2964 f63c 7af3 4cba 214f 08be
000000c0: cdb9 de3e 08cb ec3d 94ad dcbe 325b 583e
000000d0: a221 08be 874f a33b ecc1 e4bc d145 393e
000000e0: cfe8 4d3f 3aff 063e f9e8 bc3e 573b 043f
000000f0: aeda bdbb 3f69 66bc c03d ab3c de66 17bd
00000100: 23fc 50bf 5a81 2c3e 41cc 5a3e a6ff 24be
00000110: e2c6 0e3b dccc 03bd 29da b43c 1c08 3d3e
00000120: ee82 2cbe a812 c9bd 67fb 363f 873c 353d
00000130: 5779 a83c 98a0 c8bc 465f 2abc 0df5 8dbe
00000140: b643 093f f837 683e 2e96 ad3e 2974 9c3e
00000150: a79f 253e 701b b23c 2905 f5bc 50f4 9cbe
00000160: 9bcb 13bf 012a 2d3e c8a0 05bf 9f47 2a3d
00000170: 87de 3bbe 220a 7339 8ac9 773c fd5e 04bf
00000180: 7616 a0be 727a 6e3d 33a7 f2be 83e3 fcbd
00000190: 9595 033f 1c96 82bc 507b 4cbc e7ab 24be
000001a0: bd3b f13c cef6 adbd 8f42 20be 317a 8cbe
000001b0: a3ad 0c3f 201f 6d3c aad3 8e3b eac5 393e
000001c0: b056 0dbf ee6e ae3e 0ca0 a2be 94a8 d63d
000001d0: c782 27bf dbb4 dfbc d11d cabb 7bdd 18bf
000001e0: 5acd a4bb 0036 55be 7adf ef3e b4d4 f33d
000001f0: ab98 5dbe e800 0fbb a882 de3c 5ec1 b93e
00000200: 8c7b 82be 657d 193f 1230 643e 3674 80bd
00000210: f761 a23e c9a4 5fbc ec81 0f3d be9e 18bf
00000220: 30ae 8ebd 7916 b9be 6cc1 15bf da79 ae3e
00000230: 2b14 5abe 7330 9f3c c786 85bc f382 4d3c
00000240: d2ae 393d c8d0 483e 962f 2a3f c4e8 2ebf
00000250: b758 5abe cc2e b63b 8c0e d43c ba23 053d
00000260: 0e96 c43e fb66 e43e e5af 27be c217 aa3e
00000270: 3fa1 d9be 6632 413b 5162 46bc fcd8 963c
00000280: 3f3b f33e 1a70 713e 4b5e 7f3d 89da 10be
00000290: 7888 013e b1d2 1f3d d0f7 033d 5cdd 7a3d
000002a0: 0fe3 243e 5039 063f e46d ed3e 099b 11be
000002b0: 21be cc3d b052 8cb9 8b0c 233d 9f81 2bbe
000002c0: e136 dabe eb24 373e 192e 21bf e1fb fdbc
000002d0: ac9f 613e a2e2 cfb9 14c8 6c3c 4256 59be
000002e0: 5e43 3d3f fe48 513e a199 a43e 17db 0c3e
000002f0: e21f a03d cf90 9fba 1e30 873d 8a9e 97be
00000300: c1dc f9be d7e6 03bf a801 153f d5f2 4fbe
00000310: 190d 193d 473e 803c e940 fbbc ae41 9b3e
00000320: 2fe7 d6be 377d 19be eac3 e93e d3f9 f2bd
00000330: 6af6 8bbc fc8a 293c 4331 a9bb 742e 08bf
00000340: 1cc0 b9be 63e1 62be 4feb de3e a859 b63e
00000350: 4a36 1f3f 9025 aabb 68a8 bebd 941c 3dbe
00000360: 42c9 d1be 2f55 7fbe 2b61 a83d 78d8 38bd
00000370: 84b8 2d3e 7a04 f43b af4f 9abc d002 1c3e
00000380: 281f cc3e 9166 57be e0d8 303e 402a 8e3e
00000390: 892b b43d 2b91 be3b 5584 16bd 5d68 8bbe
000003a0: ae91 303e 3caa b4be aa99 923d 17bc 62be
000003b0: 81ae 0d3f 6ab1 133d 9b3c dcbb c140 04be
000003c0: 53e9 d63d b862 643e cb4b 9ebe 5972 0c3e
000003d0: f084 05bf c6c2 cdbc 2d2e e8bb b169 72be
000003e0: a900 cf3e 78f7 983e 9f75 08be d7b7 a63c
000003f0: 1095 fc3d f852 d53d 5f70 a03d 6a62 4fbe

layers.0.bias f4 [100]
-0.21442997 0.037724905 -0.34121785 -0.64307797 -0.18751296 0.18193589 -0.7216319 -0.18038183
-0.08987569 -0.66867536 -0.42212138 -0.06596282 -0.7435031 -0.3260194 -0.16409066 -0.7807539
-0.4484509 0.12379633 0.03341204 -0.018043915 -0.6675254 0.047719844 -0.56495297 -0.4706179
-0.56646204 0.13735397 -0.34133217 -0.41671902 0.058133483 -0.08932832 0.039584875 -0.27898282
0.3297213 -0.13341732 -0.7208414 0.22835627 0.052198045 0.04700986 0.1742021 0.1975918
-0.027199928 -0.5445632 0.27004755 -0.18664025 -0.22203623 -0.09424987 0.118481874 -0.45701534
-0.59562385 -0.33211374 -0.62645143 0.27280217 -0.50544196 -0.6066388 -0.44803366 -0.52447003
0.084149726 -0.15139899 -0.19818014 0.027671283 -0.18350975 -0.55071765 0.09916679 0.4029724
-0.011314397 0.004402538 -0.30780536 -0.6019724 0.16481932 -0.24268007 -0.035648957 0.14127426
0.17143875 0.1848723 -0.31557414 -0.74353504 0.25781906 -0.16157633 -0.277842 -0.15770662
-0.13704535 -0.24990077 -0.30144358 -0.2760061 -0.111033276 -0.45689312 -0.7623946 -0.014947524
-0.074941784 -0.48835343 -0.40895587 -0.13673449 0.23161615 -0.039723545 -0.32739154 0.25067848
-0.24430686 -0.12881948 -0.09745073 0.16412026
00000000: 8893 5bbe 6e85 1a3d 1bb4 aebe c2a0 24bf
00000010: 6603 40be 674d 3a3e debc 38bf 04b6 38be
00000020: bf10 b8bd 4f2e 2bbf 4b20 d8be 8417 87bd
00000030: 3856 3ebf 04ec a6be 6207 28be 7ddf 47bf
00000040: 5b9b e5be ee88 fd3d 10db 083d d5d0 93bc
00000050: f2e2 2abf e275 433d c2a0 10bf d4f4 f0be
00000060: a803 11bf 85a6 0c3e 17c3 aebe 325c d5be
00000070: 601d 6e3d c4f1 b6bd c023 223d d6d6 8ebe
00000080: 3bd1 a83e 8d9e 08be 1089 38bf 3ad6 693e
00000090: 9ecd 553d 698d 403d 0962 323e 8155 4a3e
000000a0: 62d2 debc 7e68 0bbf ac43 8a3e 9f1e 3fbe
000000b0: 775d 63be 1306 c1bd a0a6 f23d eafd e9be
000000c0: ce7a 18bf d00a aabe 1f5f 20bf baac 8b3e
000000d0: a564 01bf ae4c 1bbf ab64 e5be ab43 06bf
000000e0: b156 ac3d 5608 1bbe bcef 4abe e3ae e23c
000000f0: fbe9 3bbe d5fb 0cbf f517 cb3d 6652 ce3e
00000100: 0560 39bc 2a43 903b aa98 9dbe dd1a 1abf
00000110: 65c6 283e 2081 78be a404 12bd 33aa 103e
00000120: a48d 2f3e 2a4f 3d3e ef92 a1be 5058 3ebf
00000130: dc00 843e 4474 25be 4e41 8ebe d87d 21be
00000140: 9e55 0cbe fde5 7fbe d056 9abe ac50 8dbe
00000150: 6a65 e3bd e5ed e9be 4b2c 43bf 76e6 74bc
00000160: 147b 99bd 7609 fabe aa62 d1be 2004 0cbe
00000170: c92c 6d3e 28b5 22bd dd9f a7be ee58 803e
00000180: 942b 7abe 41e9 03be 4094 c7bd 240f 283e

layers.2.weight f4 [100, 100]
0.07326982 -0.039399084 -0.46968207 -0.073843524 0.023896083 -0.37701464 0.18063055 0.07414303
-0.03637042 0.03154914 -0.16214417 -0.16822086 0.23584239 -0.009523807 0.034131512 -0.03634434
0.106429406 -0.02773202 -0.30791488 0.16818509 0.06448559 -0.13733669 -0.26011792 -0.064853646
-0.06308487 -0.47486174 -0.11544015 -0.10019327 -0.0049289833 -0.11198457 -0.24808818 0.03524389
-0.10054345 -0.35062766 0.19914378 -0.047167063 0.22143891 0.085456 0.080011114 -0.14634892
-0.1895981 0.001790155 0.122561425 0.20338763 0.12176719 -0.066240944 -0.23235552 0.02928323
-0.05317969 -0.31633708 -0.15235111 0.046453293 0.12442555 -0.22109917 0.18726157 0.05163369
-0.010511755 -0.18749702 0.11553104 -0.087762706 -0.1821028 -0.49691546 0.09763474 -0.3403518
-0.36102268 -0.14602408 0.12585682 0.04852903 -0.16003416 -0.17258692 0.04680049 -0.21467379
-0.06022869 0.14313027 0.019955095 -0.019896608 -0.30216306 -0.02660251 -0.13167723 0.12217846
-0.12538074 0.20464231 -0.3141794 -0.42254668 -0.10736222 -0.5065983 0.08384966 -0.10668422
-0.1587467 -0.52153516 0.12095805 -0.3088686 -0.08177244 0.06477168 0.04626703 -0.34160945
-0.13750656 -0.17503369 -0.057429504 -0.118801855 -0.15242562 -0.12807113 0.36688778 -0.059550688
0.07059208 -0.124620765 0.13240142 -0.15283391 -0.6659216 -0.13736351 -0.04164469 -0.23902828
-0.06027116 -0.163524 0.06112797 0.2662512 -0.93597853 -0.03954288 -0.82119185 -0.2639028
0.016349385 -0.26398623 0.05274755 0.21215549 0.3606889 -0.03259893 0.32182664 0.1289205
-0.15481278 -0.21161903 -0.17111169 -0.008444031 -0.15760528 0.1354025 -0.24127537 -0.19131471
-0.21855405 0.15884206 -0.22648744 -0.26187626 0.11111285 -0.08605951 -0.050931104 -0.77698904
-0.26845065 -0.21261147 -0.14160141 0.09643072 0.011801824 0.35673115 0.11757847 -0.2944085
-0.10122145 0.242083 0.10891343 0.052658144 0.09330296 0.10825629 -0.1372592 -0.17107593
0.53924966 -0.7635184 -0.5901164 -0.23478143 -0.15273555 -0.44767603 0.0014465431 0.059850942
-0.036509745 0.15238686 -0.17315912 -0.06364367 0.057144888 -0.13855559 0.16565487 0.125038
-0.2195435 0.27671182 0.4219506 -0.151764 -0.12551634 0.04410711 -0.44271693 0.1802312
0.18679368 0.05343748 -0.038350783 -0.22998028 -0.103513256 -0.131108 -0.06253688 -0.11538203
-0.3698442 -0.11164632 -0.08858526 -0.3498528 -0.053520177 0.060750227 0.15031858 -0.15350446
-0.79500157 -0.31345817 0.23352972 -0.22440128 -0.2495932 -0.22897296 -0.5771225 -0.6217426
-0.66741174 -0.17794836 -0.017854776 -0.38225988 -0.29708475 0.15914008 -0.3474388 -0.34967995
-0.5453413 -0.23522848 -0.4832183 -0.36847925 0.30089945 -0.0048918235 -0.17380881 -0.16875134
0.47241196 -0.24837428 0.17190443 0.34994814 -0.15703009 -0.38410166 -0.5218213 -0.018167326
0.09801471 0.089673035 0.1290278 -0.25893775 -0.3912423 0.024781212 -0.5261486 -0.22163264
-0.20239522 -0.46540242 -0.15923248 -0.09062374 -0.3707204 -0.06364069 -0.02942852 -0.19460787
-0.49993145 0.06782344 -0.2589318 0.03733899 -0.06037621 0.2824637 0.07713071 -0.10082955
00000000: 7d0e 963d ef60 21bd 2b7a f0be 463b 97bd
00000010: b8c1 c33c 1008 c1be 37f7 383e 4dd8 973d
00000020: 26f9 14bd ac39 013d 1f09 26be 1742 2cbe
00000030: ab80 713e be09 1cbc 7ccd 0b3d cddd 14bd
00000040: a9f7 d93d 432e e3bc 05a7 9dbe b638 2c3e
00000050: 0511 843d fda1 0cbe 2d2e 85be fdd1 84bd
00000060: a432 81bd 1421 f3be e36b ecbd 2132 cdbd
00000070: 4f83 a1bb 2b58 e5bd d40a 7ebe e65b 103d
00000080: b9e9 cdbd 7885 b3be 59ec 4b3e 4032 41bd
00000090: e2c0 623e 8e03 af3d dedc a33d 7edc 15be
000000a0: 0126 42be a2a3 ea3a 7c01 fb3d d944 503e
000000b0: 1461 f93d 55a9 87bd 9bee 6dbe 62e3 ef3c
000000c0: f2d2 59bd eff6 a1be ee01 1cbe cf45 3e3d
000000d0: d3d2 fe3d d267 62be 7fc1 3f3e d97d 533d
000000e0: 7f39 2cbc 38ff 3fbe 8a9b ec3d efbc b3bd
000000f0: 2879 3abe b46b febe b9f4 c73d 9742 aebe
00000100: f7d7 b8be 5687 15be 9ce0 003e 60c6 463d
00000110: ffdf 23be a0ba 30be dfb1 3f3d 72d3 5bbe
00000120: 5cb2 76bd be90 123e de78 a33c 36fe a2bc
00000130: 1eb5 9abe 82ed d9bc 65d6 06be b338 fa3d
00000140: cf63 00be c18d 513e 1fdc a0be 0a58 d8be
00000150: b9e0 dbbd 6db0 01bf 5fb9 ab3d 427d dabd
00000160: 7f8e 22be 5483 05bf dbb8 f73d 0624 9ebe
00000170: 4f78 a7bd 04a7 843d 7f82 3d3d 6fe7 aebe
00000180: 85ce 0cbe 083c 33be 333b 6bbd 634e f3bd
00000190: 7615 1cbe 1425 03be b7d8 bb3e 6ceb 73bd
000001a0: 9592 903d 2c39 ffbd 3d94 073e 7e80 1cbe
000001b0: d779 2abf 05a9 0cbe 9f93 2abd d4c3 74be
000001c0: e4de 76bd d672 27be 5361 7a3d 1452 883e
000001d0: 4a9c 6fbf b7f7 21bd a139 52bf 451e 87be
000001e0: 25ef 853c 3429 87be d10d 583d 4a3f 593e
000001f0: 37ac b83e 7586 05bd 76c6 a43e bc03 043e
00000200: 3e87 1ebe a9b2 58be e737 2fbe d558 0abc
00000210: 4763 21be f4a6 0a3e e410 77be 01e8 43be
00000220: a2cc 5fbe 7ea7 223e 53ec 67be a514 86be
00000230: 228f e33d f83f b0bd 229d 50bd c1e8 46bf
00000240: 5d72 89be d2b6 59be f6ff 10be 787d c53d
00000250: 705c 413c 77a5 b63e fbcc f03d b6bc 96be
00000260: 314d cfbd 9be4 773e 010e df3d 11b0 573d
00000270: 9f15 bf3d 79b5 dd3d ad8d 0cbe 872e 2fbe
00000280: 440c 0a3f f175 43bf de11 17bf 8b6a 70be
00000290: b566 1cbe cb35 e5be ef99 bd3a 4326 753d
000002a0: 3e8b 15bd 4d0b 1c3e a050 31be 9d57 82bd
000002b0: c210 6a3d 84e1 0dbe 6ea1 293e f609 003e
000002c0: 03d0 60be 2cad 8d3e e909 d83e 0668 1bbe
000002d0: 5b87 00be a8a9 343d cbab e2be 878e 383e
000002e0: d846 3f3e 42e1 5a3d b615 1dbd f37f 6bbe
000002f0: c2fe d3bd 2d41 06be 5613 80bd 6a4d ecbd
00000300: 385c bdbe d3a6 e4bd 306c b5bd e81f b3be
00000310: f937 5bbd 3bd5 783d 1ded 193e 4630 1dbe
00000320: 3985 4bbf 977d a0be 6a22 6f3e 73c9 65be
00000330: 5c95 7fbe e377 6abe 4dbe 13bf 862a 1fbf
00000340: 7fdb 2abf 1838 36be 2e44 92bc 91b7 c3be
00000350: 7e1b 98be 9ef5 223e 80e3 b1be 4009 b3be
00000360: 7d9b 0bbf bcdf 70be 6468 f7be 50a9 bcbe
00000370: 7e0f 9a3e 974b a0bb f0fa 31be 27cd 2cbe
00000380: fbdf f13e d455 7ebe b707 303e 672c b33e
00000390: 7fcc 20be f9a8 c4be 1596 05bf a5d3 94bc
000003a0: f0bb c83d 7fa6 b73d dd1f 043e 7d93 84be
000003b0: e950 c8be f801 cb3c adb1 06bf abf3 62be
000003c0: b140 4fbe 3a49 eebe d70d 23be f098 b9bd
000003d0: 10cf bdbe 0d56 82bd 1414 f1bc 4947 47be
000003e0: 04f7 ffbe 04e7 8a3d b592 84be c5f0 183d
000003f0: 0b4d 77bd 159f 903e b5f6 9d3d b97f cebd

layers.2.bias f4 [100]
-0.054401584 -0.27208057 -0.063816525 0.02353299 -0.09836043 0.14080712 -0.01798926 -0.024409058
-0.3612313 -0.24413341 -0.2608004 -0.15033945 0.0039338637 0.08383086 -0.09505089 -0.21156558
-0.117001794 -0.043432087 -0.18402505 -0.10587509 -0.11255827 -0.048906032 -0.23675436 0.013429032
0.009016422 0.05945904 -0.039178547 -0.08502238 -0.1496228 -0.120633215 -0.054464914 0.16998525
-0.13131326 -0.16949044 0.003786831 -0.0019977589 0.1653239 -0.2014326 0.24148248 -0.13430941
-0.13038082 0.0652664 0.10432595 -0.11246588 -0.07408764 -0.011743152 -0.013678628 -0.07445664
-0.08588308 0.008901683 -0.20300318 -0.06533197 -0.07994854 -0.05852921 0.0010782733 -0.048744354
-0.018423628 0.041873418 -0.04090559 -0.17946827 -0.23889714 0.014979127 -0.019573255 0.01962936
-0.04766402 -0.1734333 -0.10047788 -0.36501622 -0.21561033 -0.13263686 0.081435665 -0.072322115
-0.06887547 -0.2486276 -0.19813646 -0.15333757 -0.064576484 -0.011602707 -0.22425525 0.052216224
-0.08978559 -0.23418948 -0.032519143 0.011620774 -0.2606186 -0.057007056 -0.10803576 -0.0020954078
-0.1939999 -0.11523154 0.10894017 -0.0567776 -0.14033182 -0.41847044 -0.10165955 -0.019168332
-0.14055532 -0.10610457 -0.042560365 -0.033186037
00000000: 32d4 5ebd 254e 8bbe 3db2 82bd 42c8 c03c
00000010: 3171 c9bd be2f 103e 365e 93bc 81f5 c7bc
00000020: 4ff3 b8be 1cfe 79be a187 85be 96f2 19be
00000030: a4e7 803b 84af ab3d 0baa c2bd a6a4 58be
00000040: a39e efbd d8e5 31bd 1071 3cbe 0ad5 d8bd
00000050: f384 e6bd b151 48bd bc6f 72be 7105 5c3c
00000060: 9db9 133c 538b 733d af79 20bd 3720 aebd
00000070: b836 19be 8c0e f7bd 9a16 5fbd 9d10 2e3e
00000080: fc76 06be e78e 2dbe 7b2c 783b d5ec 02bb
00000090: ab4a 293e 5944 4ebe 2f47 773e 6888 09be
000000a0: 8d82 05be 64aa 853d d8a8 d53d 8354 e6bd
000000b0: 43bb 97bd 5966 40bc 531c 60bc b97c 98bd
000000c0: 78e3 afbd 5dd8 113c 11e0 4fbe c5cc 85bd
000000d0: 0fbc a3bd 53bc 6fbd d954 8d3a 29a8 47bd
000000e0: 26ed 96bc 7683 2b3d 9f8c 27bd 88c6 37be
000000f0: 74a1 74be 036b 753c 1758 a0bc c0cd a03c
00000100: 593b 43bd 8098 31be 59c7 cdbd 68e3 babe
00000110: f4c8 5cbe f5d1 07be bec7 a63d 9e1d 94bd
00000120: 950e 8dbd 3c98 7ebe 49e4 4abe 8604 1dbe
00000130: ad40 84bd 4819 3ebc 2ba3 65be aee0 553d
00000140: 82e1 b7bd 5ecf 6fbe cb32 05bd 0f65 3e3c
00000150: cd6f 85be 3b80 69bd da41 ddbd 1c53 09bb
00000160: e9a7 46be 83fe ebbd 061c df3d a18f 68bd
00000170: 25b3 0fbe c241 d6be e232 d0bd e806 9dbc
00000180: bced 0fbe 5a4d d9bd c753 2ebd 15ee 07bd

layers.4.weight f4 [2, 100]
-0.14923675 -0.009581362 0.04245978 0.011181547 -0.02614765 -0.030490324 -0.13304216 1.22887
-0.016099788 0.495169 0.42634407 0.17496514 -0.5129044 -0.006501767 0.014629452 0.021323508
0.047354072 0.37937498 0.5471294 0.5633896 -0.07931225 -0.31404227 1.8789668 -0.031548396
-0.22006801 0.008132409 -0.09495104 -0.008960357 0.06660927 -0.23473375 0.023200942 0.01263684
0.021110697 -0.34429166 -0.60494596 -0.2235996 0.13706224 -0.32464594 0.001308625 0.008531043
0.7420487 -0.06605169 -0.05238284 0.33055872 0.08115142 0.3513846 -0.09027802 0.21764922
-0.017819233 -0.033878192 -0.12775224 0.056648683 0.031453032 0.62395984 -0.21232557 -0.061104875
0.8167096 -0.8121438 -0.11086996 0.45513254 -0.18140541 0.8971282 -0.1531796 -0.02346105
-0.64483345 -0.73519415 -0.41924456 0.5184715 -0.06863286 -0.036485154 -0.40809253 0.5151217
0.08169346 1.2317072 0.14761254 0.20680001 0.4576419 0.66744745 -0.40496325 -0.022556012
1.3984827 0.008314659 -0.13188007 0.6678289 -0.20370652 -0.09657377 0.028354142 0.12987119
0.85058886 -0.061399918 0.0049180444 -0.004781983 -0.0023368534 -0.028818531 0.12599094 0.8308934
0.28034174 0.29774633 -0.15361471 0.13367695 0.16372667 0.6094998 0.9555885 -0.21530877
0.104741104 -0.84859145 0.42212942 -0.4692529 1.647939 0.94918704 -0.53555626 -0.78613234
0.5266373 0.5557202 0.38398147 0.39733297 0.050585393 -0.07480613 -1.7367975 -1.4340773
-0.034659013 -0.059672877 0.62694013 -0.06352446 0.22990279 -0.31200376 0.114297226 -0.14671846
0.0867387 -0.0151126785 0.007629635 -0.15127502 0.020695243 -0.17598736 0.4797374 0.384799
-0.041337326 -1.3796462 -0.18956561 0.13153206 0.006469485 -0.13029736 -0.053311896 0.33750862
0.055218875 -0.75408894 0.5180543 0.344691 -1.3833654 -1.0350118 0.40787202 0.20650198
-0.012853102 0.16167328 0.03260279 0.023366345 -0.2528998 0.20297636 -0.08221798 -0.22126012
0.6206935 -0.2149867 -0.16178355 0.3598921 -0.042320456 -0.438485 -0.4360233 0.8137651
-0.23959042 0.6098216 0.0021072358 0.17934607 -0.25578463 0.07701151 0.080659315 -0.5276506
0.21545461 -0.19977559 -0.6774014 0.1766022 0.03173071 -2.6487193 0.77930456 0.93662226
-1.5684024 0.052308712 0.08282297 -0.41240793 -1.3929262 0.095873415 0.52392954 0.089001864
-0.34801695 1.9117789 0.16755924 -0.100497544 0.26520813 -1.498784 0.39834118 0.0003724974
00000000: 85d1 18be 25fb 1cbc 4eea 2d3d cf32 373c
00000010: 9933 d6bc d8c6 f9bc 343c 08be 9d4b 9d3f
00000020: b4e3 83bc cb86 fd3e c549 da3e 102a 333e
00000030: b44d 03bf c60c d5bb 5eb0 6f3c a3ae ae3c
00000040: 58f6 413d 703d c23e ac10 0c3f 4d3a 103f
00000050: 766e a2bd 26ca a0be fc81 f03f e438 01bd
00000060: 8259 61be cc3d 053c b175 c2bd 76ce 12bc
00000070: 716a 883d 0b5e 70be e70f be3c c00a 4f3c
00000080: 57f0 ac3c ff46 b0be bddd 1abf 4bf7 64be
00000090: 0b5a 0c3e fe37 a6be 2b86 ab3a cac5 0b3c
000000a0: e7f6 3d3f 1c46 87bd 648f 56bd fe3e a93e
000000b0: b732 a63d afe8 b33e afe3 b8bd 70df 5e3e
000000c0: a4f9 91bc dcc3 0abd 7cd1 02be 7308 683d
000000d0: e5d4 003d d5bb 1f3f e06b 59be 1b49 7abd
000000e0: e113 513f a8e8 4fbf ca0f e3bd 2207 e93e
000000f0: 57c2 39be 32aa 653f 1ddb 1cbe 6331 c0bc
00000100: ce13 25bf af35 3cbf 39a7 d6be 8cba 043f
00000110: 638f 8cbd 7571 15bd 81f1 d0be 04df 033f
00000120: e74e a73d 95a8 9d3f be27 173e 62c3 533e
00000130: 0a50 ea3e d6dd 2a3f 5857 cfbe 63c7 b8bc
00000140: 7b01 b33f 353a 083c 920b 07be d6f6 2a3f
00000150: 7198 50be 78c8 c5bd f246 e83c f4fc 043e
00000160: 31c0 593f 7b7e 7bbd 8c27 a13b 2eb2 9cbb
00000170: e525 19bb d714 ecbc c503 013e 6eb5 543f
00000180: f488 8f3e 3572 983e 2d4d 1dbe 9ce2 083e
00000190: f7a7 273e 2e08 1c3f 73a1 743f e779 5cbe
000001a0: 8182 d63d 4a3d 59bf 5921 d83e eb41 f0be
000001b0: aaef d23f ecfd 723f 371a 09bf f83f 49bf
000001c0: b4d1 063f ae43 0e3f 3899 c43e 3a6f cb3e
000001d0: a132 4f3d f533 99bd 614f debf d88f b7bf
000001e0: 9cf6 0dbd 8c6b 74bd 267f 203f 1d19 82bd
000001f0: a36b 6b3e f5be 9fbe aa14 ea3d 5d3d 16be
00000200: 0fa4 b13d 2b9b 77bc 0402 fa3b d7e7 1abe
00000210: 1289 a93c 0836 34be 24a0 f53e 6004 c53e
00000220: 5451 29bd 3f98 b0bf 7d1d 42be 57b0 063e
00000230: f9fd d33b ac6c 05be 935d 5abd eecd ac3e
00000240: 302d 623d f90b 41bf 359f 043f 577b b03e
00000250: 1e12 b1bf 447b 84bf 9ad4 d03e 4175 533e
00000260: d195 52bc ae8d 253e 818a 053d c76a bf3c
00000270: 157c 81be 09d9 4f3e e661 a8bd 0392 62be
00000280: c5e5 1e3f 7925 5cbe 96aa 25be c743 b83e
00000290: 3758 2dbd 1b81 e0be 723e dfbe e952 503f
000002a0: 3157 75be 451d 1c3f 8d19 0a3b 7fa6 373e
000002b0: 34f6 82be 36b8 9d3d b630 a53d 1c14 07bf
000002c0: 22a0 5c3e f991 4cbe 2e6a 2dbf 35d7 343e
000002d0: 10f8 013d 9e84 29c0 8180 473f 7ac6 6f3f
000002e0: 69c1 c8bf a941 563d 179f a93d 2227 d3be
000002f0: 684b b2bf 4859 c43d 3f20 063f 9c46 b63d
00000300: 472f b2be 2cb5 f43f a694 2b3e a8d1 cdbd
00000310: 5cc9 873e 27d8 bfbf 60f3 cb3e c14b c339

layers.4.bias f4 [2]
-0.009951022 0.06101168
00000000: 9d09 23bc 62e7 793d
