Save/Trainings/RL_AM/4800000/critic_target.pt (torch, 94145 bytes, 10 tensors)

layers_q1.0.weight f4 [100, 10]
00000000: 20b7 8f3f 4e26 013f b523 b93f ee9e 43bd
00000010: d105 b1be ad2c 5ebb dc30 f4ba 18ba 5abf
00000020: 41b4 b63f 1a30 a1bf b66e a3be 162c 9fbe
00000030: fe1e a63e 4713 3f3e c927 5fbe 7e77 aabe
00000040: 5d1f 1bbf 059b 06bf e321 703f 4536 033f
00000050: aa2c e63e 4263 6f3e 511b dc3e 7d42 9e3d
00000060: 9375 673e 9145 d63c d14c dabd 75ca 82bf
00000070: f0d5 4c3e 3d54 1a3e 9c99 4dbf b855 d0be
00000080: a96d 2a3f d4f4 d0bc 772e 9d3d 3b00 a7bb
00000090: e9ec 9fbb bf9d 7c3f dcfe 8dbf e573 1c3f
000000a0: 53c1 40be 64e6 a4bf bb6c da3e afcd eabe
000000b0: 8ec0 69bf 20bc 483d 268e 923d 67e3 6bbf
000000c0: aee2 c53c c1f3 333f 4a96 d73d 5548 93be
000000d0: 667a a63e 94f9 033f 4231 d63e d72d 3fbd
000000e0: 073e bbbd d654 93bf e6de a83e dd22 10be
000000f0: 29b7 5c3d 7998 47bf dea8 bdbf 9045 143e
00000100: d6b1 793f 172a e5bd fe62 e3bc 51d2 d7be
00000110: d131 4d3e 98c7 603e 5c00 babe 0f31 47be
00000120: c55c 92bf f522 353d 2287 bdbe 0a96 a23d
00000130: 850c c7bd de45 e0bf c46b 33bf 1a6c 1dbe
00000140: 88d0 173e 8d86 b0bf cd38 e4be 4ba7 f9bd
00000150: 489d f53e cc2f 6abd 30cc 61bc 401a 7b3f
00000160: c268 0c3d 9747 9dbe d5e3 10bd 903b 47bf
00000170: fd84 95be 5f65 203e ef43 2a3f 7344 773c
00000180: f96b 4a3e 27ed 2fbf a5fa 9abf 3cd8 84bd
00000190: fc92 85bf 47e9 bb3f 9a80 c63e b2ec 56bf
000001a0: a37e 00bf d5d3 fc3d 9615 d3bb e720 b03d
000001b0: c554 923e 8afc 0bbe 4126 28bd 49ba 31c0
000001c0: 580b 20be ed7c 253c 08a4 2540 0b83 023d
000001d0: 7c95 02bc d7f6 21bc 2187 5ebe 9d9a f4bc
000001e0: 3a6e bdbd c019 423e f27b 9cbf 553e eabe
000001f0: ed09 a73f 450d 023e 993d a4bc a7e6 1dbf
00000200: eed8 4a3f ecf7 dd3e 286b 02bf 1be2 07be
00000210: e9c4 7d3f 8da0 2cbe 4170 c1be aa06 653a
00000220: 2b49 153e e9c8 843d 83a1 9bbf 29e7 d33f
00000230: 7889 bd3f 728c 323f f8eb ac3f f6b3 d43e
00000240: 0faa 6dbf 5fe2 2fbd 38d8 b4bc 9acb 543e
00000250: e17a 633e 0e40 1abf f62a 273e b422 863e
00000260: 4455 02be 8d61 973e 47ac 323f 7f12 3f3e
00000270: ab51 64bd 6311 00bf 8c92 fabd 3009 b9bd
00000280: 378f 3c3f 5359 3b3e f755 4e3f 53c9 5d3e
00000290: 3bf3 30bf d2b9 f33c 6d59 ecbd cf06 df3c
000002a0: e98f 22bf d709 a1be 9237 823f f723 b2bf
000002b0: 389a c7be c161 4f3d 69d2 753d 23ef cebd
000002c0: c134 2f3e 489f 91be b60f 6f3f 6585 adbf
000002d0: 6601 de3f 9894 01bf 4e9a 793f ce55 6bbf
000002e0: 565e 0140 4247 833d 2b3f c83d 3f09 bd3f
000002f0: e932 173d 3dbd 50bf 9a3d e53e ea07 693f
00000300: 9df5 093e 5562 17be c8cd 3b3d f8f3 c4be
00000310: e050 cbbe d676 1ebf afb1 383f b61f ac3c
00000320: ac39 41c0 4395 583e 868e 293f f39c 913c
00000330: 708f a73f e18f 09be 6d1e 19bd 3a9c 403f
00000340: 2855 87bf 9086 393f defa 1ac0 8af3 44bf
00000350: ec9e 653f 051d f4bd 4e98 c13e 2dc3 9bbd
00000360: 2f5d 1bbe 9693 173d 78f7 02be c0de 12be
00000370: b644 34c0 3355 5b3f f00a 163f 6dfb cfbe
00000380: 22c7 83bf f806 3c3b 402c 93ba bbf9 49bc
00000390: edc5 113f d6e2 8a3e b62c a7be c13b d43f
000003a0: 0fd0 15be 3662 923e d225 2c3f 4d83 bdbd
000003b0: 6a6c 3abf 1c74 3ebf 9881 823e d437 dfbe
000003c0: d485 503e e6bb 80be e944 57be 7acc 153e
000003d0: aa31 f23e a07a 213b 8e9d 373c 1709 4e3e
000003e0: f588 63c0 3ee5 dcbd 4e93 47be 0432 d13e
000003f0: 2c06 e53f 101c 7dbe 6c38 2d3f 1720 01be
1.122776 0.50449073 1.4464022 -0.04775899 -0.3457475 -0.003390114 -0.0018630284 -0.85440207
1.4273759 -1.2592804 -0.31920403 -0.31088322 0.3244552 0.18659697 -0.2179252 -0.3329429
-0.6059473 -0.5258029 0.9380171 0.51254684 0.4495595 0.23377708 0.4298959 0.077275254
0.22603445 0.026156219 -0.10659183 -1.0218035 0.20003486 0.15071197 -0.80312514 -0.40690398
0.6657358 -0.025507368 0.07674878 -0.005096463 -0.004880537 0.986782 -1.1093402 0.6111434
-0.18823747 -1.288281 0.4266108 -0.4586005 -0.9130944 0.049007535 0.07156019 -0.92143863
0.02415594 0.70293814 0.10526712 -0.28766122 0.32515258 0.515527 0.41834456 -0.046674576
-0.0914269 -1.1510265 0.32982558 -0.140758 0.053885613 -0.7796703 -1.4817159 0.14479661
0.9753698 -0.111896686 -0.027757164 -0.42152646 0.20038535 0.21951139 -0.363284 -0.19452308
-1.1434561 0.04422279 -0.3701716 0.07938774 -0.09719185 -1.7521322 -0.7008631 -0.15373269
0.14825642 -1.3791062 -0.44574586 -0.12190112 0.4797156 -0.05717449 -0.013781592 0.9808693
0.034279592 -0.3071868 -0.035373528 -0.7782526 -0.29203025 0.1566367 0.6650991 0.015092003
0.19767751 -0.6872124 -1.2107741 -0.06486556 -1.0435481 1.4680566 0.3876999 -0.8395492
-0.5019323 0.12345091 -0.006441782 0.086000256 0.285803 -0.13670555 -0.041052107 -2.776995
-0.15629327 0.010100585 2.5881367 0.031863254 -0.00797021 -0.009885511 -0.21731235 -0.029858882
-0.0924954 0.18955135 -1.2225325 -0.4575068 1.3049904 0.12700374 -0.020048903 -0.6168007
0.7923726 0.43353212 -0.5094476 -0.13269846 0.99128586 -0.1685812 -0.37780955 0.000873665
0.14578693 0.06483633 -1.2158664 1.655492 1.4807577 0.6974555 1.3509512 0.4154355
-0.92837614 -0.042940494 -0.022075757 0.20780793 0.22214843 -0.6025399 0.16324982 0.2619835
-0.12727839 0.29566613 0.69794124 0.186594 -0.055741947 -0.5002653 -0.12234983 -0.090349555
0.7365603 0.18295793 0.8059992 0.2165883 -0.6912114 0.029751692 -0.11540494 0.027224926
-0.6350084 -0.3145282 1.0173209 -1.3917226 -0.38984847 0.050630335 0.060015116 -0.101042055
0.17109968 -0.28441834 0.9338335 -1.3556334 1.7344177 -0.5061736 0.97501075 -0.919278
2.0213828 0.06410076 0.09777673 1.4768447 0.036913786 -0.81538755 0.4477356 0.910277
0.134726 -0.14783604 0.045850545 -0.38467383 -0.3971014 -0.6190008 0.72146124 0.021011215
-3.019145 0.21150689 0.662331 0.017775035 1.3090649 -0.13433792 -0.037382532 0.7523838
-1.0572863 0.7247095 -2.4215617 -0.7693411 0.8969562 -0.119195975 0.37811512 -0.07605586
-0.15172265 0.037005983 -0.12789714 -0.14342785 -2.8166938 0.8567688 0.5861044 -0.4062151
-1.0295146 0.0028690677 -0.0011228397 -0.012327607 0.56942636 0.27126187 -0.326513 1.6580735
-0.1463015 0.28590554 0.6724521 -0.09253559 -0.72821677 -0.7439592 0.25489497 -0.4359728
0.20363551 -0.25143355 -0.21022381 0.14628783 0.47303516 0.002463974 0.011206998 0.20120655
-3.5552342 -0.10785912 -0.19489786 0.4085847 1.7892509 -0.24717736 0.6766422 -0.12609898

layers_q1.0.bias f4 [100]
00000000: 4cde a13e 77f8 a4bf 5ade 5ebf fdf9 b0bf
00000010: 5d85 753a 8407 77bf 3a25 5abe 9494 3bbd
00000020: 4242 ccbf cfe1 a4bf 7200 25bf 9e9f edbd
00000030: 4dd2 a7bf 4993 8dbf 8980 89bf 80bf 37bf
00000040: b263 a9bf 4ae0 943f 31c5 bdbe b85a b7bf
00000050: e71f 2bbf d220 1cbf 13ba 89bd 6347 76bf
00000060: 20f8 62bd 51cf 4cbf 82f3 e9bd ba94 2ebf
00000070: 9800 b9bf a36a 5abe 9e3d 97bf f1dc 65bb
00000080: eeb0 9cbf 2aac 76bd 9ec1 9abf 78c5 ee3f
00000090: 813b 443d 4378 aabf 4e7a 50bf d5fc a1bf
000000a0: 4ebe 93bf edf3 28bf 1929 c5bf a350 05bf
000000b0: 2a2d 84be 91e6 a0bf 1499 09be 1dca 8abf
000000c0: 419f a9bf 678f 2fbf 4504 99bf 544b c23f
000000d0: c61b 05bf be66 37bf 919a 87bf f48e 75bf
000000e0: b03a 0fbf 8c56 4bbf 91cc 34be 75c7 8fbd
000000f0: ad35 8abf 9a35 debf 64f2 f9bf 5308 66bf
00000100: cc0a cf3d f607 55bf 9370 6b3c 8e3b 91bf
00000110: cc9b a2bf cd78 66bf 69a5 6cbf 73a2 ec3e
00000120: 62e5 7bbd 6554 8bbf 561e 8cbe 965c 19bf
00000130: 35f9 8bbc 9889 0abf 8c0d 73bf 4c48 58bf
00000140: 1b80 3fbf eae6 3abf e591 fbbd b422 00bd
00000150: e2bc d5be b1e2 24bf 4f85 91be de1d 95bf
00000160: f5e9 83bf 63a4 eabe dd37 15bf 5084 f4be
00000170: f26b c4bf 6146 3abf 3aad 97bf 6d97 81bf
00000180: 06ae c7bf c16d 4ebf 1ff1 a9bf bda8 8ebf
0.31614912 -1.2888325 -0.8705803 -1.382629 0.0009365881 -0.9649584 -0.21303263 -0.045795992
-1.595772 -1.2881411 -0.64453804 -0.1160271 -1.3111054 -1.1060573 -1.0742351 -0.7177658
-1.323355 1.1630948 -0.37064508 -1.432456 -0.66845554 -0.6098758 -0.06724944 -0.9620268
-0.05541241 -0.8000384 -0.114233986 -0.6819569 -1.4453306 -0.21329741 -1.1815679 -0.0035074318
-1.2241495 -0.060222782 -1.2090337 1.8654013 0.04790831 -1.3317951 -0.8143662 -1.2655283
-1.1542451 -0.659972 -1.5403167 -0.52076167 -0.25815707 -1.2570363 -0.13437301 -1.084293
-1.3251725 -0.6857819 -1.1954428 1.5179238 -0.51995504 -0.7164115 -1.0594045 -0.95921254
-0.55948925 -0.79428935 -0.17656161 -0.07020465 -1.079763 -1.7360108 -1.9527097 -0.8985645
0.10109481 -0.8321527 0.0143701015 -1.13463 -1.2703795 -0.9002808 -0.92439896 0.4621769
-0.061498053 -1.088513 -0.27366894 -0.599069 -0.017086605 -0.541162 -0.94942546 -0.84485316
-0.7480485 -0.73008597 -0.122836865 -0.031283095 -0.4174567 -0.64408404 -0.2842202 -1.164974
-1.0305773 -0.45828542 -0.58288366 -0.47757196 -1.5345442 -0.7276364 -1.184974 -1.0124336
-1.5599983 -0.8063622 -1.3276709 -1.1145245

layers_q1.2.weight f4 [100, 100]
00000000: 9848 463d 7b36 6ebe aa95 613d 1477 063f
00000010: ce52 a7be f58e 0ebf ec0f 70bf e692 a43e
00000020: 7518 8fbe 11d1 5e3e e22d d5be bf84 2dbf
00000030: 3cb5 f5be 5d17 943e 6d34 85bf 4a70 55be
00000040: 65e7 98be e3a1 63bf e4ce 813e 4710 333f
00000050: 9044 b9be 2a00 e33a c18b c9be dcee 073e
00000060: aa90 663e 99a7 4bbe 915a 5fbf 5006 3abd
00000070: b438 fabe 43cf f63e 2836 c13e f1fa 4abf
00000080: 1802 3fbe ab0f efbe 815b 50bf 8b3f f33d
00000090: e235 dcbe 7022 3abc e409 8dbe 36bd 98be
000000a0: 6637 ad3e 1b98 713c c8f8 b8bd 2253 6d3e
000000b0: f3cd f73e d43f f1be 7444 77be fa70 5ebe
000000c0: 9207 d83e 4594 9dbf 3555 88bf 7d57 8ebf
000000d0: f2bd d0bf 1088 cd3e 061b 13bf 4902 46be
000000e0: e461 8f3e 7b0e 64bf e7de 28bd 1ac2 6a3f
000000f0: f40d 7ebe ad7d 973e a5c8 01bf eeeb 273e
00000100: edee 81bd d805 4ebd c7c9 2bbf f858 c93e
00000110: f827 34be f8f9 433e 2bf1 f13c 3e8c 19be
00000120: c510 9cbf c06a c23e 787e 30bf 256b 1b3e
00000130: ce1b 13be 23aa 6bbe 960b 1aba cd0f 953d
00000140: c644 243e 2da5 06bf e29f dbbe ca89 57bf
00000150: f7c5 a2bc 0923 4cbe 4643 1ebe f9ed 45be
00000160: e9df debe 33ae f5be 6761 26bf fa32 60be
00000170: a0f4 37bf 2e98 9dbe 8f27 29bf 90b3 b33d
00000180: bd47 1abd 82bb d9bd cd91 903e 594d 59bc
00000190: 7964 5e3d ede9 86bd e69c 6b3d a480 f4bd
000001a0: 8229 693d 510a 4abd 1073 443d 696b ce3c
000001b0: 3740 adbd ce93 783d 8712 a3bd efd1 bc3c
000001c0: ef42 26bd da28 1fbd 938c f83c 32cf 5b3d
000001d0: c0b0 0cbd c506 8dbd aa92 55bd 0301 973d
000001e0: 6405 7bbd 8e48 97bc 0483 8a3c 2cf8 febc
000001f0: 8f72 29bc 2ad7 6d3c 323a 98bd 8e7b 9bbd
00000200: 30aa b3bd 955a 913c cdd4 09bd 2cb6 ffbc
00000210: 264b 18bd 1212 d0bd 5537 81bd 7e07 ac3c
00000220: e288 e33c d49d ab3c e784 373d 30df bfbd
00000230: 9629 04bd 1128 c4bc 69d8 c0bd 632e 703d
00000240: 04fb 76bc ee83 17bd c9b3 d03c 1c91 073d
00000250: 9a8b 363d b22e 753d d932 d33b 3b43 efbd
00000260: ee40 3c3d e4e3 f1bd 5e5e 9dbc eba2 64bb
00000270: 4cf2 823d daaf d3bd abe1 65bd c381 ecbc
00000280: 7d29 05be 7de7 8fbc a0a9 a23c b322 6dbd
00000290: 1150 cebd 3fec 22bc 9883 b8bd ef0c afbd
000002a0: c86f a4bc 164f 2e3b 7e39 2c3d 9fc6 2ebd
000002b0: 857b c1bd 6954 563c dcb8 77bd 7750 a7bc
000002c0: 7dc1 66bd fd86 b0bd c075 12bb 491e 523d
000002d0: 8734 7abd b5aa 80bd 50bf c93b c7cd bcbd
000002e0: 1ca0 78bd cb3e 703d 4502 143d f77e 323d
000002f0: 798f 42bd 63a4 6bbd 2cd1 893c 5fac a9bc
00000300: bb8a e1bd 28c7 bf3c cf40 aabd 80be 55bc
00000310: c041 b4bd 07ce 3c3d ffe1 abbb f515 85bd
00000320: 4d7c 85be e4d1 0d3e f012 473f aea5 213f
00000330: 020e c6be 9b87 613f 6f0e 353f 5942 c6be
00000340: 00da 3dbf 639c ff3e 3081 bebe 3511 0bc0
00000350: add8 0cbe 8c1a 8ebf 58a4 3ebf 9a4c efbe
00000360: a97a 403e be98 99be c203 e83e 82d3 ee3e
00000370: 3596 12bf 2608 1fbd 2bd4 e1be e2f4 6a3e
00000380: 50ad 4c3e bdca 993d 0b40 753f 99ad ca3e
00000390: 3ca9 f7bd a36d 733e e3c5 f63d 717c c4be
000003a0: 2eb1 9dbf 3d6b 123e 1d29 903d a84b b3bf
000003b0: f077 b2bd 42cb 663e 1f87 2abe afeb bf3d
000003c0: 730b f43e 9ddf 153f 8d9c 89be be9b a53e
000003d0: 8a5d 6e3e c219 dc3f 296b 4dbf 8e98 12bf
000003e0: 954a 9cbf c87e 443f 1d2e 0bbf 2556 92bf
000003f0: e771 363f def6 273f 4557 0a3f 5dfc 0b3f
0.048409075 -0.2326297 0.05507437 0.5252545 -0.32680362 -0.55686885 -0.93774295 0.32143325
-0.27948347 0.2175944 -0.41636568 -0.6778068 -0.47989833 0.28924075 -1.0406624 -0.20843616
-0.2986404 -0.88918895 0.25353158 0.6994671 -0.36185122 0.0017318774 -0.39364436 0.13274711
0.22516122 -0.19888152 -0.8724757 -0.045416176 -0.48871386 0.48205003 0.3773663 -0.79289156
-0.18653142 -0.4669164 -0.81389624 0.11877354 -0.4300986 -0.01136075 -0.27546608 -0.29831856
0.33831328 0.014745737 -0.09031826 0.23176244 0.48399314 -0.4711901 -0.24147207 -0.21722785
0.42193276 -1.2310873 -1.0651003 -1.1120449 -1.6307967 0.4014287 -0.5746311 -0.19336809
0.28004372 -0.89084595 -0.0412282 0.91702425 -0.2481001 0.2958807 -0.50696784 0.16398594
-0.063443996 -0.05029854 -0.6710476 0.3932569 -0.17593372 0.19138324 0.029533943 -0.14994904
-1.2192618 0.3797207 -0.68942976 0.15177591 -0.14366075 -0.23014121 -0.000587636 0.072784044
0.1604186 -0.5259579 -0.42895418 -0.84194624 -0.019869788 -0.1993524 -0.1545535 -0.1932906
-0.43530205 -0.47984466 -0.64992374 -0.21894446 -0.71857643 -0.30780166 -0.66075987 0.08774483
-0.03766607 -0.106314674 0.28236237 -0.01326307 0.054295037 -0.065875866 0.057522677 -0.11938599
0.05692435 -0.049326245 0.047961295 0.025197702 -0.08459514 0.060687833 -0.07962518 0.023049323
-0.040591177 -0.03885732 0.030340469 0.053664394 -0.03434825 -0.06886057 -0.052141823 0.0737324
-0.061284438 -0.018467214 0.016908176 -0.031124197 -0.010342254 0.014516631 -0.07432975 -0.075919256
-0.08772695 0.017743388 -0.03365021 -0.031214796 -0.037181042 -0.10159697 -0.06309382 0.020999666
0.027775232 0.020949282 0.04480448 -0.093687415 -0.032266222 -0.023944886 -0.09416277 0.058637988
-0.015074495 -0.036991052 0.025476353 0.03309737 0.04456673 0.059858985 0.0064452705 -0.11682745
0.04596036 -0.11811045 -0.019210037 -0.0034887146 0.06393871 -0.103362754 -0.056123417 -0.028870469
-0.13004108 -0.017566437 0.019856274 -0.05789442 -0.10073865 -0.009944021 -0.090094745 -0.08547389
-0.020072833 0.0026597432 0.042047016 -0.04266989 -0.094473876 0.013081648 -0.06047903 -0.02042411
-0.05633687 -0.08619497 -0.0022348017 0.051298413 -0.06108525 -0.0628256 0.0061568394 -0.092189364
-0.060699567 0.058653634 0.036134977 0.043578114 -0.047500107 -0.05752982 0.016823374 -0.020712076
-0.11012789 0.023410395 -0.083131425 -0.013045907 -0.08801603 0.04609492 -0.0052454467 -0.064983286
-0.26071396 0.13849598 0.7776327 0.6314343 -0.38682562 0.8809754 0.7072515 -0.38722494
-0.74160767 0.49924 -0.37207937 -2.1729252 -0.1375453 -1.1101851 -0.7446952 -0.4673813
0.18796791 -0.29999346 0.45315367 0.46645743 -0.5726045 -0.03882613 -0.44107184 0.22944978
0.19987988 0.075093724 0.95800847 0.3958557 -0.12092826 0.23772292 0.12049463 -0.3837619
-1.2319696 0.1429872 0.07039092 -1.4007463 -0.087142825 0.22538474 -0.16653107 0.09371125
0.47664985 0.5854433 -0.2687725 0.32345384 0.2327787 1.7195361 -0.8024164 -0.5726403
-1.2210261 0.7675595 -0.5436724 -1.1432539 0.7126755 0.65611064 0.5403941 0.5468195

layers_q1.2.bias f4 [100]
00000000: 06f5 90be 790f cfbd 45b9 82bf d605 323e
00000010: 813e 593b 4da3 0bc0 15e1 05be b64b 0840
00000020: de34 02bf 5771 a1be 17c5 abbd f5ad d13f
00000030: e4e6 fdbe d920 d63e d73f a3bd 2456 79be
00000040: c4e3 7dbf 4a5e d8bd a11d c6bd 596e c7bd
00000050: 617e 523e 4bda 6dbf ff2c 2cbf 2675 11be
00000060: e461 f6bd 865a 97be de76 9bbe bc4a f4bb
00000070: 4d40 0fbd 619e d5bd b1a7 c2bd 79de 523e
00000080: c934 48bf 676d a4be 8f8c adbd 8734 aeba
00000090: 76a9 94bd 8adf d0bf 276e 1bbf 6c16 0a3e
000000a0: 1630 16be 641f 7fbd 269d 1bbd 0671 263e
000000b0: 5168 4bbf f155 9d3e 36c4 9bbe dec8 1ebe
000000c0: 9a9d 7c3f 861d 9dbe 1044 b7be f41d f3bc
000000d0: a5f6 8abb cbfd 65be 9ad4 d0bd 9a97 d6bd
000000e0: 84b3 843d 0b1a f33d bd92 8cbe 55d3 00bd
000000f0: 7d8c 9a3d 34f5 14bf 0d9d 8bbd 2608 1fbe
00000100: 7e92 5a3f 40fc 30be e8f7 c13e 9b36 62be
00000110: c9a5 cabe 9ffe 2dbf 67ec 2cbe 2710 26be
00000120: b821 34be d84a 36bf c06c 31bf 2802 39bd
00000130: 0955 ccbd b876 c33e 6254 d9be 1a7d d0bd
00000140: cb95 6ebe d2e8 59bf 3002 b6be 833d 6ebe
00000150: a51c 0dbf e777 b53d b7ac a1bd 57e2 23be
00000160: 7b6e edbd d6e5 18bd ca51 d8bd 469a 9cbd
00000170: 865f 92be 8f1a a7be 49bd c4bd d179 46bf
00000180: 6145 4fbe 6893 3fbc b027 b6bd b5ad 8cbf
-0.28311938 -0.10110373 -1.021279 0.17385039 0.0033148827 -2.181842 -0.13074143 2.129621
-0.5086192 -0.31531784 -0.08387201 1.6381212 -0.49590218 0.41821936 -0.07971161 -0.24349266
-0.9917567 -0.10564859 -0.0967362 -0.09737844 0.20556022 -0.92911214 -0.6725616 -0.14204845
-0.1203039 -0.2956125 -0.30364126 -0.007455198 -0.03497343 -0.10430599 -0.09504641 0.20592679
-0.78205544 -0.32114717 -0.08474075 -0.0013290801 -0.072588846 -1.6318219 -0.60714954 0.13485116
-0.14666781 -0.062285796 -0.037991665 0.16254053 -0.7945605 0.3072963 -0.30423135 -0.15506312
0.9867798 -0.30686587 -0.35794115 -0.029677369 -0.004240828 -0.22460096 -0.101968005 -0.104781345
0.064795524 0.11870202 -0.27455702 -0.031451542 0.07546327 -0.5818665 -0.068170644 -0.15530452
0.8537978 -0.17283726 0.3788445 -0.22091143 -0.3957961 -0.67966646 -0.16887055 -0.16217099
-0.17590988 -0.7120795 -0.69306564 -0.045168072 -0.09977157 0.38176513 -0.4244719 -0.10180111
-0.23299329 -0.8512088 -0.35548544 -0.23265652 -0.55121833 0.0886076 -0.07894271 -0.1600431
-0.11593338 -0.037328564 -0.10562475 -0.07646613 -0.28588504 -0.3263745 -0.09606416 -0.7752963
-0.2024131 -0.011692859 -0.088942885 -1.0990511

layers_q1.4.weight f4 [1, 100]
00000000: a49e 08bf 3baa fbbc 3337 74bd d0aa d33d
00000010: eb27 ec3c 9f2b b33c f59c 94bf 376a 193e
00000020: aa1a bc3c e33b 74bf bfad bbbc b6d7 8c3d
00000030: 8dbd 903e 9c09 0fbe 733d 74bf 80ed 40bf
00000040: cd2b 08ba 4717 36be b767 393d 1eca 23bf
00000050: cdb7 12bf 678a 34bc cc28 7cbc 0d5a 123d
00000060: 717e ccbc 03b0 76be 04a3 0dbf 4ed7 133a
00000070: 3f1e 23bc 131d 63bf 4ba0 e6bc a722 bebe
00000080: 29ec dd3e cc9a 82bf 214c 51bd 9399 e1bc
00000090: c08c 34bc 4fd9 b4bc ab39 2a3d 69c4 54be
000000a0: 85b2 193d 8034 b1bc 328e d9bc 4d30 9abe
000000b0: 1258 d53b 77be 703d 2b2c 7dbf 268e 2abf
000000c0: 4e00 893d ff61 38bf 0555 1a3f 8f38 223c
000000d0: 9800 393c 60d8 43be 25f4 99be b11d c0bb
000000e0: 8b26 73bf 279d 34bf 5589 1dbf c87a cd3c
000000f0: 3785 32bf da08 0abe 9fbd 3cbf 0b3e ed3c
00000100: 8fc9 463d 9480 fabc 66c1 afbe ffac b83c
00000110: ff2a 3dbf cfae 39be 0a47 5fbb 2415 08bc
00000120: 1a96 69bd 8744 a33c c786 b2bc 66a3 1b3c
00000130: 446b 763c 0c90 09bf 6568 90bf 93a8 ebbc
00000140: aec0 a9bf 4481 03be bc2b 0ebf 55c0 18bf
00000150: 0ccf 8bbd 3a93 eabf 4ecd 9dbc 19eb df3c
00000160: 406f bb3c c568 9ebc f9ab d0be 2619 98bb
00000170: 64a3 02be bf8d 38bd 4053 c8ba 2d11 8e3d
00000180: c61e 22bd effb b5bb 66f6 a2be c64b a73d
-0.53367066 -0.03072082 -0.059622955 0.10335314 0.028827628 0.021871386 -1.16104 0.14981924
0.022961933 -0.9540388 -0.022909997 0.06877081 0.28269616 -0.1396851 -0.95406264 -0.75362396
-0.0005194515 -0.17782317 0.045264926 -0.6398028 -0.5731171 -0.011019326 -0.015390586 0.03573041
-0.024962636 -0.2409058 -0.5532687 0.0005639688 -0.009955942 -0.8871624 -0.028152606 -0.37135813
0.43344238 -1.020349 -0.051097993 -0.02753905 -0.011019886 -0.022076277 0.041558903 -0.2077805
0.037523765 -0.02163148 -0.026557062 -0.30114976 0.006510743 0.05877539 -0.9889552 -0.6662315
0.06689511 -0.7202453 0.6028598 0.00990118 0.0112916455 -0.1912551 -0.3006908 -0.0058629145
-0.94980687 -0.70552295 -0.6153768 0.02508296 -0.6973452 -0.13479939 -0.7372684 0.028960248
0.048532065 -0.030578889 -0.3432724 0.022543428 -0.7389373 -0.1813309 -0.0034069442 -0.008305822
-0.057027914 0.019930137 -0.021792782 0.009499406 0.015040223 -0.53735423 -1.1281859 -0.028766906
-1.3261926 -0.1284228 -0.55535483 -0.59668475 -0.068266004 -1.832618 -0.019262936 0.027333783
0.022880197 -0.019337067 -0.40756205 -0.00464167 -0.12757641 -0.045057055 -0.00152836 0.0693687
-0.03958013 -0.0055537145 -0.31828612 0.081687495

layers_q2.0.weight f4 [100, 10]
00000000: f8c7 e4bd cc18 6cbf 0dc0 013f 5d81 0e3e
00000010: 20d8 3ebe 765f adbd de3a 27bd a516 973e
00000020: 357a 1f3f 46b2 83bf 6d14 1bbf b08c 3a3c
00000030: d5f8 193f 244e 0b3d 00c4 c9bd ee62 29bf
00000040: fbc1 76bf 50ce 3abf 3d53 963f 178a 203f
00000050: 9cc6 403f 17e4 d4bd 5060 84bf 7fb6 313f
00000060: f4b3 d3bd 7714 99bc 553e e8bb 6574 ea3e
00000070: b462 e53f 74af 393e e604 693f d75b 7e3e
00000080: 5f28 2b3e 4710 96bf a7df 833e 2533 e8bd
00000090: c53f 3bbe 0c21 c9be 4224 9bbf 1338 f83e
000000a0: e134 593e 8555 50bf 43e0 8d3f 5d28 d7bf
000000b0: 38c0 923d 1ec4 d7bc 23c3 8ebd f4b9 03bf
000000c0: 25c3 47bd 652f d3be 7d8a 8fbd b3c2 bdbf
000000d0: a6fd e9be 2256 263f 04c8 913f 2449 81bd
000000e0: 8e04 acbd 902d 5a3f 1f4d a6be 2944 1abe
000000f0: 0af3 ec3e 2129 db3e 4503 98be 66ee 1b3c
00000100: 9b9c ea3e d3bd f5bd 5817 c93d cd36 02bf
00000110: 95c0 80be 71e1 c8be 70a9 2ebf 8d54 a4bf
00000120: e286 85bf 4313 603e cdcd 403e 60ec 0b3d
00000130: aff0 ea3d 5e03 b9be 4265 993e f74c 093f
00000140: 5ada c63f 005d 84bf f6aa b33f 29dd 3e3e
00000150: 6897 243e 41b5 2bbc 11c5 da3d e1ba 1cbf
00000160: 32e8 1fbc e1c8 d73e 9956 ca3e 0826 0bbf
00000170: bbb0 4e3f c99c 223f a5fa 123f e680 c83e
00000180: 8ecf aabd 2405 39bf 8fa1 4d3e ab16 653e
00000190: d571 48bf da25 c23f f790 36be e22e 843b
000001a0: 1971 173f 9502 11be 4dd0 6fbe 9c1a 03c0
000001b0: e60e 9b3f cd4e 71be 0368 5d3f 53cb 9e3f
000001c0: d766 313f 3584 223f 8f35 e43c fcc7 0f3e
000001d0: 42cf ce3d ae49 8f3d 8ead c43f 6c7d efbf
000001e0: bf3c 863d 2a1a f23e 943e 19c0 1232 1f40
000001f0: 9b36 03bf 534e 883d d173 96bb 0c43 bcbc
00000200: 4fee c7bd 2d1a 24be 82d2 eabe 01c8 c03d
00000210: b261 56be aa2f d9bd 05f1 803f 4762 363e
00000220: ff0c 29bd 70c4 38bf 6563 153e c503 9a3e
00000230: 00e0 653f 3979 9ebf 14f4 9a3e cacc 4d3f
00000240: 9bb1 d13e f6cc 6b3d 0765 f83d 9131 d2be
00000250: cec1 2cbf 60aa 003f abae 85bf 5dcb 383e
00000260: 635c 35bf 179a 0e3e 27d8 a23d 3497 b13d
00000270: d7d8 61be 76a4 b0bf 4f7c 0abf 4257 bb3c
00000280: 1dcd e33e 435e 81be 95f2 de3f 7ad4 833f
00000290: 5d13 44be 6e51 74bd 2f5a b03d 736d 91bf
000002a0: bdf8 bdbe 5430 063f 05d2 d33e 77e6 9bbf
000002b0: bade 5c3f 8b98 76bf a1c1 1abe e6cc 4a3d
000002c0: 1fe8 9a3e 9a23 c4bc 0b9d 83bd 744a 513e
000002d0: 3878 733e 8a98 23be 5456 633f 0bbf 063f
000002e0: 6dd6 853f 5ddf 0e3c f097 7ebd 7255 38bf
000002f0: c8f7 cfbe d6bb a93e e032 563e 0582 5dbf
00000300: a0c4 8b3f 5139 c53e 14ba 3e3f 20fe d9bd
00000310: 78b7 fc3b 8217 86bf 6fb0 80bc 6b40 8c3c
00000320: f9f8 d83d 3b60 e63d 25f9 94bf 02ac 66be
00000330: a415 8a3f 1471 073e fdb0 963e 45a0 82bf
00000340: fff0 353e b0f3 463d edc1 6c3e a628 a93e
00000350: 2d7e 88be 4399 813e c1e3 14bd 30ec d23b
00000360: dd68 6fbd a233 c13d d340 64c0 1885 37bf
00000370: b231 d73e 54a7 543f 98c8 a63e f09d 0bbf
00000380: 3354 e23e 17f1 3ebf e99f fc3d 4adf 0fc0
00000390: 2f44 9a3f b19c dcbe 5b78 b5bf f999 81bf
000003a0: df1d 423e fd2f 86bf fccb 653e 7ab3 70bd
000003b0: c5db 233e b3db 65bf 3fc5 f6be 9f23 98be
000003c0: eebf 26be a627 a03d 2992 53bf b943 58bd
000003d0: fd10 873f cd3b 963d 6d57 14bd 62d2 5dbf
000003e0: 6721 39be b9f9 dbbe d3e4 ecbe 4175 563f
000003f0: 23f6 393f 8883 133f 810f aa3e fddb 57be
-0.111709535 -0.9222534 0.5068367 0.13916536 -0.18637133 -0.08465473 -0.040827624 0.29509464
0.6229585 -1.028878 -0.6057804 0.011386082 0.6014531 0.034010068 -0.09851837 -0.6616658
-0.9638974 -0.7297106 1.1744152 0.6271071 0.75303054 -0.10395067 -1.0341892 0.6941909
-0.10337058 -0.018686516 -0.0070875087 0.45791927 1.7920747 0.18133336 0.910231 0.24839722
0.16714619 -1.1723717 0.2575657 -0.1133788 -0.18286045 -0.39283025 -1.212044 0.4848028
0.21211578 -0.8138049 1.1084064 -1.6809193 0.07165569 -0.026338633 -0.06970813 -0.51455617
-0.04877009 -0.41247097 -0.070088364 -1.4825042 -0.4570133 0.6497518 1.1389165 -0.063127786
-0.08399306 0.8522577 -0.32480714 -0.15065064 0.46279174 0.42804816 -0.29689994 0.009517288
0.45822605 -0.11999097 0.098189056 -0.5086487 -0.25146928 -0.39234498 -0.6822729 -1.2838303
-1.0431788 0.21882348 0.18828507 0.03416097 0.11471688 -0.3613538 0.29960066 0.53633064
1.5535386 -1.0340881 1.4036548 0.18639053 0.16073382 -0.010480226 0.10682119 -0.61222655
-0.0097599495 0.42145446 0.39519194 -0.54354906 0.8073842 0.63520485 0.57413703 0.39160842
-0.08340369 -0.7227347 0.20081161 0.22371928 -0.78298694 1.5167801 -0.17828737 0.004033909
0.5915695 -0.14161141 -0.23419304 -2.048499 1.2113922 -0.23565216 0.86486834 1.24058
0.69297546 0.6348298 0.02785757 0.14041132 0.10098125 0.06996475 1.5365465 -1.8710151
0.06554555 0.47285587 -2.3944445 2.487431 -0.51255196 0.06655564 -0.004591443 -0.02298119
-0.09762251 -0.1602561 -0.4586373 0.09413148 -0.20935705 -0.10604794 1.0073553 0.17810927
-0.04127216 -0.7217474 0.14588697 0.30081 0.8979492 -1.2380744 0.30264342 0.8039061
0.40955815 0.057568513 0.121286444 -0.4105344 -0.6748322 0.5025997 -1.044393 0.18046327
-0.70844096 0.13925968 0.07951384 0.08671418 -0.22055374 -1.380019 -0.5409593 0.022868756
0.44492427 -0.25267228 1.741778 1.0299218 -0.19148012 -0.05964797 0.08610951 -1.1361526
-0.37103835 0.5241749 0.4137117 -1.2179707 0.86277354 -0.9632651 -0.15112926 0.049511813
0.3025522 -0.023942757 -0.06426438 0.20438558 0.23776329 -0.15976158 0.888036 0.5263526
1.0456063 0.008720246 -0.062156618 -0.7200538 -0.4061873 0.3315112 0.20917845 -0.8652652
1.091938 0.3852029 0.7450268 -0.106441736 0.007712301 -1.0475924 -0.01570913 0.01712056
0.10594363 0.11248823 -1.1638533 -0.22526553 1.0787854 0.1322673 0.29431906 -1.020516
0.17767714 0.048572242 0.23120852 0.33038825 -0.26658764 0.25312242 -0.036350016 0.006436847
-0.058449615 0.09433676 -3.5664566 -0.7168746 0.42030102 0.8306782 0.32574916 -0.5453787
0.44204864 -0.74586624 0.12335188 -2.2480035 1.2052058 -0.43088296 -1.4177355 -1.0125114
0.18956707 -1.0483395 0.22441095 -0.058764912 0.16001804 -0.8978836 -0.48197362 -0.29714677
-0.16284153 0.07820062 -0.826449 -0.05279896 1.055206 0.07335625 -0.03621619 -0.86649144
-0.18079148 -0.4296396 -0.4626833 0.83772665 0.726412 0.57622576 0.33214954 -0.21080013

layers_q2.0.bias f4 [100]
00000000: 66ee 8ebf 0a64 d6bf 2945 ab3d c597 56bf
00000010: e271 81be 2e64 41bf 30ee 30bf c2e4 303e
00000020: 5209 ccbe 36e6 07bf 9a6e 33bf 6215 603d
00000030: 50c6 693b b119 49bf f4c8 d6bd f9e0 0bbf
00000040: 35d6 e8be fcce 873f b8d9 23bf 4a71 09bf
00000050: 247d 7fbf 685a 84be d209 98bd e106 19bf
00000060: 9d96 84bf bf74 4fbf c884 923f f6a2 93bf
00000070: fe19 92bf 4e21 4c3e 640e 48bf 267c b1bf
00000080: 2751 55bf 1778 a3bf 2e7f 5bbf c366 64bf
00000090: 6ab7 52bf 3b32 bdbd ca86 47bf 945b 82bd
000000a0: f587 c93f f173 0cbf 8d31 2abf cc0b babe
000000b0: 1940 013f ddfa 85bf 68b6 093f c008 a7be
000000c0: 4bfe 9abf e167 f63d 11bd 40bf 811a 46bf
000000d0: 3319 47bf 8cd1 5dbe eff9 bdbd b5df b4bf
000000e0: ada1 a3bf 3d35 82bf dd3e 9abe 1e10 50bf
000000f0: 0e46 3bbf 6979 5bbf b955 3ebe 948d c63f
00000100: 3bd6 c2bd b208 fabe d202 81bf a614 9fbf
00000110: e136 2cbe 60af 3fbf 94e8 8cbf bb7e 63bf
00000120: 1b40 3dbf ade0 5fbf 2f82 a9bf 7e3b 78bf
00000130: ef0a a7bf 5d73 8dbf 9bbf f7bd 2867 3dbf
00000140: d076 c1bf 24ad 9bbc f6ac 86be b95c 31bf
00000150: 0984 26bf 0542 77bf 3628 8ebf 9b55 61bf
00000160: 9ca1 7ebf 5cf6 27bf ceff 56bd 4555 8bbf
00000170: eba5 4ebf e179 0f3c 10cf bdbf 0b43 d4bd
00000180: a395 64bf 4a21 59bf 873e 3cbf d454 acbf
-1.1166503 -1.674928 0.08362801 -0.8382533 -0.25282198 -0.7554349 -0.69113445 0.17274764
-0.3985086 -0.5308565 -0.7009064 0.054707892 0.0035671182 -0.78554827 -0.104875475 -0.54640156
-0.45475927 1.0610042 -0.6400409 -0.5368849 -0.99800324 -0.25850224 -0.07423748 -0.5977612
-1.0358464 -0.81037515 1.1446772 -1.1534107 -1.1414182 0.1993458 -0.7814696 -1.3866012
-0.83326954 -1.2771024 -0.85740936 -0.892193 -0.8231112 -0.09238096 -0.77940047 -0.063651234
1.5744616 -0.5486441 -0.6648186 -0.36337125 0.5048843 -1.0467182 0.53793955 -0.32623863
-1.2108854 0.12031532 -0.7528849 -0.7738419 -0.77772826 -0.21661967 -0.09276187 -1.413077
-1.2783715 -1.0172497 -0.30126086 -0.8127459 -0.7315377 -0.8573213 -0.18587388 1.5511956
-0.095135175 -0.4883476 -1.0078986 -1.2428176 -0.1681781 -0.74876976 -1.1008477 -0.8886525
-0.7392594 -0.87452203 -1.3242854 -0.9696578 -1.3050212 -1.1050831 -0.12097093 -0.7398553
-1.5114384 -0.019003458 -0.26303834 -0.6928211 -0.6504522 -0.9658511 -1.1106021 -0.8802125
-0.99465346 -0.6561029 -0.052490048 -1.0885397 -0.8072192 0.008757086 -1.4828815 -0.1036435
-0.8929083 -0.8481642 -0.7353291 -1.3463387

layers_q2.2.weight f4 [100, 100]
00000000: 38c9 48bd 8214 603e 5811 b1be 2bf8 743f
00000010: 7064 c8be a25c e13f cfc4 ad3e 2554 0abf
00000020: cdf4 0cbf 1ab0 d4bd 6e6e a5be d5f3 85be
00000030: c72c a8be acf7 0b3f d504 983e 457a 193f
00000040: 8814 443f d297 dabe 7c25 8e3e db08 733f
00000050: 174d bf3e f057 c83d cd59 913f 8f2c 24bf
00000060: 16d1 90be 2a15 6c3f 4b43 e9be cc6f 85bf
00000070: 20ce cc3e 47c8 25bf 140f 76bf 7ff9 25be
00000080: 13fe fc3d ece8 82be 94e9 0e3f e6ba 153f
00000090: aaa6 da3d ba18 5bbf 768f 10be 4c23 7fbf
000000a0: ab2d 6abf 1147 43be 192c d13e 408b 473f
000000b0: d5a1 9b3c 8755 b53f 80d8 37bf b3a9 e33e
000000c0: 3b5b eb3f acd8 733f 8dac 17be 80a8 bfbe
000000d0: bd0b 8b3d 0258 dbbe 4f64 22bf 1192 433e
000000e0: c996 c03f 1d9d 1ebf 3b48 6abd 12b6 ef3c
000000f0: 9988 4c3e 8d05 05bf 34c0 723e 0be5 66bf
00000100: 8b99 fd3e 7625 91bf 61e0 cabe 76ee 953f
00000110: 78d4 433e 2cd3 8fbf a408 883e 73aa 66be
00000120: 9935 de3e 0e8d 2f3f 249f 8a3f 162b 1b3f
00000130: 11c7 4fbe 0922 c8bb 7460 033f 3b66 fe3d
00000140: be23 a03f 30c9 b2bf 2e4a 113f b1e3 513f
00000150: b1b7 503f 8717 373c 626c ee3f 10ed 38bc
00000160: 67c0 abbf 20eb c33e a4c1 7ebd 331b 68bf
00000170: d4b3 ffbe 122a 653f 450f 163f 12fc 5bbf
00000180: 3044 44bf ba12 dcbd 669b 94bf 471d b5bc
00000190: 095e 57be 72bf d6bd a4dd 8a3d b348 6fbe
000001a0: e9dc d23e 142d 71bd 2c5d f9bb 9e9d 80bf
000001b0: 1851 4fbf e5ab 8bbe 0ff8 32be c77c 3cbf
000001c0: c767 b3be 3495 0ebe dc8c 8f3c 42a2 d8bd
000001d0: 8591 123d 429a d1be 1e63 17be 0908 44be
000001e0: cc51 713e aec6 283e 639d eabe 9251 6d3e
000001f0: 8530 1e3f cdc7 073f 6798 21bf 457a 193e
00000200: c573 983e b965 cabe f673 1fbd 3696 92bd
00000210: c560 973e 6fd1 a13e 81ce 41bf 195f d53e
00000220: ebea 71be ced3 9ebd 619a de3e 2bae f83d
00000230: 7803 38bd 82f6 e43d 70b6 b2be 59db 523d
00000240: 8952 42bf 6219 67be f799 213b 77b6 af3d
00000250: e244 663d 32dd 69be 5caa 883d 030a 68be
00000260: c3f5 61be e1e4 c33e af8d 25bf f81a 32bf
00000270: 6e37 113f 6ee4 a23d 900b b6bf 6b72 ea3e
00000280: b7a0 a3bd 9a1a 6fbe 404e cdbd 54c9 8a3d
00000290: 974a 353f a246 d4be 5b1e 65be f1ab 53be
000002a0: 1eda 18bf 9ab2 de3d d36e 7ebe 7821 333e
000002b0: 90f7 30bf 1248 003f 9752 a33e ce86 afbe
000002c0: 5d72 89be b81b ce3e d3af 6f3e 2138 4cbe
000002d0: 5c6b 06bf 2e71 17bf 64db 013f e7eb aabd
000002e0: be7c a63e f99a 57bf eee5 a83d 935d eb3d
000002f0: e5f2 143e d18f d33e 3e3f 11bf 573f a1be
00000300: d244 53bf 390d dfbe 9e72 233f 2759 37bf
00000310: db90 edbe 1825 35bf 0084 433e 465a 163f
00000320: 1947 40bf 59b4 ccbd 5200 37be 14e3 8d3e
00000330: 19d4 783f e9a9 4ebe 40c4 b1be fa99 ecbd
00000340: a47f 70be 184a cc3e 0111 d23e c4cc a5bf
00000350: 7828 4fbf 5bfc 723d 1a54 db3d c612 243e
00000360: 6959 d13f 8b78 03bf 68a9 cc3e 20cc 443f
00000370: 4aa8 ed3e 65af 773f 5432 0640 2def 82bf
00000380: 5f78 213f 4069 3cbe a298 50bd 056f 1ebf
00000390: 9352 f13e 75f7 07bf e15b 453f 871d b6be
000003a0: 5207 10bf 1987 df3f dedc 17bf 8651 a53e
000003b0: c0b7 313e 93d6 09bf d9f2 ccbe 9e0a 93bf
000003c0: d999 a0bf 7543 3dbf 6e2a a83e 6ecd 913f
000003d0: 000e 36be 83fa 743f 7c0f 81be 7e35 9b3d
000003e0: 96c8 a03f d622 ac3f 2e02 1dbf 6896 cb3d
000003f0: d44c 0c3e 7643 13be 0c4c ccbf 05b1 56bd
-0.049020022 0.21882823 -0.34583545 0.95691174 -0.39139128 1.7606394 0.33939216 -0.54034644
-0.55061036 -0.10385151 -0.32310814 -0.26162592 -0.32846662 0.5467479 0.29691187 0.59952193
0.7659383 -0.42693955 0.27762973 0.9493539 0.37363502 0.09782398 1.135553 -0.6413049
-0.2828452 0.92219794 -0.45559153 -1.0424743 0.4000101 -0.64758724 -0.9611676 -0.16208456
0.12353148 -0.2556833 0.5582516 0.5848831 0.1067632 -0.85584605 -0.14117226 -0.99663234
-0.91475934 -0.19070078 0.40853956 0.77946854 0.018998066 1.4166726 -0.7181473 0.44465408
1.8387216 0.9525249 -0.14811917 -0.37433243 0.06789348 -0.42840582 -0.6343431 0.19098689
1.5046016 -0.61958486 -0.05719779 0.029261623 0.19973983 -0.51961595 0.23706132 -0.9019324
0.49531206 -1.1339557 -0.39624313 1.1713398 0.19124019 -1.123632 0.26569092 -0.22525959
0.43400267 0.6857461 1.0829816 0.6061262 -0.20290782 -0.006107573 0.5131905 0.12421843
1.2510908 -1.3967648 0.56753814 0.81988055 0.8153029 0.011175043 1.8626826 -0.011286989
-1.3418092 0.38265324 -0.06219639 -0.906665 -0.49941885 0.8951732 0.5861705 -0.85931504
-0.76666546 -0.10745759 -1.1609924 -0.022108687 -0.21031965 -0.10485734 0.06780556 -0.23367576
0.41184166 -0.05888088 -0.007609984 -1.0048101 -0.80983114 -0.27279583 -0.1747744 -0.73627895
-0.35040113 -0.13924104 0.017523222 -0.10577823 0.03578331 -0.40938002 -0.14783904 -0.1914369
0.2356636 0.1648204 -0.45823202 0.23175648 0.61792785 0.53039247 -0.6312317 0.14988048
0.29775825 -0.39530733 -0.03892895 -0.07157557 0.29566017 0.31605098 -0.75705725 0.41674116
-0.2362477 -0.07755242 0.43477157 0.12142595 -0.044925183 0.1117983 -0.34904814 0.051478717
-0.7590719 -0.22568277 0.002465842 0.08579724 0.056218036 -0.22838286 0.066731185 -0.22660069
-0.22066407 0.38260558 -0.64669317 -0.695724 0.56725204 0.07953726 -1.4222279 0.4579042
-0.07989638 -0.23349991 -0.10024691 0.067766815 0.7081694 -0.4146014 -0.22374861 -0.20671059
-0.5970782 0.10873909 -0.24846964 0.17493236 -0.6912775 0.5010997 0.3189895 -0.34282535
-0.26845065 0.40255523 0.23406915 -0.19943286 -0.5250757 -0.59157073 0.5072539 -0.08345776
0.32517046 -0.84220845 0.082469806 0.11492457 0.14545782 0.4132066 -0.56737125 -0.31493637
-0.82526886 -0.43564776 0.63846767 -0.7162041 -0.46399578 -0.70759726 0.19093323 0.58731496
-0.75108486 -0.09995336 -0.17871216 0.2771231 0.97198635 -0.20182003 -0.3472004 -0.11552806
-0.23486191 0.3990028 0.41028598 -1.2953115 -0.80921125 0.059322696 0.107094005 0.16022786
1.6355411 -0.5135581 0.39972997 0.7687397 0.46417457 0.96752006 2.0968218 -1.0229241
0.63074297 -0.18399525 -0.050926812 -0.6188815 0.47133312 -0.53111964 0.7709332 -0.35569403
-0.5626117 1.7463104 -0.5932139 0.3228876 0.17355251 -0.5384304 -0.40029028 -1.1487615
-1.254695 -0.73931056 0.3284487 1.1390817 -0.17778778 0.9569475 -0.25207126 0.07578562
1.2561214 1.3448131 -0.6133145 0.09940797 0.13701183 -0.14381203 -1.5960708 -0.052414913

layers_q2.2.bias f4 [100]
00000000: 8b8d 66bf 88ec b9be 131e 20bf 8966 c7be
00000010: 1b5c 62bf ccbc 74be d967 46bf 3eea 1abe
00000020: b4b5 7abf 61a1 483e c085 b1bf 91a1 783f
00000030: 61e5 45bd 9969 cdbe 05bc 0dbe a76d eb3e
00000040: 6a08 52bf 8392 64be d8b8 55bf 6b4c 68be
00000050: cea4 91bd a3b4 e3be 51b7 c2be d317 e7bd
00000060: 8788 a0bd 6a43 ddbc f319 63be ac77 7fbe
00000070: d10f 47bf 7e03 1cbe d1dc c2bd e674 29bf
00000080: 9978 bbbe 2228 57be a756 adbe dbf7 e0bd
00000090: 0604 9bbf 98f8 31be 657a 8dbd d61a 253e
000000a0: 6ffa afbe ff0e b13e df89 b5bd 1f04 abbd
000000b0: 9299 e13c 8210 d0be 8778 abbe 2899 3dbe
000000c0: da77 ed3e a7d0 a1bd 33dc e5be a3ed 66bd
000000d0: d5af 08be e782 afbe e137 7a3f b4a6 f0bd
000000e0: 95d9 00bf 264a 14bf 5404 7dbd 2f2f 22be
000000f0: 67af 5fbf cab8 0940 fdea 04bd b745 aebf
00000100: e632 1bbe 1f7a a8be 4002 30bd 6860 d43f
00000110: b89e 34be c588 88bc 0c1a 8c3e a119 4fbd
00000120: 0a72 0c3f 9772 a6be 1d97 9f3e 9192 c5bd
00000130: febd 18bf 8bc1 6ebe 7242 d6be acfb 023f
00000140: c63f 10bf 9ca4 71bf a884 cf3c 86b2 99be
00000150: ccd1 7dbd 8153 c9bd ccd4 70bd 3ac8 ddbd
00000160: 2919 cabe d67f 10be b91f 45bd 32b3 57bd
00000170: 7131 44bf d8b6 bdbe 442a c4be 872b a3bd
00000180: 786b 483d 0aa2 54be 59b2 dd3d 3b83 6a3f
-0.9005973 -0.36313272 -0.6254589 -0.38945416 -0.8842179 -0.23900145 -0.7750221 -0.15128419
-0.97933507 0.19592811 -1.3868942 0.9712153 -0.048314456 -0.40119627 -0.13841255 0.45982096
-0.8204409 -0.22321515 -0.83485174 -0.22685401 -0.07111512 -0.44473752 -0.38030484 -0.11283841
-0.078385405 -0.027009685 -0.22177868 -0.24947995 -0.7775851 -0.15235707 -0.09514774 -0.66194
-0.36615446 -0.21011403 -0.33855173 -0.10984775 -1.2110603 -0.17379987 -0.069081105 0.16123518
-0.34370753 0.34581754 -0.088641874 -0.083503954 0.027539048 -0.40637594 -0.33490393 -0.18515456
0.46380502 -0.079011254 -0.4489456 -0.05637897 -0.13348325 -0.34279558 0.97741514 -0.11750546
-0.50332004 -0.5792564 -0.061771706 -0.15838312 -0.8737702 2.1519036 -0.032450665 -1.3615025
-0.15156135 -0.3290567 -0.042970896 1.6591921 -0.17638671 -0.01666678 0.27363622 -0.05056155
0.5486151 -0.325093 0.31169978 -0.09647096 -0.59664905 -0.23316018 -0.4184757 0.5116527
-0.5634731 -0.943918 0.02533181 -0.30019015 -0.061967656 -0.0983038 -0.05879669 -0.10829206
-0.3947232 -0.14111266 -0.048125956 -0.05266113 -0.7663794 -0.3705356 -0.38313496 -0.079672866
0.048930615 -0.20764938 0.10825033 0.9160649

layers_q2.4.weight f4 [1, 100]
00000000: 0cd3 e9bc 6cea 08bf 131c 2cbd ed2b 15bf
00000010: 1005 b53b 7363 76bf 2f1e a93c 22c5 5abb
00000020: 1567 91bc aac5 59bf b085 b7bb c33c 7e3d
00000030: c214 e13c 3c7e 7a3b 1496 05be acee 423d
00000040: 6938 4a3c 42b4 6ebe 3bea 833c 6e3e 94bc
00000050: 428e 533b d457 06bf 5fe3 bdbd c74a a3bc
00000060: 7ece a8bd f951 c6bc c55f 13bf 08aa 42bf
00000070: 31bb 453c 6580 8c3c 6a53 d2bc 6cc2 febd
00000080: fd68 31bd 07ff 38bc 057b 1cbf fed8 a0bc
00000090: 17f3 84bc 3a72 63bf 2760 babd c536 1ebe
000000a0: 60a4 bb3c b9fe 56bf b460 84bf 3716 383d
000000b0: accb 71bc 652b 96be 9121 dcbd 5947 c13b
000000c0: eabd 6cbd dad3 66be 4e13 233f 8763 3bbb
000000d0: 1734 bfbc bee5 21bf cc87 813d afc6 283b
000000e0: d09d c0be 4d85 103e 5631 9b3c 06d7 953c
000000f0: a1b1 f0bd 8652 0a3e c4af 0ebf 39ee c63c
00000100: b43e f93c 44f9 883c 0092 c9bf 51c5 6f3d
00000110: 3513 93bd 0e42 963c e77f 23ba cd1c 17bf
00000120: b8c4 00bd e870 4bbf 477b 36bf 92d8 e3bb
00000130: e6f3 983b 59f5 56be 2504 8f3b 1c66 0abe
00000140: 26a8 2ebf cf0c a2bb f15b 58bf 2cf5 81bf
00000150: 1244 693b 258c 893c 0205 edbe 6dfb 9abc
00000160: 76c6 24bf 9ba7 64bb 5cb3 fa3c a0a7 483d
00000170: ff74 a03c 4810 cc3c 5c42 eabc b9c7 c23c
00000180: fe0d adbe 0857 bbbc 32b1 68bf 976f 493d
-0.028543018 -0.534827 -0.04201896 -0.5827015 0.005524285 -0.962455 0.020644275 -0.003338166
-0.017749349 -0.85067236 -0.0056006536 0.062069666 0.027475718 0.0038222214 -0.13045532 0.047590896
0.012342551 -0.2331095 0.0161029 -0.018096175 0.0032280837 -0.52477765 -0.09271883 -0.019933118
-0.0824251 -0.02420901 -0.5756801 -0.760407 0.012068556 0.017151067 -0.02567454 -0.12439427
-0.043313015 -0.011291272 -0.6112521 -0.01963472 -0.016229196 -0.8884617 -0.09100371 -0.1545058
0.022905529 -0.83982426 -1.0342011 0.04494306 -0.014758032 -0.29329982 -0.1074859 0.005898398
-0.057798304 -0.22541752 0.6370133 -0.0028593258 -0.023340268 -0.63241184 0.06324729 0.002575319
-0.376204 0.1411335 0.018944424 0.018291008 -0.1175263 0.13508043 -0.5573695 0.024283515
0.030425407 0.016720422 -1.5747681 0.058537785 -0.07181398 0.018342044 -0.00062370155 -0.5902832
-0.031437606 -0.79469156 -0.71281856 -0.0069533074 0.004667747 -0.2099203 0.0043645077 -0.13515514
-0.68225324 -0.0049453746 -0.8451529 -1.0152946 0.0035593552 0.016790459 -0.46292883 -0.018918717
-0.6436533 -0.003488994 0.030603103 0.048987985 0.019587038 0.024910107 -0.028596096 0.023776876
-0.33799738 -0.022868648 -0.9089538 0.049178686
