Save/Trainings/RL_AM/4800000/critic.pt (torch, 94145 bytes, 10 tensors)

layers_q1.0.weight f4 [100, 10]
00000000: 2a1c 903f 3ec0 003f d7ca b93f 07bc 4fbd
00000010: 99f7 b1be 9b55 24b8 1749 293c 4465 59bf
00000020: edb0 b33f 62de a0bf 376e a3be 952c 9fbe
00000030: 991e a63e 1313 3f3e 7127 5fbe c376 aabe
00000040: 9b1e 1bbf 109b 06bf 2b21 703f fc36 033f
00000050: e82b e63e 9462 6f3e 8a1a dc3e ce41 9e3d
00000060: d075 673e c344 d63c 524c dabd b3ca 82bf
00000070: 58d5 4c3e 9653 1a3e bad0 4dbf f863 d3be
00000080: 9a1b 293f 5bc6 05bd 6278 983d 36e1 8fba
00000090: ddad 3bbc 5246 7d3f 0ae0 8dbf dac0 1b3f
000000a0: 0746 47be fe2c a5bf eacd d43e 78bc e7be
000000b0: fe27 68bf 4ef5 633d c291 923d 3636 6dbf
000000c0: 9bf6 323d 1683 333f 6996 d73d f647 93be
000000d0: 1e7a a63e caf8 033f 5931 d63e 0d2d 3fbd
000000e0: 923d bbbd 4755 93bf d3de a83e a922 10be
000000f0: 7577 603d 2424 46bf d782 bcbf 83f9 1e3e
00000100: c9c9 793f fc98 dcbd 95b3 00bd f1ad dbbe
00000110: c454 443e a880 5c3e 8be2 c1be 7597 3dbe
00000120: 0de0 92bf fccd 413d 0713 bcbe 5967 c13d
00000130: 287d afbd 26bc dfbf 8fcc 32bf 3084 1cbe
00000140: 631a 223e 05b7 b0bf 97f0 dfbe 09a9 d6bd
00000150: ed59 f03e bad1 22bd 158b 49bc e46c 7b3f
00000160: 5848 9c3c 1a70 99be 49e3 10bd bc3a 47bf
00000170: eb84 95be 6665 203e fe43 2a3f 1044 773c
00000180: 006c 4a3e 3ced 2fbf e1f9 9abf 05d8 84bd
00000190: 0ae4 85bf 8c1b bc3f 348b c23e 0798 55bf
000001a0: 3afe fbbe 8a38 023e 7802 f0bb 1eda a33d
000001b0: 9b82 953e 9e01 08be 9f1b 35bd dd57 31c0
000001c0: 3b70 13be 0d6a b53c ce38 2640 0e50 153d
000001d0: 49f5 09bc 44ee b0bc 83da 6dbe 6f49 f1bc
000001e0: 9d0d c7bd 6710 413e 9ad2 9bbf a0a0 e8be
000001f0: d51c a73f aea2 f53d 0ba5 93bc 7b81 1fbf
00000200: 4246 493f 97b2 dc3e d49f 04bf 5987 01be
00000210: 5a0d 7b3f 6082 27be d6a8 babe 2afe d3bb
00000220: 88a5 023e 2fa4 523d 5e55 99bf 13e8 d23f
00000230: 1b4b bd3f a041 323f eea8 ad3f 70fa d03e
00000240: 54c9 6ebf c8b5 5cbd 9943 f0bc 68e4 543e
00000250: 6ddb 6e3e 9e69 1cbf d42a 273e f521 863e
00000260: 8454 02be 1761 973e 0fac 323f 5912 3f3e
00000270: eb51 64bd d711 00bf 0193 fabd 6e09 b9bd
00000280: 07f9 3f3f 2e93 533e e40b 4f3f b933 6a3e
00000290: 52c4 33bf 2444 ad3c fdf2 12be 7a9f ba3c
000002a0: ec53 26bf 9fde 97be a2fc 813f 00b7 b2bf
000002b0: 2549 cabe 2e7a 573d 32b9 8f3d 2750 d1bd
000002c0: 30d1 2b3e 9a89 94be e564 713f 76c3 adbf
000002d0: b3e6 de3f f3ff 00bf 07c5 7a3f 026a 6abf
000002e0: 493f 0040 2370 5d3d d337 c33d a613 bd3f
000002f0: 9b79 5b3c c6fd 4ebf 073d e53e 1607 693f
00000300: 1ef6 093e e161 17be 5fce 3b3d 73f3 c4be
00000310: c850 cbbe 6277 1ebf ebb0 383f 171f ac3c
00000320: 9bb3 40c0 5672 573e 4fbe 2b3f 8b82 903c
00000330: 9aad a83f fbd4 10be 28b6 2cbd 05ed 3f3f
00000340: 4afe 85bf 8490 3a3f c62a 1bc0 a921 46bf
00000350: 966d 623f 9a5a febd c226 be3e de54 93bd
00000360: 87bc 17be 784a 2c3d 602e ebbd 452b 09be
00000370: 02aa 34c0 6a6d 5a3f 396b 193f 3f70 c9be
00000380: 9135 83bf 76aa 9dbb f6cb 70bb 0779 88bc
00000390: a366 173f aaa9 8b3e d31f a7be 3014 d43f
000003a0: 3d5d 1dbe 1b13 8c3e 9ef7 2c3f 028b bebd
000003b0: e333 39bf 4c26 40bf 10a6 763e 327a debe
000003c0: 6ca5 473e 7218 81be b051 5bbe d546 1d3e
000003d0: e8cd f03e 3994 fe3a 83ad 503b 7e52 523e
000003e0: 326c 63c0 6eec d0bd a100 4ebe 6422 da3e
000003f0: 9ca9 e63f 8210 81be 297b 2e3f c761 0dbe
1.1258595 0.5029334 1.4515027 -0.050716426 -0.34759215 -3.9180373e-05 0.010332367 -0.84920144
1.4038368 -1.2567866 -0.31920025 -0.310887 0.3244522 0.1865962 -0.2179239 -0.33293733
-0.60593575 -0.52580357 0.9380061 0.51255774 0.44955373 0.23377448 0.42988998 0.07727395
0.22603536 0.026155835 -0.10659088 -1.0218109 0.20003259 0.15070948 -0.80396616 -0.41287208
0.6605774 -0.03265987 0.07444836 -0.0010977152 -0.011455026 0.98935425 -1.1083996 0.60841143
-0.19460307 -1.2904356 0.4156335 -0.45260978 -0.90686023 0.055653863 0.07156707 -0.92660844
0.043692213 0.70121896 0.10526735 -0.2876584 0.32515043 0.51551497 0.41834524 -0.046673823
-0.09142603 -1.15104 0.329825 -0.14075722 0.054801423 -0.77398896 -1.4727429 0.15524869
0.97573525 -0.10771367 -0.031421263 -0.42906144 0.1917296 0.21533453 -0.3786815 -0.18514808
-1.1474625 0.047315583 -0.36733267 0.0944354 -0.085687935 -1.7479293 -0.6984338 -0.152848
0.15830378 -1.3805853 -0.43738243 -0.1048146 0.46943608 -0.039750792 -0.012301226 0.9821303
0.019077465 -0.2996834 -0.035373006 -0.77823997 -0.2920297 0.1566368 0.6651 0.015091911
0.19767761 -0.68721366 -1.2107507 -0.06486515 -1.0460217 1.4695907 0.3799683 -0.834351
-0.49217397 0.1271688 -0.007324513 0.08000587 0.29201207 -0.13281867 -0.044215795 -2.7709877
-0.14398281 0.022145296 2.597217 0.0364533 -0.008420297 -0.021597989 -0.23227887 -0.029453961
-0.097193934 0.18853913 -1.2173645 -0.45435047 1.3055674 0.11993919 -0.018023035 -0.62306947
0.7862283 0.43105003 -0.5180638 -0.12649287 0.9806725 -0.16358328 -0.36456937 -0.0064695077
0.12758458 0.05142611 -1.1979177 1.6477073 1.4788545 0.69631386 1.3567178 0.4081607
-0.9327595 -0.053884298 -0.029329108 0.20790255 0.23325892 -0.6109866 0.16324931 0.26197782
-0.12727553 0.2956626 0.6979379 0.18659343 -0.055742186 -0.5002722 -0.1223507 -0.09035002
0.7498936 0.20661613 0.8087752 0.22871293 -0.70221436 0.021150656 -0.14350505 0.022781122
-0.64971805 -0.29662034 1.0155222 -1.3962097 -0.3950893 0.052606754 0.07017745 -0.10220366
0.16779017 -0.29011232 0.9429458 -1.3575275 1.7414154 -0.5039055 0.9795689 -0.91568005
2.0038626 0.05406202 0.09532132 1.4771621 0.013395692 -0.8085598 0.44773123 0.9102644
0.13472793 -0.14783432 0.045851108 -0.38466987 -0.3971007 -0.61900914 0.72144955 0.021010919
-3.0109622 0.2103971 0.6708726 0.017640373 1.3177979 -0.14143746 -0.042165905 0.7497104
-1.0468228 0.72876763 -2.4244857 -0.7739511 0.88448465 -0.124196246 0.37138945 -0.071939215
-0.14818011 0.042063206 -0.11483455 -0.13395412 -2.8228765 0.853232 0.59929234 -0.3934345
-1.0250722 -0.0048115803 -0.0036742664 -0.016659273 0.59140986 0.2727788 -0.32641467 1.6568661
-0.15367599 0.27358326 0.67565334 -0.093038574 -0.723448 -0.75058436 0.24086785 -0.43452603
0.19496697 -0.25213963 -0.2141788 0.15359052 0.47032094 0.0019422836 0.0031841702 0.20539281
-3.5534787 -0.102013454 -0.20117427 0.42604363 1.8020511 -0.25207907 0.6815668 -0.1380683

layers_q1.0.bias f4 [100]
00000000: ea6b a33e ccf8 a4bf 6dde 5ebf 6f0b b1bf
00000010: 350e b9bb e207 77bf 15eb 5fbe 0b39 64bd
00000020: b212 cdbf dde1 a4bf 2cec 26bf 50a1 f9bd
00000030: 8345 a8bf 6e87 8fbf df24 89bf 8bbf 37bf
00000040: c1b9 a7bf 526b 943f 0c49 babe 415b b7bf
00000050: dc36 2dbf 510b 1cbf fb83 9fbd cad5 76bf
00000060: 44aa 75bd d13c 48bf 2ad2 f4bd 73ea 30bf
00000070: bf00 b9bf 90ef 5dbe 083e 97bf 68ba 14bc
00000080: 5bb1 9cbf 6439 7ebd 09c2 9abf 6995 ee3f
00000090: a7bd 4c3d d962 aabf 5d82 51bf 2692 a0bf
000000a0: 89be 93bf 5935 27bf 3b29 c5bf 2899 04bf
000000b0: 80d2 7cbe ce68 a1bf 7a1a 09be 23ca 8abf
000000c0: 071b a9bf 788f 2fbf 1fa6 9abf b139 c23f
000000d0: 48cf 02bf a239 36bf 1d8f 87bf 3f8f 75bf
000000e0: 48b7 10bf 1dec 46bf fef9 37be 6568 8dbd
000000f0: 0136 8abf c535 debf 15f3 f9bf 361d 66bf
00000100: 3a72 d63d 17c0 55bf 6eb9 843c 1f40 92bf
00000110: ffde a3bf fc04 69bf 2e61 6cbf 5204 f13e
00000120: 2351 80bd 9554 8bbf 2c14 8cbe b95c 19bf
00000130: e1c4 06bc 0ebd 08bf d20d 73bf b2b5 57bf
00000140: 0205 44bf cc62 37bf 90b3 f2bd 3a4f d1bc
00000150: 6441 d4be 45ff 24bf 0974 93be 0f1e 95bf
00000160: 27ea 83bf 25d8 eebe c1dd 14bf 5176 ebbe
00000170: 54db c2bf f4c9 3bbf 8841 96bf 6a97 81bf
00000180: d529 c8bf 506e 4ebf 68f1 a9bf 5ca9 8ebf
0.3191827 -1.2888427 -0.87058145 -1.3831614 -0.0056474456 -0.96496403 -0.2186702 -0.055718463
-1.602133 -1.2881428 -0.6520412 -0.12188971 -1.3146213 -1.1213205 -1.0714377 -0.71776646
-1.3103563 1.1595252 -0.36383855 -1.4324723 -0.67661834 -0.6095477 -0.07788845 -0.96419966
-0.05997683 -0.782178 -0.11954148 -0.6910774 -1.4453353 -0.21673417 -1.1815805 -0.009077646
-1.2241625 -0.06206645 -1.2090465 1.8639346 0.049985554 -1.3311416 -0.81839544 -1.2544601
-1.1542522 -0.6531578 -1.5403208 -0.517962 -0.24689674 -1.2610109 -0.13389006 -1.0842937
-1.3211373 -0.6857829 -1.2081946 1.5173856 -0.51097536 -0.7118169 -1.059055 -0.959217
-0.56529665 -0.7770403 -0.17966458 -0.06904677 -1.0797731 -1.7360159 -1.9527308 -0.8988832
0.10471006 -0.8349623 0.016201701 -1.1425818 -1.2802428 -0.9102323 -0.92335784 0.4707361
-0.062654756 -1.0885187 -0.2735914 -0.5990711 -0.0082256505 -0.53413475 -0.94942963 -0.8426162
-0.7657014 -0.7163513 -0.11850655 -0.025550473 -0.4145614 -0.6445201 -0.28799465 -1.1649798
-1.0305833 -0.4664928 -0.5815087 -0.45988706 -1.5223184 -0.7335503 -1.1738749 -1.0124333
-1.5637766 -0.80637074 -1.3276796 -1.1145434

layers_q1.2.weight f4 [100, 100]
00000000: 4948 463d 7136 6ebe 7095 613d 9776 063f
00000010: 4252 a7be 4e8f 0ebf ff0f 70bf 3692 a43e
00000020: 8818 8fbe 03d1 5e3e 542e d5be 7885 2dbf
00000030: 5bb5 f5be 3a17 943e bf34 85bf 5a70 55be
00000040: 53e7 98be 3ea2 63bf c1ce 813e 7b0f 333f
00000050: c344 b9be 67ff e23a 0f8c c9be 18ee 073e
00000060: 4e90 663e 31a8 4bbe be59 5fbf 5f06 3abd
00000070: 5739 fabe 86ce f63e 0336 c13e 91fb 4abf
00000080: c702 3fbe 4f10 efbe 6e5b 50bf d83e f33d
00000090: fe35 dcbe 8b22 3abc 1a09 8dbe 6dbd 98be
000000a0: bb36 ad3e 7e97 713c 43f9 b8bd 5352 6d3e
000000b0: 8fcd f73e 1c40 f1be 2945 77be 1571 5ebe
000000c0: e607 d83e 7d93 9dbf 4055 88bf a557 8ebf
000000d0: 24be d0bf 4a87 cd3e 161b 13bf b802 46be
000000e0: 6f61 8f3e 820e 64bf 82df 28bd 8ac1 6a3f
000000f0: 520e 7ebe 477d 973e b5c8 01bf 29eb 273e
00000100: 60ef 81bd 5305 4ebd dfc9 2bbf 2a58 c93e
00000110: 7a28 34be 33f9 433e 16f1 f13c 7a8c 19be
00000120: 9e10 9cbf 216a c23e 167f 30bf b56a 1b3e
00000130: 581c 13be 94aa 6bbe 390c 1aba 190f 953d
00000140: 3444 243e 53a5 06bf 60a0 dbbe 6a8a 57bf
00000150: 59c6 a2bc 2423 4cbe 4743 1ebe 0bee 45be
00000160: 33df debe d0ad f5be 0a62 26bf 7732 60be
00000170: dff4 37bf 9c98 9dbe 3d28 29bf e3b3 b33d
00000180: 4747 1abd 7fbb d9bd 8491 903e fe4c 59bc
00000190: c163 5e3d 43ea 86bd e69c 6b3d d580 f4bd
000001a0: ea28 693d 0a0b 4abd ec72 443d 646b ce3c
000001b0: 3740 adbd ce93 783d 1713 a3bd 23d1 bc3c
000001c0: 3243 26bd da28 1fbd e48b f83c 32cf 5b3d
000001d0: c0b0 0cbd 0907 8dbd 1793 55bd 0301 973d
000001e0: e105 7bbd 2649 97bc f082 8a3c 2cf8 febc
000001f0: 9a72 29bc c7d6 6d3c 323a 98bd f67b 9bbd
00000200: 31aa b3bd 255a 913c 5ad5 09bd 46b6 ffbc
00000210: d64b 18bd 3a12 d0bd ff37 81bd af06 ac3c
00000220: a288 e33c d49d ab3c bc84 373d 81df bfbd
00000230: 9629 04bd 5028 c4bc 62d8 c0bd 992d 703d
00000240: 71fb 76bc 8e84 17bd 60b3 d03c 9690 073d
00000250: 9a8b 363d b22e 753d ac32 d33b d743 efbd
00000260: ee40 3c3d 25e4 f1bd 765e 9dbc f3a2 64bb
00000270: 95f1 823d d0af d3bd b1e1 65bd 4682 ecbc
00000280: 2b2a 05be a5e7 8fbc a0a9 a23c d922 6dbd
00000290: 2550 cebd b4ec 22bc f083 b8bd 280d afbd
000002a0: c86f a4bc 094f 2e3b 1739 2c3d 3fc7 2ebd
000002b0: 857b c1bd 5654 563c 33b9 77bd 9f50 a7bc
000002c0: 7dc1 66bd fd86 b0bd c075 12bb 381e 523d
000002d0: 8734 7abd fdaa 80bd 0dbf c93b c7cd bcbd
000002e0: 1ba0 78bd 8b3e 703d fd01 143d 947e 323d
000002f0: e58f 42bd 63a4 6bbd 2cd1 893c 87ac a9bc
00000300: 388b e1bd 28c7 bf3c 6441 aabd 80be 55bc
00000310: 4642 b4bd 5ecd 3c3d b6e2 abbb 7916 85bd
00000320: 7d7c 85be bdd1 0d3e 3f12 473f 0ba5 213f
00000330: bc0e c6be fd87 613f c70d 353f ba42 c6be
00000340: 83da 3dbf 8f9b ff3e 5181 bebe 7211 0bc0
00000350: e1d8 0cbe 0a1a 8ebf aea4 3ebf 674c efbe
00000360: a87a 403e 3299 99be 6c03 e83e 3fd3 ee3e
00000370: bc95 12bf 9408 1fbd 55d4 e1be b1f4 6a3e
00000380: faac 4c3e fdc9 993d 9a3f 753f 40ae ca3e
00000390: 69a9 f7bd fc6c 733e 62c5 f63d 787c c4be
000003a0: 3bb1 9dbf dc6a 123e b128 903d 614c b3bf
000003b0: 6878 b2bd a6ca 663e c487 2abe 27eb bf3d
000003c0: 0a0b f43e 6ddf 153f f49c 89be a59b a53e
000003d0: 085d 6e3e 191a dc3f 786b 4dbf 8a98 12bf
000003e0: 654a 9cbf 587e 443f 532e 0bbf ac55 92bf
000003f0: 2171 363f 95f6 273f 9057 0a3f 5dfc 0b3f
0.04840878 -0.23262955 0.055074155 0.52524704 -0.32679945 -0.55687416 -0.9377441 0.321428
-0.27948403 0.21759419 -0.41636908 -0.6778178 -0.47989926 0.2892397 -1.0406722 -0.2084364
-0.29863986 -0.88919437 0.25353053 0.69945496 -0.36185274 0.0017318547 -0.3936467 0.1327442
0.22515985 -0.19888379 -0.8724631 -0.045416232 -0.48871872 0.4820444 0.3773652 -0.7929011
-0.18653403 -0.4669213 -0.8138951 0.11877221 -0.43009943 -0.011360775 -0.27546006 -0.2983202
0.3383082 0.014745591 -0.09031918 0.23175935 0.48399016 -0.47119224 -0.24147476 -0.21722825
0.42193526 -1.2310635 -1.0651016 -1.1120497 -1.6308026 0.4014228 -0.57463205 -0.19336975
0.28004023 -0.8908464 -0.04122878 0.9170157 -0.2481015 0.29587767 -0.5069688 0.163983
-0.06344485 -0.050298046 -0.67104906 0.39325076 -0.17593566 0.1913803 0.029533904 -0.14994994
-1.2192571 0.37971595 -0.6894392 0.15177424 -0.14366281 -0.23014289 -0.0005876455 0.0727827
0.16041642 -0.52596015 -0.42895794 -0.8419558 -0.01986997 -0.1993528 -0.15455352 -0.19329087
-0.43529662 -0.4798417 -0.64993346 -0.21894251 -0.7185802 -0.30780494 -0.66077024 0.08774545
-0.03766563 -0.10631465 0.2823602 -0.013262985 0.05429435 -0.065876506 0.057522677 -0.11938635
0.056923784 -0.049326934 0.04796116 0.025197692 -0.08459514 0.060687833 -0.079626255 0.023048943
-0.040591426 -0.03885732 0.030340143 0.053664394 -0.03434825 -0.068861075 -0.05214223 0.0737324
-0.061284903 -0.018467497 0.016908139 -0.031124197 -0.010342265 0.014516539 -0.07432975 -0.07592003
-0.08772696 0.01774318 -0.033650734 -0.031214844 -0.037181698 -0.101597264 -0.063095085 0.02099928
0.027775113 0.020949282 0.04480432 -0.09368802 -0.032266222 -0.023945004 -0.09416272 0.058637235
-0.015074597 -0.03699165 0.025476158 0.033096872 0.04456673 0.059858985 0.0064452495 -0.11682861
0.04596036 -0.11811093 -0.019210082 -0.0034887164 0.06393734 -0.10336268 -0.05612344 -0.028870713
-0.13004367 -0.017566511 0.019856274 -0.05789456 -0.1007388 -0.00994413 -0.0900954 -0.08547431
-0.020072833 0.0026597402 0.042046633 -0.042670485 -0.094473876 0.013081631 -0.060479354 -0.020424185
-0.05633687 -0.08619497 -0.0022348017 0.05129835 -0.06108525 -0.062826134 0.006156808 -0.092189364
-0.060699563 0.058653396 0.03613471 0.043577746 -0.04750051 -0.05752982 0.016823374 -0.02071215
-0.11012882 0.023410395 -0.083132535 -0.013045907 -0.08801703 0.04609429 -0.005245532 -0.06498427
-0.2607154 0.1384954 0.77762216 0.6314246 -0.38683116 0.88098127 0.7072415 -0.38722783
-0.7416155 0.4992337 -0.37208036 -2.1729398 -0.13754608 -1.1101696 -0.7447003 -0.46737978
0.1879679 -0.2999969 0.4531511 0.46645543 -0.57259727 -0.03882654 -0.4410731 0.22944905
0.1998786 0.07509229 0.95800173 0.39586067 -0.12092859 0.23772043 0.120493665 -0.38376212
-1.2319711 0.14298576 0.07039011 -1.4007684 -0.08714372 0.22538242 -0.16653353 0.093710236
0.47664672 0.58544046 -0.26877558 0.3234531 0.23277676 1.7195464 -0.8024211 -0.57264006
-1.2210203 0.76755285 -0.5436756 -1.1432395 0.7126637 0.6561063 0.5403986 0.5468195

layers_q1.2.bias f4 [100]
00000000: 45f5 90be 3010 cfbd e6b9 82bf 580d 293e
00000010: bc3d 593b dca3 0bc0 5ce1 05be 073f 0840
00000020: 8adb 01bf d671 a1be 32c5 abbd abf3 d13f
00000030: 6de7 fdbe 2d20 d63e 0440 a3bd 1656 79be
00000040: 32e4 7dbf dc5e d8bd a81d c6bd f56e c7bd
00000050: 997d 523e fbda 6dbf 5c2d 2cbf 2575 11be
00000060: 4e62 f6bd 2e5b 97be f776 9bbe c54a f4bb
00000070: 5c40 0fbd c89d d5bd c1a7 c2bd 1fde 523e
00000080: d034 48bf 786d a4be de8c adbd a634 aeba
00000090: cfa9 94bd dbdf d0bf 2522 1bbf 9e15 0a3e
000000a0: b830 16be 611f 7fbd 719d 1bbd f570 263e
000000b0: 0369 4bbf a66e 9c3e b6c4 9bbe f5c8 1ebe
000000c0: 77c6 7b3f 3e1e 9dbe 5f44 b7be 861e f3bc
000000d0: f2f6 8abb 13fe 65be 0fd5 d0bd 0498 d6bd
000000e0: 0ab3 843d d719 f33d 8093 8cbe 0ed4 00bd
000000f0: 168c 9a3d 098e 13bf 659d 8bbd 7708 1fbe
00000100: 9055 593f c8fc 30be 59f7 c13e 8f36 62be
00000110: 08a6 cabe 40ff 2dbf aeec 2cbe 8510 26be
00000120: 0922 34be 694b 36bf 486d 31bf 9602 39bd
00000130: 8255 ccbd 4c76 c33e fc54 d9be 857d d0bd
00000140: 7a96 6ebe fee8 59bf 6f02 b6be 2d3e 6ebe
00000150: 5e1d 0dbf 1e77 b53d c8ac a1bd ace2 23be
00000160: 0b6f edbd 68e6 18bd 6552 d8bd ee9a 9cbd
00000170: c55f 92be a01a a7be c2bd c4bd ef79 46bf
00000180: fb45 4fbe 7693 3fbc db27 b6bd bdad 8cbf
-0.28312126 -0.101105094 -1.0212982 0.16508996 0.0033148369 -2.1818762 -0.13074249 2.128847
-0.50725615 -0.31532162 -0.083872214 1.6402487 -0.49590626 0.41821423 -0.079711944 -0.24349245
-0.99176323 -0.10564968 -0.09673625 -0.0973796 0.20555724 -0.9291226 -0.6725671 -0.14204843
-0.12030469 -0.29561752 -0.303642 -0.0074552023 -0.034973487 -0.10430485 -0.09504653 0.20592545
-0.78205585 -0.32114768 -0.08474134 -0.0013290837 -0.07258951 -1.6318315 -0.60598975 0.13484809
-0.14667022 -0.062285785 -0.037991945 0.16254027 -0.7945711 0.30553168 -0.30423516 -0.15506347
0.9834971 -0.30687135 -0.3579435 -0.02967764 -0.004240864 -0.22460203 -0.10196888 -0.104782134
0.064794615 0.11870163 -0.27456284 -0.03145223 0.075462505 -0.57638603 -0.0681713 -0.15530573
0.84896183 -0.17283928 0.37884024 -0.22091125 -0.39579797 -0.67967606 -0.16887161 -0.16217239
-0.17591108 -0.71208817 -0.69307375 -0.04516848 -0.09977247 0.3817619 -0.4244765 -0.10180191
-0.2329959 -0.8512114 -0.35548732 -0.23265906 -0.55122936 0.088606104 -0.078942835 -0.16004437
-0.115934454 -0.037329108 -0.105625905 -0.07646738 -0.2858869 -0.326375 -0.09606506 -0.77529806
-0.20241539 -0.011692872 -0.088943206 -1.0990521

layers_q1.4.weight f4 [1, 100]
00000000: f19d 08bf 93a9 fbbc ab36 74bd 893c ca3d
00000010: 2228 ec3c 4b2b b33c ca9c 94bf 1082 1b3e
00000020: 3dee c83c 3a3b 74bf 1aad bbbc f376 943d
00000030: 04bd 903e 2c09 0fbe f43c 74bf 47ed 40bf
00000040: c52b 08ba a616 36be 5967 393d 4fc9 23bf
00000050: 83b7 12bf be89 34bc 4229 7cbc 4b59 123d
00000060: 297f ccbc afaf 76be b8a2 0dbf d5d7 133a
00000070: 711e 23bc 741d 63bf 53a0 e6bc d621 bebe
00000080: eceb dd3e ff99 82bf 6a4b 51bd d999 e1bc
00000090: fb8c 34bc 20d9 b4bc 4d0b 0c3d eac3 54be
000000a0: cdb1 193d 7e34 b1bc 9b8e d9bc 2c30 9abe
000000b0: 5658 d53b 77df 703d c02b 7dbf f88d 2abf
000000c0: 8a2f 893d a061 38bf 4b54 1a3f 3a39 223c
000000d0: 1d01 393c c4d7 43be e6f3 99be 131e c0bb
000000e0: 4626 73bf eb9c 34bf a388 1dbf 4d7a cd3c
000000f0: f984 32bf ef5e 12be 26bd 3cbf 573e ed3c
00000100: 36be 383d 4181 fabc 59c1 afbe d3ac b83c
00000110: 892a 3dbf 64ae 39be ad47 5fbb a814 08bc
00000120: 0396 69bd ea44 a33c 2986 b2bc 20a4 1b3c
00000130: 8e6b 763c 458f 09bf 1e68 90bf 94a8 ebbc
00000140: 9dc0 a9bf 7e80 03be 0c2b 0ebf d7bf 18bf
00000150: 5cce 8bbd ed92 eabf d5cd 9dbc d2ea df3c
00000160: 6f6f bb3c 0a68 9ebc 6fab d0be 6a19 98bb
00000170: 96a2 02be 448d 38bd a552 c8ba 9d11 8e3d
00000180: f71d 22bd d9fb b5bb b9f5 a2be 774b a73d
-0.53366 -0.030720508 -0.059622448 0.098748274 0.02882773 0.02187123 -1.1610348 0.15186334
0.024527663 -0.9540287 -0.02290969 0.0724925 0.28269207 -0.13968343 -0.9540551 -0.75362056
-0.00051945104 -0.17782077 0.045264576 -0.6397905 -0.57311267 -0.011019168 -0.015390696 0.035729688
-0.024962978 -0.24090455 -0.55326414 0.00056397665 -0.009955988 -0.88716817 -0.02815262 -0.3713519
0.43344057 -1.0203246 -0.05109731 -0.02753918 -0.0110199405 -0.02207619 0.034190465 -0.2077786
0.03752308 -0.021631476 -0.026557257 -0.30114877 0.0065107746 0.058806863 -0.9889488 -0.6662288
0.066985205 -0.72023964 0.6028487 0.009901339 0.011291769 -0.19125277 -0.30068892 -0.00586296
-0.94980276 -0.7055194 -0.61536616 0.025082732 -0.6973415 -0.14294027 -0.7372612 0.02896039
0.045103274 -0.030579211 -0.343272 0.022543347 -0.7389303 -0.18132931 -0.0034069822 -0.008305706
-0.057027828 0.019930322 -0.021792488 0.00949958 0.0150402915 -0.53734237 -1.1281774 -0.028766908
-1.3261906 -0.12841985 -0.55534434 -0.59667724 -0.06826469 -1.8326088 -0.019263187 0.02733365
0.022880284 -0.019336719 -0.40755793 -0.0046417015 -0.12757334 -0.045056596 -0.0015283419 0.06936953
-0.039579358 -0.005553704 -0.31828097 0.08168691

layers_q2.0.weight f4 [100, 10]
00000000: 6723 eabd cf8f 6cbf a97e 013f 6b70 0f3e
00000010: e124 43be 7d81 a7bd 00cb 80bd 985e 993e
00000020: af66 203f 1c2a 84bf 2f14 1bbf 068d 3a3c
00000030: 5ff8 193f b24d 0b3d 32c3 c9bd cc62 29bf
00000040: 79c1 76bf a9ce 3abf 0453 963f 868a 203f
00000050: 7861 433f 81a4 abbd 57a8 84bf 4e5e 313f
00000060: 7f00 e2bd 99fb d2bc 82fb f2bc a4bc e93e
00000070: 773e e23f cfe8 3e3e fc95 683f 5cbe 863e
00000080: 2dee 2e3e 6c36 96bf 886d 893e d6c6 eabd
00000090: fd2f 38be 9103 c9be d8fa 99bf a1d9 f43e
000000a0: c4c1 5d3e 35ef 50bf 988d 8d3f 8cac d7bf
000000b0: 87cf 893d 6a87 dabc 94ea 8bbd ff5b 03bf
000000c0: 2c3c 45bd 4c4e d3be c7e0 98bd 7164 bdbf
000000d0: 9677 e5be 49e9 263f 2526 923f 82d1 65bd
000000e0: ac64 b0bd ed9a 593f d2bf acbe adc1 1ebe
000000f0: d1f2 ec3e 7628 db3e 8c02 98be 87ee 1b3c
00000100: 3a9d ea3e 0fbd f5bd 4b17 c93d 4937 02bf
00000110: 25c1 80be 2be2 c8be 3b2b 2ebf 407d a3bf
00000120: eec3 86bf ba05 653e 6096 473e e2da 223d
00000130: 2c2f e13d b044 b9be 7efd 9c3e 7ba3 093f
00000140: 8063 c53f 24b7 85bf dd89 b33f 1ae0 373e
00000150: 360b 393e 02e9 c93b 8fd1 f43d c226 1cbf
00000160: b110 3e3c 95cc d33e 00a7 cc3e 1ef3 04bf
00000170: 458d 523f 288a 253f 6032 123f 9cf8 bf3e
00000180: 57ee ebbd 15a5 39bf 6862 363e 191c 653e
00000190: 0579 48bf acd1 c13f 599a 3ebe 4e6e 52ba
000001a0: 871a 183f 470f 13be 8679 6dbe 586a 03c0
000001b0: c210 9a3f f74a 70be 01de 583f 70c2 9c3f
000001c0: 93d7 353f 3c05 1e3f de3c c53c 2e03 013e
000001d0: 4bbf c43d 409d ab3d 139f c53f d828 f2bf
000001e0: 9ba1 8c3d 1e12 f53e 4a54 19c0 414d 1f40
000001f0: da64 02bf c269 8f3d 0260 f2bb 6db2 d4bc
00000200: d81f d1bd 591b 1cbe 3ad2 eabe b2c8 c03d
00000210: 2162 56be bb2f d9bd 26f1 803f 9c61 363e
00000220: b10d 29bd bdc4 38bf 2763 153e 3903 9a3e
00000230: fb0a 683f e5ca 9cbf 7bd7 a03e 427c 4f3f
00000240: fc20 cf3e a535 323d caf2 bd3d f712 d5be
00000250: 7492 31bf 0b94 003f 9a88 87bf 42a3 423e
00000260: bdb0 3cbf 32b5 173e 5fa0 8a3d f786 b43d
00000270: 1089 5bbe 7ace adbf 648e 0dbf ce2b be3c
00000280: 4084 e73e 2293 80be 2551 df3f be7f 843f
00000290: 83c3 4cbe b3ca 88bd 966b a83d 4a70 92bf
000002a0: 80e5 c8be 77ea 063f 0cd1 d43e 7cbf 9bbf
000002b0: 2376 5d3f f76b 76bf 1a66 0bbe b377 5d3d
000002c0: 47cd a03e b01f ebbc 6ace 27bd 6dc2 4f3e
000002d0: 6204 7d3e a05b 48be 2553 643f 26c1 083f
000002e0: d171 863f 40ec 87bc bb61 60bd 6dd4 36bf
000002f0: 1653 c8be 5cde ae3e c7e4 6b3e bb25 5dbf
00000300: b58c 893f 7900 c33e ffff 3f3f e8b8 e9bd
00000310: 4559 da3c 8382 87bf 3158 94bc 384f 163d
00000320: 67f8 d83d 4160 e63d eef8 94bf ddab 66be
00000330: eb14 8a3f e770 073e c4b0 963e 46a0 82bf
00000340: aef0 353e 74f3 463d e506 763e ca9d a23e
00000350: ac1f 88be 63ee 863e 6a44 16bd 7978 333c
00000360: 8b74 8abd 801d b13d d54c 64c0 b09b 35bf
00000370: 55cc ce3e 87fd 523f 5ed5 a63e 8f7f 0dbf
00000380: 0a64 da3e 7dcf 3ebf 741c e23d 3e74 10c0
00000390: f300 983f ad02 e5be 4436 b5bf e0dd 80bf
000003a0: 4f74 3a3e cb69 86bf b75e 663e dc8e 8ebd
000003b0: 6cc0 1b3e e8b5 66bf aefd f4be 2817 97be
000003c0: 4ebf 26be 3a27 a03d 1692 53bf 7e43 58bd
000003d0: 6711 873f ac3b 963d ca56 14bd 62d2 5dbf
000003e0: bb20 39be 30f9 dbbe e7a9 e8be 8519 5a3f
000003f0: 46a5 383f ea71 103f 16de 9f3e 55ec 4fbe
-0.11432534 -0.92406934 0.50583893 0.14007728 -0.19057037 -0.08178995 -0.06288719 0.29954982
0.6265668 -1.0325351 -0.6057767 0.011386162 0.6014461 0.034009643 -0.09851684 -0.6616638
-0.96388966 -0.7297159 1.1744084 0.6271137 0.763206 -0.08380986 -1.0363873 0.6928452
-0.11035251 -0.025754737 -0.029660944 0.45651734 1.7675313 0.18643497 0.9085386 0.26317108
0.17083044 -1.1735358 0.26841378 -0.11463706 -0.17987056 -0.39260533 -1.2029676 0.47822288
0.21655947 -0.81615 1.1058836 -1.6849532 0.06729036 -0.026675899 -0.068318516 -0.5131225
-0.048153087 -0.41270673 -0.07464748 -1.4796277 -0.448178 0.65199715 1.1417891 -0.056108005
-0.08612952 0.85002023 -0.33740097 -0.15503569 0.46279004 0.42804307 -0.29689443 0.009517319
0.4582308 -0.11998951 0.09818896 -0.5086561 -0.25147358 -0.39235052 -0.68034714 -1.2772598
-1.0528543 0.22365466 0.19490957 0.039759524 0.109953254 -0.36185217 0.3066215 0.53765076
1.542099 -1.0446515 1.4026448 0.17956582 0.18070683 0.00616181 0.11954033 -0.6099664
0.011600659 0.4136702 0.3997116 -0.5193347 0.8224681 0.64663935 0.57108116 0.3749436
-0.11520069 -0.7251752 0.17810977 0.22374 -0.7830966 1.5142112 -0.18613566 -0.0008027301
0.5941548 -0.14361297 -0.23190889 -2.0533657 1.2036364 -0.23466097 0.8471375 1.2246838
0.71032065 0.6172674 0.024076875 0.12598869 0.09606799 0.083796024 1.5439171 -1.8918715
0.06866761 0.47865385 -2.3957696 2.4890902 -0.5093514 0.070025936 -0.007396699 -0.025963986
-0.10211152 -0.15244807 -0.45863515 0.094132796 -0.2093587 -0.10604807 1.0073593 0.17810673
-0.041272823 -0.721752 0.14588605 0.30080584 0.90641755 -1.2249418 0.314144 0.8104898
0.40454853 0.04350819 0.09274824 -0.41616032 -0.69364095 0.50225896 -1.0588562 0.1900759
-0.7370718 0.14815214 0.067688696 0.08814805 -0.21439004 -1.3578637 -0.55295396 0.023214247
0.45218086 -0.25112253 1.7446638 1.0351484 -0.19996457 -0.06679287 0.082236454 -1.1440518
-0.39237595 0.52701515 0.4156574 -1.2167811 0.8650839 -0.9625849 -0.13613167 0.054069232
0.31406614 -0.028701633 -0.040968336 0.20289011 0.24708703 -0.19566202 0.8918937 0.5341972
1.0503484 -0.016592145 -0.054780703 -0.71417886 -0.3912589 0.34154022 0.2303649 -0.863857
1.0746065 0.38086298 0.74999994 -0.11412221 0.026653895 -1.0586704 -0.01810846 0.036696643
0.10594254 0.11248828 -1.1638467 -0.22526498 1.0787634 0.13226663 0.29431736 -1.0205162
0.17767593 0.04857202 0.24026068 0.31761009 -0.26586664 0.2635375 -0.03668634 0.010954016
-0.0676051 0.08648205 -3.5671895 -0.70940685 0.40390268 0.824181 0.3258466 -0.55272764
0.4265445 -0.7453535 0.11040583 -2.2570949 1.187529 -0.44728604 -1.4157186 -1.0067711
0.1820843 -1.0501035 0.22497068 -0.06960842 0.15210122 -0.90121317 -0.47849792 -0.29509854
-0.16283914 0.07819982 -0.82644784 -0.05279874 1.0552186 0.073356 -0.03621558 -0.86649144
-0.18078892 -0.42963552 -0.45442125 0.8519519 0.7212719 0.5642382 0.31224126 -0.20304997

layers_q2.0.bias f4 [100]
00000000: d4bd 8ebf 6d64 d6bf 4784 aa3d b1ef 56bf
00000010: 16e8 7dbe 9b6f 43bf d8ee 30bf 056f 2e3e
00000020: 46d2 d0be 71f9 06bf 51a6 33bf 89c1 8c3d
00000030: 87f3 95bb 641a 49bf 7aae d5bd a0aa 08bf
00000040: 4736 e4be 3ae5 863f 56dd 21bf 82a5 0bbf
00000050: cf7d 7fbf dd4b 87be 7b83 a2bd 11aa 19bf
00000060: 0c97 84bf f378 51bf e1fd 913f 66a3 93bf
00000070: 7b1a 92bf 5182 573e 1c1a 46bf 5472 b1bf
00000080: cecc 55bf 3978 a3bf 5c32 5dbf 7b67 64bf
00000090: dfb7 52bf f6d9 b6bd 290c 4bbf 6ecc 83bd
000000a0: 5564 c93f c115 0ebf 5b8c 2bbf b1bd b3be
000000b0: a59b 003f 96fb 85bf 4ef5 0b3f e36c a8be
000000c0: befd 9bbf 39fc 003e 05bd 40bf 311b 46bf
000000d0: 970a 49bf be00 64be 67eb c3bd 3b92 b5bf
000000e0: 9ed6 a2bf d435 82bf f59e 9cbe a37c 4fbf
000000f0: 2295 42bf db3f 5abf 7061 36be f475 c63f
00000100: d56b d9bd 45d6 00bf d1b1 7ebf e814 9fbf
00000110: f4c9 2bbe afca 3abf a308 8dbf b87e 63bf
00000120: 3274 3bbf 812d 60bf 4c82 a9bf c62f 7abf
00000130: 3c0b a7bf c473 8dbf 19f6 fabd 9067 3dbf
00000140: 613f c2bf 6483 b8bc 6a36 85be c56e 33bf
00000150: 8304 26bf 2815 77bf 2913 8fbf d555 61bf
00000160: 42a2 7ebf 1f88 28bf 1323 44bd c6d6 8abf
00000170: c7d5 4dbf b87a 02ba bccf bdbf 4790 c1bd
00000180: 3e96 64bf efd6 58bf 9bf5 3cbf e583 acbf
-1.1151681 -1.6749398 0.08326011 -0.8395949 -0.24795565 -0.7634217 -0.69114447 0.17034538
-0.40785426 -0.5272437 -0.70175654 0.068728514 -0.00457615 -0.78555894 -0.104336694 -0.53385353
-0.4457266 1.0538704 -0.63228357 -0.5454942 -0.99801344 -0.26425067 -0.07935234 -0.60025126
-1.0358596 -0.8182518 1.1405603 -1.153424 -1.1414331 0.21045806 -0.7738359 -1.3863015
-0.8351563 -1.2771064 -0.8640497 -0.892204 -0.82311815 -0.089282915 -0.7931543 -0.06435476
1.5733744 -0.55501944 -0.6701104 -0.3510566 0.50237495 -1.0467403 0.5467118 -0.32895574
-1.2186811 0.12596215 -0.7528842 -0.7738524 -0.78531784 -0.22265908 -0.09566384 -1.4185251
-1.2721746 -1.0172677 -0.30590025 -0.81049556 -0.7600881 -0.85253686 -0.17810607 1.5504746
-0.106162705 -0.5032695 -0.99490076 -1.2428255 -0.16776258 -0.7296552 -1.1018261 -0.8886523
-0.73224175 -0.87569433 -1.3242888 -0.97729146 -1.3050303 -1.1050954 -0.12253971 -0.7398615
-1.5175592 -0.02252359 -0.26018077 -0.70090896 -0.64850634 -0.96516657 -1.1177722 -0.88021594
-0.99466336 -0.65832704 -0.047885012 -1.0846794 -0.80404323 -0.0004977393 -1.482902 -0.09451347
-0.8929175 -0.8470296 -0.73812264 -1.3477751

layers_q2.2.weight f4 [100, 100]
00000000: d5c8 48bd b913 603e ab11 b1be a3f7 743f
00000010: 1664 c8be d65b e13f c6c4 ad3e 8254 0abf
00000020: 4cf5 0cbf bab0 d4bd 176e a5be 8ef4 85be
00000030: c72c a8be 3ff7 0b3f 7c04 983e 247a 193f
00000040: 5414 443f 7e98 dabe c424 8e3e 7008 733f
00000050: c94c bf3e 5957 c83d 9859 913f 4b2d 24bf
00000060: bfd1 90be b814 6c3f 5243 e9be a56f 85bf
00000070: 69cd cc3e c0c8 25bf 640f 76bf 32fa 25be
00000080: a2fd fc3d 3be8 82be 5ce9 0e3f 7fbb 153f
00000090: 44a7 da3d 1d19 5bbf df8f 10be ef23 7fbf
000000a0: f32d 6abf c347 43be 532b d13e 338b 473f
000000b0: 69a1 9b3c e154 b53f 07d9 37bf faa9 e33e
000000c0: 455b eb3f 2dd9 733f 79ac 17be 1fa9 bfbe
000000d0: d10b 8b3d 1a58 dbbe a064 22bf 0892 433e
000000e0: e996 c03f 519c 1ebf 3048 6abd 48b5 ef3c
000000f0: 2a89 4c3e 0006 05bf 9cc0 723e 3be5 66bf
00000100: 0899 fd3e 8e25 91bf e1e0 cabe 9cee 953f
00000110: b4d3 433e e7d2 8fbf fe07 883e 71aa 66be
00000120: e134 de3e 988c 2f3f b69e 8a3f cf2b 1b3f
00000130: bdc7 4fbe a022 c8bb 4f60 033f 0f66 fe3d
00000140: b223 a03f a2c9 b2bf 504a 113f 57e3 513f
00000150: 1bb7 503f f916 373c 496c ee3f 3ced 38bc
00000160: a3c0 abbf 8dea c33e cbc1 7ebd 551b 68bf
00000170: 03b4 ffbe 9329 653f e30e 163f 66fc 5bbf
00000180: 5c43 44bf c012 dcbd c49b 94bf 1c1d b5bc
00000190: e75d 57be 90bf d6bd dddc 8a3d 0e49 6fbe
000001a0: cddc d23e 9c2d 71bd 5f5d f9bb 559d 80bf
000001b0: e150 4fbf 43ac 8bbe 5cf7 32be f77b 3cbf
000001c0: 7767 b3be f294 0ebe 568c 8f3c b4a2 d8bd
000001d0: 7391 123d 5e9a d1be bf63 17be 9e08 44be
000001e0: 3f52 713e 05c6 283e 899d eabe f450 6d3e
000001f0: 0530 1e3f 46c8 073f 1499 21bf db79 193e
00000200: 1473 983e 0966 cabe 9674 1fbd 2d96 92bd
00000210: fd5f 973e c5d1 a13e 38cf 41bf cd5e d53e
00000220: 54ea 71be 0ed4 9ebd be99 de3e 93ad f83d
00000230: 8803 38bd b5f5 e43d b8b6 b2be 92da 523d
00000240: ef52 42bf 9b18 67be ff99 213b c8b6 af3d
00000250: 4344 663d 9edc 69be 2eaa 883d 410a 68be
00000260: c7f5 61be 6ce5 c33e 588e 25bf a81b 32bf
00000270: 7e37 113f 50e4 a23d a10b b6bf 8672 ea3e
00000280: eca0 a3bd 711a 6fbe 8f4d cdbd 85c8 8a3d
00000290: fe49 353f d346 d4be 801e 65be a7ab 53be
000002a0: cada 18bf f9b2 de3d 156e 7ebe ab21 333e
000002b0: c0f7 30bf 9e47 003f c652 a33e 1b86 afbe
000002c0: 9e72 89be 521b ce3e f6af 6f3e c338 4cbe
000002d0: 206b 06bf 8a71 17bf c7da 013f 30ec aabd
000002e0: a47c a63e e69a 57bf 80e5 a83d e35d eb3d
000002f0: 86f2 143e 188f d33e e43f 11bf 783f a1be
00000300: 2745 53bf 1e0d dfbe fa71 233f f758 37bf
00000310: 6391 edbe 2225 35bf 6983 433e b35a 163f
00000320: 3647 40bf 9db4 ccbd b775 37be bae2 8d3e
00000330: 04c9 783f 32aa 4ebe c2c4 b1be 6499 ecbd
00000340: c17f 70be e749 cc3e cb10 d23e 7cd4 a5bf
00000350: e927 4fbf c1fb 723d 6354 db3d 9712 243e
00000360: 4459 d13f 859a 03bf 44a9 cc3e 07cc 443f
00000370: daa7 ed3e 098d 773f 8731 0640 c9ef 82bf
00000380: 0c79 213f bf69 3cbe d0bd 52bd 486e 1ebf
00000390: 7f52 f13e 0ff8 07bf 1e5c 453f b61c b6be
000003a0: 1f29 10bf a586 df3f 40fd 17bf d850 a53e
000003b0: 28b8 313e 15fa 09bf 15f3 ccbe 420b 93bf
000003c0: 37ab a0bf 5f66 3dbf 5c2a a83e 21bc 913f
000003d0: ad7a 36be 52fa 743f 620f 81be b01d 9a3d
000003e0: 81c8 a03f 5822 ac3f 9602 1dbf 9f95 cb3d
000003f0: 704c 0c3e fac4 13be 565e ccbf 78d8 58bd
-0.049019653 0.21882524 -0.34583792 0.95690364 -0.3913886 1.7606151 0.3393919 -0.540352
-0.55061793 -0.103852704 -0.32310554 -0.26163143 -0.32846662 0.5467414 0.2969092 0.59951997
0.7659352 -0.42694467 0.27762425 0.9493475 0.3736327 0.09782285 1.1355467 -0.6413161
-0.28285024 0.92219114 -0.45559174 -1.0424696 0.40000466 -0.64759445 -0.96117234 -0.16208723
0.12353064 -0.25567803 0.5582483 0.5848922 0.10676435 -0.85585195 -0.14117382 -0.99664205
-0.9147636 -0.19070344 0.40853366 0.77946776 0.018997865 1.4166528 -0.7181553 0.4446562
1.8387228 0.9525326 -0.14811887 -0.37433717 0.06789363 -0.42840654 -0.6343479 0.19098675
1.5046054 -0.6195727 -0.05719775 0.029261246 0.19974199 -0.5196228 0.23706287 -0.9019353
0.49530816 -1.1339586 -0.39624694 1.1713443 0.19123727 -1.1236237 0.26568598 -0.22525956
0.43399718 0.68573904 1.0829685 0.6061372 -0.20291038 -0.0061076432 0.5131883 0.1242181
1.2510893 -1.3967783 0.56754017 0.8198752 0.81529397 0.011174911 1.8626796 -0.01128703
-1.3418163 0.38264886 -0.062196534 -0.90666705 -0.49942026 0.8951656 0.58616465 -0.85932004
-0.7666528 -0.10745764 -1.1610036 -0.022108607 -0.21031915 -0.104857564 0.067804076 -0.23367712
0.41184083 -0.058881387 -0.0076100077 -1.0048014 -0.80982786 -0.27279863 -0.17477173 -0.73626655
-0.35039875 -0.13924006 0.017522972 -0.10577908 0.035783242 -0.40938085 -0.14784144 -0.19143912
0.2356653 0.16481788 -0.45823315 0.23175412 0.6179202 0.5303997 -0.63124204 0.1498789
0.29775298 -0.39530972 -0.038929544 -0.0715755 0.2956542 0.31605354 -0.75706816 0.4167389
-0.23624545 -0.0775529 0.4347667 0.12142482 -0.044925243 0.111796774 -0.34905028 0.051477976
-0.75907797 -0.2256798 0.002465844 0.08579785 0.056217443 -0.22838065 0.06673084 -0.22660162
-0.22066413 0.38260972 -0.64670324 -0.6957345 0.567253 0.079537034 -1.4222299 0.457905
-0.07989678 -0.2334993 -0.10024559 0.06776527 0.7081603 -0.41460285 -0.22374916 -0.20670949
-0.59708846 0.1087398 -0.2484668 0.17493312 -0.69128036 0.5010928 0.3189909 -0.34282002
-0.26845258 0.4025522 0.23406968 -0.19943528 -0.5250721 -0.5915762 0.5072445 -0.083458304
0.32516968 -0.8422073 0.08246899 0.11492517 0.1454564 0.4132011 -0.56738114 -0.31493735
-0.82527393 -0.43564695 0.6384579 -0.71620125 -0.46399984 -0.70759785 0.19093098 0.58732146
-0.7510866 -0.09995387 -0.17915998 0.2771204 0.97181726 -0.20182112 -0.34720427 -0.115526944
-0.23486234 0.39900133 0.41028437 -1.295547 -0.80920273 0.059322122 0.10709455 0.16022716
1.6355367 -0.51407653 0.3997289 0.7687382 0.46417123 0.9669958 2.096773 -1.0229427
0.6307533 -0.18399714 -0.05145055 -0.61887026 0.47133252 -0.5311288 0.77093685 -0.3556878
-0.56312746 1.7462965 -0.59370804 0.3228824 0.17355406 -0.5389722 -0.40029207 -1.1487811
-1.2552251 -0.7398433 0.32844818 1.1385537 -0.17820235 0.9569446 -0.2520705 0.07525194
1.2561189 1.3447981 -0.6133207 0.09940647 0.13701034 -0.1443061 -1.5966289 -0.052940816

layers_q2.2.bias f4 [100]
00000000: da8d 66bf 82ec b9be d040 20bf b766 c7be
00000010: 615c 62bf 80bd 74be 3c68 46bf e4ea 1abe
00000020: 37b6 7abf 93a1 483e f285 b1bf e83f 793f
00000030: 63e5 45bd fd69 cdbe b5bc 0dbe c6f7 ea3e
00000040: 6508 52bf 8c92 64be 14bb 55bf 1b4d 68be
00000050: 5ea5 91bd 2fb5 e3be d3b7 c2be 7818 e7bd
00000060: b388 a0bd c943 ddbc 271a 63be cf77 7fbe
00000070: 5f10 47bf ce03 1cbe c5dc c2bd db74 29bf
00000080: b162 b7be 8028 57be 4d57 adbe f1f7 e0bd
00000090: 6204 9bbf 0af9 31be 0e7b 8dbd 941a 253e
000000a0: 9ffa afbe 810e b13e a189 b5bd 8904 abbd
000000b0: 1499 e13c 1e11 d0be 0479 abbe b099 3dbe
000000c0: 3c77 ed3e e3d0 a1bd 3ddc e5be 9aed 66bd
000000d0: 11b0 08be e682 afbe e8f7 7a3f 0fa7 f0bd
000000e0: b9d9 00bf 524a 14bf 4604 7dbd 612f 22be
000000f0: a307 60bf 4aad 0940 b2eb 04bd 6546 aebf
00000100: fc32 1bbe d87a a8be 7402 30bd 5ba4 d43f
00000110: fc9e 34be 1089 88bc 9619 8c3e 191a 4fbd
00000120: f409 0d3f e872 a6be ea96 9f3e ad92 c5bd
00000130: 08be 18bf aec1 6ebe 0743 d6be fffa 023f
00000140: 6c40 10bf 20a5 71bf 4c84 cf3c 1bb3 99be
00000150: 73d2 7dbd 7a53 c9bd dcd4 70bd e3c8 ddbd
00000160: 3c19 cabe 7b80 10be d41f 45bd 38b3 57bd
00000170: 1932 44bf 2fb7 bdbe 732a c4be ba2b a3bd
00000180: ff6a 483d 1ea2 54be 8bb1 dd3d ad47 6a3f
-0.900602 -0.36313254 -0.62598896 -0.38945553 -0.8842221 -0.23900414 -0.775028 -0.15128666
-0.9793429 0.19592886 -1.3869002 0.9736314 -0.048314463 -0.40119925 -0.13841517 0.4589216
-0.8204406 -0.22321528 -0.83488584 -0.22685663 -0.071116194 -0.4447417 -0.38030872 -0.11283964
-0.07838573 -0.027009862 -0.22177945 -0.24948047 -0.77759355 -0.15235826 -0.09514765 -0.6619393
-0.35817483 -0.21011543 -0.33855668 -0.10984791 -1.2110713 -0.17380157 -0.069082364 0.1612342
-0.34370896 0.34581378 -0.08864141 -0.083504744 0.027538814 -0.4063806 -0.33490765 -0.18515658
0.4638003 -0.0790117 -0.4489459 -0.05637894 -0.13348414 -0.34279555 0.98034525 -0.11750614
-0.5033222 -0.57925904 -0.061771654 -0.15838386 -0.8751165 2.1512017 -0.03245134 -1.3615233
-0.15156168 -0.32906222 -0.04297109 1.6612657 -0.17638773 -0.016666919 0.2736327 -0.050561998
0.5509331 -0.32509542 0.31169826 -0.09647117 -0.59664965 -0.2331607 -0.41848013 0.5116424
-0.563483 -0.94392586 0.025331639 -0.3001946 -0.06196828 -0.09830375 -0.05879675 -0.10829332
-0.39472377 -0.14111511 -0.048126057 -0.05266115 -0.7663894 -0.3705382 -0.38313636 -0.079673246
0.048930164 -0.20764968 0.10824879 0.9151562

layers_q2.4.weight f4 [1, 100]
00000000: c5d3 e9bc d1e9 08bf f128 2abd 2d2b 15bf
00000010: 6b05 b53b f262 76bf b91e a93c 77c5 5abb
00000020: 8466 91bc a8c5 59bf c985 b7bb a2af 783d
00000030: 9d14 e13c c57e 7a3b 5695 05be 6a5a 3c3d
00000040: 0239 4a3c f5b3 6ebe 052e 843c 0c3f 94bc
00000050: f98e 533b 8657 06bf 25e3 bdbd 544b a3bc
00000060: d3cd a8bd fe51 c6bc 815f 13bf b4a9 42bf
00000070: 4cbb 453c 7180 8c3c 7053 d2bc abc2 febd
00000080: e4fe 39bd dffe 38bc 4e7a 1cbf dad8 a0bc
00000090: 60f2 84bc 7a71 63bf d45f babd 9136 1ebe
000000a0: 81a4 bb3c 95fe 56bf a660 84bf ab15 383d
000000b0: 2bcc 71bc b22a 96be c420 dcbd b847 c13b
000000c0: 32bd 6cbd bed3 66be 2b13 233f 3d63 3bbb
000000d0: a533 bfbc 96e5 21bf 2c45 873d 0bc7 283b
000000e0: c19d c0be 4185 103e e331 9b3c 7fd7 953c
000000f0: 47a7 ffbd 3773 0c3e 19af 0ebf 8dee c63c
00000100: 523f f93c 10f9 883c 5391 c9bf d4ed 7a3d
00000110: cd12 93bd ca42 963c 8480 23ba 501c 17bf
00000120: 2d1c 0abd 4f70 4bbf b27a 36bf bdd7 e3bb
00000130: faf3 983b b0f4 56be 2b04 8f3b 5b65 0abe
00000140: 82a7 2ebf 4a0d a2bb 3c5b 58bf 0df5 81bf
00000150: de43 693b 288c 893c 6004 edbe f2fa 9abc
00000160: 61c6 24bf f2a7 64bb a6b3 fa3c 76a7 483d
00000170: 3775 a03c 940f cc3c de61 eabc 13c8 c23c
00000180: d30d adbe 3757 bbbc 8eb0 68bf 02cc 373d
-0.028543362 -0.53481776 -0.04154295 -0.58269006 0.0055243275 -0.9624473 0.020644533 -0.0033381858
-0.017749079 -0.85067225 -0.005600665 0.06071437 0.02747565 0.0038222533 -0.13045248 0.045984663
0.012342693 -0.23310836 0.016135225 -0.01809647 0.0032281263 -0.524773 -0.0927184 -0.01993338
-0.08242383 -0.024209019 -0.575676 -0.76040196 0.012068581 0.01715109 -0.025674552 -0.12439474
-0.0454091 -0.011291235 -0.6112412 -0.019634653 -0.016228855 -0.88845026 -0.09100309 -0.15450503
0.02290559 -0.8398221 -1.0341995 0.04494254 -0.01475815 -0.2932945 -0.10748437 0.005898442
-0.05779762 -0.2254171 0.63701123 -0.0028593086 -0.023340056 -0.63240945 0.0660499 0.0025753404
-0.37620357 0.14113332 0.018944686 0.018291233 -0.124830775 0.13715826 -0.5573593 0.024283672
0.030425701 0.016720325 -1.5747474 0.061261967 -0.0718132 0.018342394 -0.0006237107 -0.59027576
-0.033718277 -0.79468244 -0.7128097 -0.0069532082 0.004667756 -0.20991778 0.0043645105 -0.13515227
-0.68224347 -0.004945432 -0.8451421 -1.0152909 0.003559343 0.016790465 -0.462924 -0.018918488
-0.643652 -0.0034890142 0.030603241 0.04898783 0.019587142 0.024909772 -0.02861112 0.023777043
-0.3379961 -0.022868736 -0.908944 0.04487229
