Save/Trainings/MRL/2800000/actor.pt (torch, 50071 bytes, 6 tensors)

layers.0.weight f4 [100, 16]
-0.46692392 -0.1453843 0.19210811 0.36588535 0.16856195 -0.031875826 0.022736723 -0.022825599
0.095332675 0.6133534 0.11154002 -0.1284419 0.15733977 -0.33943537 0.007128593 -0.05130871
0.04464154 -0.046652656 0.022148922 0.2945275 0.17033239 0.017800525 -0.008279552 -0.028525459
0.22904715 0.30150154 -0.08828906 -0.01324983 0.53973824 -0.18675373 0.12557152 -0.13508269
0.087370515 -0.050948277 0.115338095 0.05016174 0.04648721 0.012782504 -0.009969539 -0.075440995
-0.10392945 0.22104634 -0.08421599 -2.0085762 0.16315795 -0.07053894 -0.06820363 -0.1250314
0.13571067 0.30187654 -0.018544152 -0.309987 0.23006362 0.009540742 -0.021150194 -0.073443085
-0.014582703 0.54199535 0.37644693 -1.0452381 0.25865695 0.04541903 -0.06710238 0.13220367
-0.29914176 0.44102252 -0.29785413 0.022506729 -0.43902552 -0.012385584 -0.022582747 -0.24951448
0.19596592 -0.16794585 0.08227779 -0.018134236 -0.23202403 0.07342302 0.11438818 -0.06574281
-0.42654064 0.2654393 0.06505033 -0.33901152 -0.05688313 -0.006334082 0.007491298 0.1718919
0.14633942 -0.032876294 0.11157969 0.2973307 0.054559 0.2448228 -0.39032078 -0.015888557
-0.34942386 0.07819412 0.21799634 -0.15712844 0.0870136 0.022578161 0.009815849 -0.07285157
0.26956773 0.26717377 -0.24220198 0.43311664 0.23784804 -0.1903998 -0.6030001 -0.14596756
0.39502767 -0.44099358 -0.30979618 -0.24175648 0.25510284 0.0029876155 -0.021543073 0.027480174
0.10492227 0.23278055 -0.19016473 -0.15923807 0.24974169 -0.071239926 0.16539545 -0.01908073
-0.38711935 0.1614922 0.13183677 -0.19074975 0.09498304 -0.021041425 -0.012238587 -0.15368545
0.06419563 0.054255735 -0.03260116 -1.0366828 0.0500794 0.15031387 0.20550638 -0.2961671
-0.010269423 -0.11974762 0.562286 -0.62675416 0.13862962 -0.0133939795 -0.004624074 -0.02581986
0.40458876 0.15620175 -0.1416096 0.038601503 0.19130765 0.05676681 0.11923832 0.35692063
0.19282852 -0.084121205 0.51703495 0.13183428 -0.049212072 -0.015943954 0.0021039527 -0.27607858
0.16439585 0.43229038 -0.1945036 -0.40697125 0.03846238 -0.20660014 0.13348767 -0.031101886
-0.14189954 -0.017933866 0.020536134 -0.15105544 0.0933059 -0.0015805679 -0.02452637 -0.10493703
-0.008603812 0.26913986 -0.03191757 -0.47328448 0.3513238 -0.12978864 -0.10021739 0.25946793
-0.4397864 -0.034075275 -0.0638096 -0.1897775 0.10760239 0.004384643 -0.013182337 -0.15728721
0.038102545 0.33852774 -0.16896299 -0.35689875 0.24182664 0.11634928 -0.23953289 0.32039484
0.30616984 0.12751797 -0.19361368 0.390361 -0.24141324 0.010742599 0.0016246851 -0.1048375
-0.0053421264 -0.36287117 0.26701686 0.22352722 -0.00027873006 0.25410187 0.107976876 0.10558057
-0.43772674 -0.01839681 0.14809719 0.25343347 -0.10005484 0.010149754 -0.025550783 -0.07870277
0.1456872 0.26516238 0.12552042 -0.3986178 0.35060656 0.08398847 -0.512679 -0.28291216
0.20307174 -0.22151722 -0.5067152 0.25598347 0.05967897 0.009649616 -0.041461933 -0.16524191
0.27383238 0.44891453 0.034705333 -0.26845765 0.14718583 -0.046278656 0.26575136 0.22279261
00000000: a710 efbe 9fdf 14be fdb7 443e 5355 bb3e
00000010: 819b 2c3e 3a90 02bd 5d42 ba3c c0fc babc
00000020: c73d c33d ba04 1d3f 186f e43d 4686 03be
00000030: ad1d 213e 79ca adbe f996 e93b 1529 52bd
00000040: 0cda 363d db16 3fbd a871 b53c 4fcc 963e
00000050: 9d6b 2e3e 68d2 913c f5a6 07bc 39ae e9bc
00000060: 568b 6a3e 695e 9a3e e5d0 b4bd d115 59bc
00000070: 492c 0a3f 5f3c 3fbe d295 003e 1e53 0abe
00000080: 50ef b23d 24af 50bd 6136 ec3d 6676 4d3d
00000090: 5f69 3e3d b56d 513c 4757 23bc cf80 9abd
000000a0: f7d8 d4bd f959 623e 6f79 acbd 838c 00c0
000000b0: e112 273e b876 90bd 58ae 8bbd 3b08 00be
000000c0: bdf7 0a3e 908f 9a3e e8e9 97bc 9eb6 9ebe
000000d0: cc95 6b3e c650 1c3c 2c43 adbc 5469 96bd
000000e0: 4aec 6ebc 35c0 0a3f a7bd c03e 5dca 85bf
000000f0: af6e 843e 4e09 3a3d f96c 89bd 6660 073e
00000100: 1c29 99be b4cd e13e 5680 98be 0860 b83c
00000110: f4c7 e0be e8ec 4abc 74ff b8bc b980 7fbe
00000120: 4aab 483e fff9 2bbe 4281 a83d 408e 94bc
00000130: b597 6dbe cf5e 963d 5a44 ea3d 2ba4 86bd
00000140: 8963 dabe a9e7 873e 1b39 853d eb92 adbe
00000150: 49fe 68bd 228e cfbb 9079 f53b 6e04 303e
00000160: 00da 153e 4ba9 06bd e483 e43d bb3b 983e
00000170: 4279 5f3d d4b2 7a3e 20d8 c7be b828 82bc
00000180: afe7 b2be 3d24 a03d 6f3a 5f3e 47e6 20be
00000190: 3034 b23d d6f5 b83c a8d2 203c 3433 95bd
000001a0: c804 8a3e 00cb 883e cc03 78be 77c1 dd3e
000001b0: 708e 733e 2af8 42be 375e 1abf 8578 15be
000001c0: 1141 ca3e e9c9 e1be 9b9d 9ebe 038f 77be
000001d0: d79c 823e dfcb 433b 197b b0bc 1a1e e13c
000001e0: 7de1 d63d 065e 6e3e 8bba 42be 4e0f 23be
000001f0: 49bc 7f3e 3de6 91bd 6d5d 293e 314f 9cbc
00000200: 8234 c6be 365e 253e 3800 073e e753 43be
00000210: 7886 c23d 115f acbc 5b84 48bc b85f 1dbe
00000220: 0079 833d 433b 5e3d cb88 05bd 06b2 84bf
00000230: 0f20 4d3d e1eb 193e 4470 523e 37a3 97be
00000240: 1541 28bc 3d3e f5bd faf1 0f3f f672 20bf
00000250: ecf4 0d3e 6c72 5bbc 8b85 97bb 2c84 d3bc
00000260: 4226 cf3e 5af3 1f3e 1b02 11be 9c1c 1e3d
00000270: 27e6 433e 5184 683d 3833 f43d 4dbe b63e
00000280: d774 453e bd47 acbd 675c 043f 91ff 063e
00000290: 9992 49bd e59c 82bc 78e2 093b 2c5a 8dbe
000002a0: 6357 283e 2a55 dd3e f42b 47be 895e d0be
000002b0: bb8a 1d3d fd8e 53be feb0 083e 62c9 febc
000002c0: 1d4e 11be 0bea 92bc 653b a83c 47ae 1abe
000002d0: 2a17 bf3d 0f2b cfba 87eb c8bc 3ae9 d6bd
000002e0: 01f7 0cbc b3cc 893e ffbb 02bd 5852 f2be
000002f0: b7e0 b33e 50e7 04be c63e cdbd fbd8 843e
00000300: af2b e1be 8492 0bbd 9cae 82bd 0855 42be
00000310: a45e dc3d 0dad 8f3b bbfa 57bc e60f 21be
00000320: 6a11 1c3d 8253 ad3e a204 2dbe 6fbb b6be
00000330: 67a1 773e 8848 ee3d 1c48 75be cb0a a43e
00000340: 4bc2 9c3e 1294 023e aa42 46be 66dd c73e
00000350: 0835 77be ba01 303c 63f3 d43a 0bb5 d6bd
00000360: 010d afbb 40ca b9be 6fb6 883e 52e4 643e
00000370: 8422 92b9 a419 823e fb22 dd3d a03a d83d
00000380: b81d e0be e8b4 96bc caa6 173e 08c2 813e
00000390: 8de9 ccbd 274b 263c e04f d1bc eb2e a1bd
000003a0: 062f 153e 5dc3 873e 6d88 003e a217 ccbe
000003b0: b482 b33e 2602 ac3d ee3e 03bf ddd9 90be
000003c0: 0af2 4f3e 69d5 62be 16b8 01bf 4410 833e
000003d0: f071 743d 6c19 1e3c fdd3 29bd 2d35 29be
000003e0: c233 8c3e 20d8 e53e 2e27 0e3d 4873 89be
000003f0: e2b7 163e b08e 3dbd 9010 883e bf23 643e

layers.0.bias f4 [100]
-0.17162934 0.084699154 -0.0039117592 -0.10005041 -0.03149378 -0.32381335 -0.29287747 -0.27832377
-0.20818484 -0.6280727 -0.17862695 0.26790148 -0.11519234 -0.001173882 -0.13458472 -0.29782748
0.12529661 0.05271988 -0.31811652 0.0126617635 -0.05537152 -0.22999288 -0.3175162 -0.39486364
0.069581576 0.020828348 0.05244374 -0.22822443 -0.55012757 -0.1487047 -0.36823833 -0.42610925
0.21029669 -0.7607986 0.020563805 -0.2066784 -0.07560358 -0.41365114 0.02841318 -0.09116173
0.012253021 -0.23253527 -0.13783579 -0.014707068 -0.3112392 -0.70364493 -0.21959002 -0.13178357
-0.39215457 0.24018131 0.36419633 -0.4662138 0.30989653 -0.21905524 -0.24453199 -0.5217254
-0.23346734 0.06782754 -0.5495195 -0.23607625 -0.31324726 0.08883657 -0.59685385 -0.34051278
-0.36516446 0.24053903 -0.6361239 -0.1284917 -0.378835 0.32422924 -0.22539082 -0.41696286
-0.12378855 0.30801913 -0.13515188 -0.426768 0.120647565 0.53634 -0.310587 0.02459899
0.32616794 0.011153605 0.09328356 -0.54605114 -0.3245611 -0.44696984 -0.53325385 0.22793572
0.16153263 0.15244618 0.39387193 0.35571808 -0.019696087 -0.071273565 -0.40679362 -0.50785834
0.079801954 -0.51971084 -0.11540481 -0.20999138
00000000: 9abf 2fbe c076 ad3d 372e 80bb 3be7 ccbd
00000010: 9fff 00bd ddca a5be 09f4 95be 7480 8ebe
00000020: 682e 55be 5fc9 20bf fce9 36be 622a 893e
00000030: f6e9 ebbd f2dc 99ba 94d0 09be d87c 98be
00000040: c14d 003e cdf0 573d 2be0 a2be 4973 4f3c
00000050: 3fcd 62bd 4183 6bbe 7c91 a2be 912b cabe
00000060: c980 8e3d 36a0 aa3c 3fcf 563d aab3 69be
00000070: 29d5 0cbf 0b46 18be bc89 bcbe fe2a dabe
00000080: 0458 573e b2c3 42bf 6d75 a83c 81a3 53be
00000090: 0dd6 9abd 15ca d3be c2c2 e83c 00b3 babd
000000a0: e5c0 483c ba1d 6ebe d324 0dbe eaf5 70bc
000000b0: bf5a 9fbe 1322 34bf 35dc 60be 46f2 06be
000000c0: 7cc8 c8be 17f2 753e f177 ba3e 93b3 eebe
000000d0: c2aa 9e3e 0450 60be 9866 7abe cc8f 05bf
000000e0: 1012 6fbe 2ae9 8a3d 4fad 0cbf f9bd 71be
000000f0: f261 a0be f3ef b53d 6acb 18bf b157 aebe
00000100: d6f6 babe dd4f 763e 04d9 22bf 5493 03be
00000110: a9f6 c1be 6001 a63e dacc 66be 287c d5be
00000120: da84 fdbd afb4 9d3e 4165 0abe 5681 dabe
00000130: 1216 f73d 944d 093f 4205 9fbe d283 c93c
00000140: 7cff a63e 9cbd 363c 730b bf3d 02ca 0bbf
00000150: df2c a6be 3bd9 e4be 5383 08bf fb67 693e
00000160: cf68 253e da1a 1c3e 95a9 c93e ae20 b63e
00000170: b059 a1bc e0f7 91bd 4147 d0be 0103 02bf
00000180: 356f a33d c50b 05bf 5b59 ecbd fb07 57be

layers.2.weight f4 [100, 100]
-0.2644305 -0.21895696 -0.28374928 -0.1154721 0.0057309894 -0.0044350764 -0.28810313 -0.31374958
-0.09443465 0.22626077 -0.044882365 -0.13060062 0.11673219 -0.23721446 0.045831576 -0.23521566
-0.4045411 0.07441381 -0.11785195 0.22843648 0.07561716 0.10267018 -0.0766218 0.006353584
-0.08350243 -0.369589 -0.24235544 0.11372837 0.1344898 -0.1850255 -0.09057182 -0.33581227
-0.105885044 -0.220339 -0.09049154 -0.006991838 -0.22858341 0.26425618 -0.12917127 0.07548576
-0.18527505 0.120974734 -0.008412136 0.025500955 0.15289366 -0.12540005 0.060335867 -0.15999515
-0.30247757 -0.18987484 -0.19761598 -0.0831811 -0.12149627 0.063481 0.18507983 -0.124657266
-0.114282414 0.04698962 -0.12393508 -0.121516734 0.16596143 0.1134968 0.0295439 -0.021880224
-0.36084497 0.016389575 -0.063842736 0.12369439 -0.096747436 0.14868055 -0.15626848 0.08290472
-0.13512854 -0.30547795 0.17032512 -0.1310266 -0.043519005 -0.19246854 -0.24172708 0.1552362
-0.054309096 -0.011949413 -0.057544097 -0.4097146 -0.103430465 0.10213709 -0.059565175 -0.16614574
-0.10670917 0.002246261 -0.111232646 -0.0014532908 0.27185953 -0.22590289 0.15931606 -0.14295667
-0.04054203 0.056822035 -0.28659672 -0.007833534 0.08952504 -0.4327908 -0.0996078 0.33783758
0.04902926 0.047088414 -0.028563075 0.2993227 0.1908179 0.4335218 0.033483766 0.022928638
0.10407476 0.052662067 0.007345808 -0.26081666 0.11189155 -0.066636905 0.16629487 0.39477247
0.021732273 -0.2410987 0.1659987 -0.31983235 0.2564605 0.074109055 0.061888352 0.14441128
-0.0334341 -0.093417615 -0.17955486 -0.12349476 -0.04194765 -0.6688934 0.2914084 -0.032704763
-0.1957851 0.09672899 -0.47366184 0.25601298 0.22925766 0.10620452 -0.2706796 -0.006655094
0.06755463 -0.17271456 0.079690106 -0.035639077 -0.5322922 -0.08290079 0.21641679 0.067891285
0.11896542 0.04035431 0.085786395 0.0028598257 0.21523106 0.011440591 -0.1456483 0.696388
-0.07368546 0.19298415 -0.053009365 -0.20472108 0.1879275 0.09791072 0.15508209 0.25693455
-0.04002504 0.066460446 0.2708667 -0.4290457 -0.31509262 0.0062657963 0.21312933 0.1260394
0.036727633 -0.06238189 -0.3073068 0.12997177 0.10880816 -0.105960235 -0.0017752615 0.060179055
-0.16575985 0.04659208 0.059737857 -0.08281736 0.04646021 -0.0031401548 -0.0013254563 -0.3875197
0.20344087 0.10597712 0.23639634 0.11802485 0.41555217 0.1609615 -0.040089544 0.57827544
-0.0062442417 -0.046579953 0.39498892 -0.39648512 0.120528616 -0.09894421 0.3241187 -0.24237347
-0.058198147 -0.059204042 0.00033398313 -0.2901941 -0.418605 -0.7238123 -0.3316147 -0.13592537
-0.4758502 -0.25001183 -0.14639874 -0.21691301 -0.17955853 0.25785628 0.10542606 0.045287203
-0.24908048 -0.15224583 -0.44494426 0.43261206 0.18419006 -0.039457273 0.21836956 -0.12870102
-0.42258584 -0.631248 -0.20351566 -0.15417387 -0.014899639 0.018091856 0.04877532 -0.06891461
-0.06872181 -0.011013142 -0.046426304 0.01824903 -0.16611205 0.26537946 -0.105270945 -0.18784794
-0.08321955 -0.3649181 -0.18943137 0.00042529966 -0.1898326 -0.47801575 -0.0829827 0.312899
00000000: 6f63 87be 4136 60be 9647 91be a37c ecbd
00000010: 06cb bb3b 1e54 91bb 4182 93be c9a3 a0be
00000020: f466 c1bd e7b0 673e 92d6 37bd 2bbc 05be
00000030: 4911 ef3d 59e8 72be e4b9 3b3d 60dc 70be
00000040: 0320 cfbe 4566 983d 5d5c f1bd 41eb 693e
00000050: 2bdd 9a3d be44 d23d e4eb 9cbd ba31 d03b
00000060: 5203 abbd c53a bdbe 062c 78be 6bea e83d
00000070: b2b7 093e 5377 3dbe b87d b9bd 96ef abbe
00000080: 42da d8bd 8ca0 61be a153 b9bd ca1b e5bb
00000090: c511 6abe 964c 873e 7945 04be 4798 9a3d
000000a0: beb8 3dbe 9ac1 f73d 0ed3 09bc 61e7 d03c
000000b0: 2890 1c3e df68 00be be22 773d c5d5 23be
000000c0: 57de 9abe 8d6e 42be d85b 4abe da5a aabd
000000d0: 09d3 f8bd 5402 823d 9185 3d3e 4f4c ffbd
000000e0: e60c eabd 3078 403d add1 fdbd c4dd f8bd
000000f0: cbf1 293e 0371 e83d 0d06 f23c 283e b3bc
00000100: acc0 b8be 6e43 863c fbbf 82bd 7c53 fd3d
00000110: 8523 c6bd b73f 183e d804 20be f3c9 a93d
00000120: 235f 0abe 9b67 9cbe b569 2e3e d62b 06be
00000130: fc40 32bd 7916 45be 4e87 77be 3df6 1e3e
00000140: 3773 5ebd 79c7 43bc 5cb3 6bbd 1dc6 d1be
00000150: 5ad3 d3bd 402d d13d 9dfa 73bd 1c22 2abe
00000160: 568a dabd 0236 133b f1cd e3bd 597c beba
00000170: 2c31 8b3e 1653 67be c023 233e 3c63 12be
00000180: 660f 26bd 39be 683d cebc 92be 3958 00bc
00000190: e758 b73d c196 ddbe 2dff cbbd 0cf9 ac3e
000001a0: e8d2 483d c8df 403d 1cfd e9bc d340 993e
000001b0: c465 433e 92f6 dd3e 4626 093d d7d4 bb3c
000001c0: 2625 d53d 2eb4 573d 1bb5 f03b c389 85be
000001d0: 6627 e53d ee78 88bd 3449 2a3e 9e1f ca3e
000001e0: e107 b23c 94e2 76be 90fb 293e 11c1 a3be
000001f0: ca4e 833e 7dc6 973d a47e 7d3d 8de0 133e
00000200: 32f2 08bd bc51 bfbd 3bdd 37be d2ea fcbd
00000210: 4dd1 2bbd 993c 2bbf 7b33 953e 6ef5 05bd
00000220: e47b 48be d919 c63d ce83 f2be 2214 833e
00000230: 85c2 6a3e c181 d93d 8496 8abe fa12 dabb
00000240: 155a 8a3d 16dc 30be 9134 a33d 48fa 11bd
00000250: 4d44 08bf e4c7 a9bd 5d9c 5d3e 960a 8b3d
00000260: 24a4 f33d 904a 253d c7b0 af3d ea6b 3b3b
00000270: 8865 5c3e 5171 3b3c d424 15be 7c46 323f
00000280: 67e8 96bd a39d 453e 5920 59bd 67a2 51be
00000290: 1170 403e 6a85 c83d d7cd 1e3e ed8c 833e
000002a0: 4cf1 23bd 6a1c 883d 0aaf 8a3e e1ab dbbe
000002b0: d253 a1be 4f51 cd3b 933e 5a3e 7910 013e
000002c0: b76f 163d 2784 7fbd 5157 9dbe 5217 053e
000002d0: d0d6 de3d ae01 d9bd e4af e8ba 507e 763d
000002e0: f3bc 29be 56d7 3e3d afaf 743d 269c a9bd
000002f0: 104d 3e3d 0ecb 4dbb efba adba fb68 c6be
00000300: ce52 503e 880a d93d e211 723e 03b7 f13d
00000310: 41c3 d43e 17d3 243e ef34 24bd dc09 143f
00000320: 7f9c ccbb 9fca 3ebd fd3b ca3e 1900 cbbe
00000330: b5d7 f63d 43a3 cabd e3f2 a53e c030 78be
00000340: 2e61 6ebd f07f 72bd 751a af39 5294 94be
00000350: 6553 d6be c34b 39bf 67c9 a9be 0530 0bbe
00000360: a3a2 f3be 8d01 80be 8de9 15be 721e 5ebe
00000370: 31de 37be bd05 843e 9ee9 d73d 137f 393d
00000380: f40e 7fbe 55e6 1bbe bccf e3be 547f dd3e
00000390: 529c 3c3e f39d 21bd 459c 5f3e 33ca 03be
000003a0: 2c5d d8be 7899 21bf 6966 50be c1df 1dbe
000003b0: 9e1d 74bc 5f35 943c a1c8 473d 1a23 8dbd
000003c0: 05be 8cbd 7770 34bc 8229 3ebd fd7e 953c
000003d0: 4719 2abe d1df 873e 4b98 d7bd 365b 40be
000003e0: 036f aabd 8cd6 babe 4cfa 41be c1fa de39
000003f0: 7a63 42be 7bbe f4be d5f2 a9bd 4c34 a03e

layers.2.bias f4 [100]
-0.04931832 -0.024133114 -0.28089336 -0.066669635 0.060141567 0.046479933 -0.18769988 -0.074228376
-0.12699707 -0.20624022 -0.30545843 0.11726827 -0.10925556 0.14380507 -0.048787672 0.049068518
-0.02001625 0.029221056 0.13640158 -0.12413538 -0.11003235 -0.07786635 -0.15065402 -0.15071565
-0.04758104 -0.008117434 -0.07179353 0.0021982058 -0.11324383 -0.1235663 -0.08096124 0.04925203
-0.1270909 -0.08433968 -0.00646723 0.04516442 -0.057612274 -0.19816673 -0.07854271 -0.068547055
-0.031978104 -0.27607095 -0.104199335 -0.11102207 -0.14121225 -0.06361193 -0.13820516 -0.1608105
-0.26297712 -0.10205173 -0.016499653 -0.049066078 0.0063941283 0.011246842 -0.2222439 -0.08978657
-0.1994546 -0.25644195 -0.25627258 -0.11408132 -0.03987995 -0.055249553 -0.08728818 0.17714243
-0.23847628 0.15224424 -0.104472905 -0.12410808 0.00074038963 -0.117592126 -0.21642761 -0.1573746
-0.31591347 -0.07384518 -0.2218142 -0.055162318 -0.077957995 -0.18451396 -0.2836473 -0.118434206
-0.19789237 -0.12397059 -0.024296181 -0.20037633 -0.18615587 -0.08968071 0.002273625 0.08228093
-0.009094414 -0.04884787 -0.021499157 -0.25618944 -0.10345584 -0.09171039 -0.09518087 -0.16107406
-0.02375677 -0.17457584 -0.24176033 -0.20246704
00000000: 0202 4abd cfb2 c5bc 41d1 8fbe 178a 88bd
00000010: 0157 763d be61 3e3d 6634 40be 0c05 98bd
00000020: 850b 02be a330 53be 0c65 9cbe 592a f03d
00000030: 61c1 dfbd a341 133e 95d5 47bd 12fc 483d
00000040: 1ef9 a3bc ff60 ef3c dbac 0b3e b13a febd
00000050: a458 e1bd 6578 9fbd 0c45 1abe 3455 1abe
00000060: 56e4 42bd fcfe 04bc 7c08 93bd c60f 103b
00000070: 62ec e7bd 5410 fdbd 02cf a5bd 7fbc 493d
00000080: 1e24 02be 48ba acbd 0feb d3bb 54fe 383d
00000090: d9fa 6bbd 38ec 4abe 00db a0bd 6662 8cbd
000000a0: 79fb 02bd 2c59 8dbe 7666 d5bd 8a5f e3bd
000000b0: f299 10be f946 82bd a785 0dbe 82ab 24be
000000c0: f0a4 86be 7f00 d1bd 482a 87bc 83f9 48bd
000000d0: d685 d13b ad44 383c e893 63be 05e2 b7bd
000000e0: d43d 4cbe 5c4c 83be 2936 83be 78a3 e9bd
000000f0: 2959 23bd 5b4d 62bd 25c4 b2bd d364 353e
00000100: 2033 74be eae5 1b3e e4f5 d5bd 612c febd
00000110: b516 423a 24d4 f0bd 339f 5dbe cf26 21be
00000120: 69bf a1be 243c 97bd 4323 63be e2f1 61bd
00000130: 71a8 9fbd 3af1 3cbe 383a 91be a28d f2bd
00000140: 4ca4 4abe 4be4 fdbd c908 c7bc 742f 4dbe
00000150: a59f 3ebe 85aa b7bd 1901 153b e782 a83d
00000160: bd00 15bc b414 48bd 001f b0bc 432b 83be
00000170: a8e0 d3bd a8d2 bbbd 30ee c2bd 99f0 24be
00000180: 8f9d c2bc 02c4 32be 0590 77be 8553 4fbe

layers.4.weight f4 [2, 100]
0.05297664 -0.01774591 0.37906423 1.8757994 0.059762973 -0.06537247 -0.22148097 -0.026899224
-0.42044547 0.0066176835 0.1432172 -0.055534806 -0.06746751 0.031887405 -0.05187357 -0.088171594
-0.034306053 0.10949634 -0.12691402 -0.20128888 0.27551612 0.012375823 0.03798483 -0.28765792
0.030465538 -0.099143416 -0.061663684 -0.057225026 0.37573496 0.04538786 0.95773524 0.06746395
0.06397414 -0.118372835 -0.0152489515 0.02206618 0.0677029 -0.6353427 0.016358078 0.030005999
0.08387719 0.52611226 -0.022444114 -0.30665413 -1.5345685 -2.4751856 0.13561893 0.077157125
0.073364794 0.382415 -0.7278708 -0.034441862 0.15645969 1.8296093 -0.9942696 0.112285055
-0.18451776 0.6454263 1.7550793 0.016931785 -0.008334161 0.0374848 0.52436984 0.5037303
0.44995958 -0.41432324 0.00635491 1.0535711 -0.7366185 0.0071072546 -0.8777273 -0.2714028
0.09703561 -0.0518032 0.21630721 0.40445554 -0.005292378 0.26254064 -0.71740556 -0.14801715
0.6463234 0.13770889 0.047863066 -0.20379321 -0.19266854 1.3772215 0.035340585 -0.09253207
-0.22214109 -5.445083 -0.2710304 -2.1045377 0.6058019 0.19399928 -0.01431767 -0.1328373
-0.03488207 1.6779435 -1.2784859 1.0124277 -0.18294385 -0.1948371 -0.093657136 -0.11807741
-0.108317204 -0.299497 0.13706419 3.045932 0.4219507 0.20646735 -1.0429438 0.07488709
0.026362889 0.1378642 0.03273376 -0.06627108 -0.110466644 0.5332181 0.11169865 -0.16016822
-0.10539236 0.03597346 -0.36067438 -0.42104733 -0.40322214 0.21636157 -0.15196973 -1.8910736
0.29120013 0.28715366 -0.29960445 -0.051230606 0.24250755 -0.29208183 0.015535226 -0.9459469
-0.10049879 -0.7666482 0.07418092 0.31236967 -0.10706637 1.1762469 -0.33728212 0.17449942
1.0424173 0.5428476 2.84337 -0.7400692 0.28678676 -0.27063084 0.035513047 -0.31041747
-0.59331065 -0.11483155 -0.41529587 0.21864167 -3.680023 1.156017 0.3077806 -0.27303872
-0.07475147 -0.00014513916 -0.19921505 -0.06298205 -1.4340264 0.508479 0.03544886 -0.86501634
-0.5679245 -0.33404258 1.9535499 -2.6225088 0.51068205 0.46074092 -0.31453004 0.18007469
-0.032643378 0.029377976 -1.192752 -0.011681838 0.10250728 -0.1326219 -0.14797525 0.21784553
0.15349957 0.16922483 -0.25422692 -0.49289328 0.043498278 0.115692645 0.36703956 -0.82420254
0.41158465 0.13422047 0.064866945 -0.17345096 0.018231632 0.08472091 0.29124165 -0.36810654
00000000: 09fe 583d df5f 91bc b514 c23e 321a f03f
00000010: 05ca 743d 00e2 85bd e8cb 62be c35b dcbc
00000020: a144 d7be 27d9 d83b 88a7 123e 7778 63bd
00000030: 682c 8abd 5e9c 023d 6179 54bd 4f93 b4bd
00000040: 8184 0cbd 9e3f e03d c0f5 01be ac1e 4ebe
00000050: 7310 8d3e f7c3 4a3c fb95 1b3d e647 93be
00000060: dd92 f93c b40b cbbd 0f93 7cbd ca64 6abd
00000070: 5560 c03e 9fe8 393d 232e 753f 8a2a 8a3d
00000080: e004 833d 756d f2bd bdd6 79bc 22c4 b43c
00000090: d1a7 8a3d d2a5 22bf 6001 863c 24cf f53c
000000a0: cec7 ab3d 4baf 063f b8dc b7bc c501 9dbe
000000b0: be6c c4bf 7169 1ec0 b0df 0a3e 8e04 9e3d
000000c0: 4840 963d e6cb c33e be55 3abf e912 0dbd
000000d0: f836 203e a330 ea3f 7488 7ebf b5f5 e53d
000000e0: 39f2 3cbe a83a 253f 70a6 e03f 87b4 8a3c
000000f0: 018c 08bc a989 193d 1a3d 063f 78f4 003f
00000100: 1a61 e63e 2d22 d4be d93c d03b 6bdb 863f
00000110: 0893 3cbf f9e3 e83b bdb2 60bf 4ff5 8abe
00000120: 9bba c63d 982f 54bd a37f 5d3e cc14 cf3e
00000130: af6b adbb ba6b 863e e4a7 37bf cf91 17be
00000140: 7375 253f 8f03 0d3e 100c 443d 2baf 50be
00000150: e74a 45be cb48 b03f 4ac1 103d 7481 bdbd
00000160: f478 63be 1f3e aec0 7fc4 8abe bfb0 06c0
00000170: d515 1b3f bfa7 463e a994 6abc 8006 08be
00000180: 80e0 0ebd dac6 d63f 6da5 a3bf 3b97 813f
00000190: a255 3bbe 6083 47be 50cf bfbd 92d2 f1bd
000001a0: 69d5 ddbd ac57 99be 8e5a 0c3e 8df0 4240
000001b0: ec09 d83e 2d6c 533e 2f7f 85bf 675e 993d
000001c0: fcf6 d73c 462c 0d3e d613 063d 22b9 87bd
000001d0: 563c e2bd fb80 083f 43c2 e43d 2303 24be
000001e0: f3d7 d7bd e858 133d 50aa b8be 8493 d7be
000001f0: 2273 cebe e38d 5d3e f49d 1bbe b30e f2bf
00000200: 2f18 953e ce05 933e c165 99be 2fd7 51bd
00000210: e653 783e c08b 95be 7687 7e3c 9329 72bf
00000220: 4fd2 cdbd 0e43 44bf 2bec 973d ebee 9f3e
00000230: 9d45 dbbd 428f 963f 3eb0 acbe faaf 323e
00000240: ee6d 853f 0ff8 0a3f c6f9 3540 2d75 3dbf
00000250: b7d5 923e 2090 8abe 2176 113d 0aef 9ebe
00000260: 35e3 17bf ce2c ebbd a9a1 d4be 9ae3 5f3e
00000270: 7f85 6bc0 5df8 933f 6b95 9d3e bbcb 8bbe
00000280: 4c17 99bd 7f30 18b9 08ff 4bbe bcfc 80bd
00000290: 2d8e b7bf ae2b 023f d332 113d b671 5dbf
000002a0: 8063 11bf a107 abbe ec0d fa3f 2fd7 27c0
000002b0: 0fbc 023f 3ce6 eb3e 150a a1be 8065 383e
000002c0: 10b5 05bd 15aa f03c 19ac 98bf 2e65 3fbc
000002d0: 56ef d13d 09ce 07be d386 17be e612 5f3e
000002e0: fe2e 1d3e 4649 2d3e 082a 82be 825c fcbe
000002f0: 402b 323d 44f0 ec3d 9cec bb3e f0fe 52bf
00000300: 39bb d23e 1771 093e f6d8 843d 219d 31be
00000310: 815a 953c 2882 ad3d a01d 953e 7678 bcbe

layers.4.bias f4 [2]
-0.035742495 -0.008132312
00000000: b966 12bd 643d 05bc
