Save/Trainings/MRL/2800000/actor_target.pt (torch, 50071 bytes, 6 tensors)

layers.0.weight f4 [100, 16]
00000000: ae54 efbe 6465 16be 821b 453e 4682 ba3e
00000010: a293 2a3e c61b 11bd 73f4 e23c ff0d b9bc
00000020: e71e c43d 1a0d 1d3f 5d17 e43d fe51 02be
00000030: 3d32 203e 2111 aebe 3dfc b03b a86b 52bd
00000040: 7e3f 393d 02ff 43bd b390 ba3c c7fb 963e
00000050: f266 293e af4f 943c 9185 09bc 1f3c dcbc
00000060: e800 6d3e fcf5 9a3e f824 b8bd ccbd 2dbc
00000070: 6a77 093f 23d9 3ebe df02 003e 4270 08be
00000080: 57c1 ad3d e0fa 53bd 826b e03d d677 423d
00000090: 1b57 473d 736a 813c cb08 15bc e9b4 9dbd
000000a0: 4b4d d7bd 93cb 603e 5c51 aabd 7170 00c0
000000b0: ad77 263e 6af3 8ebd d7c4 8dbd bdc6 00be
000000c0: 4771 063e 0e43 993e 493f a3bc a7fb 9ebe
000000d0: f5ef 6f3e 1fcb 143c b21c a1bc c5b4 a1bd
000000e0: f294 8fbc 8ff6 093f 6061 c23e 1859 85bf
000000f0: 29ca 823e b41e 423d c8c1 92bd 6f13 053e
00000100: 0909 99be 84b2 e13e bb0f 99be f2e0 8b3c
00000110: d7e2 e0be a8c0 91bc 9f09 90bc 0aeb 7ebe
00000120: 2aaf 493e aba4 2abe afb4 a43d a676 8cbc
00000130: e3de 6dbe 2d96 9b3d b190 ed3d 75e5 80bd
00000140: 81d6 dbbe 478a 863e 5c4b 7d3d c195 afbe
00000150: bb00 79bd 2413 dcbb 5820 8f3b ff3c 313e
00000160: 5c83 193e 2645 ecbc 1c65 dd3d 5795 993e
00000170: 0315 6b3d 2941 783e a7f6 c6be db7d 4bbc
00000180: 76be b0be b038 9b3d d2c2 623e 83d2 1cbe
00000190: 5160 b83d 6340 d33c f8ee f93b b647 94bd
000001a0: 639a 893e 267e 883e ac87 77be ad69 dd3e
000001b0: c812 753e ed33 42be ddb7 1abf 8d77 14be
000001c0: 7c79 ca3e f375 e1be 2296 9ebe 1a10 79be
000001d0: b5b3 813e bbf4 873a 559e 83bc 1806 e83c
000001e0: 340e d93d 5374 6f3e 0bfc 43be 6afe 21be
000001f0: e859 803e 9f59 91bd 545e 2a3e b569 90bc
00000200: dde6 c6be 36de 2a3e f2c6 053e a227 46be
00000210: fbc7 cb3d aa43 dfbc 35dc 57bc 4355 22be
00000220: 25e2 833d 221f 5f3d 4db4 04bd 256c 84bf
00000230: 8d3c 4d3d 677a 193e 30f0 503e a873 97be
00000240: ba18 eebb c054 f4bd ac34 0f3f b023 21bf
00000250: 26b9 0c3e aba0 74bc e6c3 cfbb faf9 cdbc
00000260: 9cd2 cf3e e118 213e 6f44 12be 7b70 1f3d
00000270: 1b42 443e e0d3 5d3d 29c9 f43d 92d0 b63e
00000280: d97d 443e ae4a aebd 678a 043f 4483 063e
00000290: 67a6 50bd 90c9 7ebc e2f0 d63a e8db 8dbe
000002a0: c0d5 2a3e eb3b de3e e212 49be 62c5 cfbe
000002b0: c797 203d da07 57be 93f1 073e 6a25 fcbc
000002c0: 3eee 14be 0dad 6abc a386 9d3c 32ff 1abe
000002d0: 56a3 bf3d 8ec4 0fbb bdfa c4bc 2d3c e0bd
000002e0: 920d 10bc 843d 893e 9b94 00bd 098e f2be
000002f0: 1f71 b23e 7e8a 05be 3789 d1bd 839d 833e
00000300: 2a29 e0be b5b8 19bd beae 84bd dd74 42be
00000310: 3e8f e13d e0f4 2b3c c4d5 7bbc c6d2 1abe
00000320: 63ae 1b3d 9759 ad3e d263 2cbe 53db b6be
00000330: de0f 793e f902 ea3d 4830 77be 7799 a33e
00000340: 6252 9b3e 00eb 003e 04ef 40be df7f c63e
00000350: 7f89 75be 427a 653b abb4 c93b ede2 d6bd
00000360: e838 00bc f917 bbbe 3276 893e 2f89 623e
00000370: fa51 d0b9 ee2f 843e 032d e13d 569d d63d
00000380: 527c e1be e513 8ebc 5262 123e 8ac1 803e
00000390: 8d6d c2bd c7d4 2f3c 1397 c1bc 6a5b a8bd
000003a0: f83d 143e bd2e 873e b8e9 003e 11b7 cabe
000003b0: 375d b33e a910 af3d e3a6 03bf 59ae 8fbe
000003c0: 8ea5 4f3e bfe0 63be b7c9 01bf d301 833e
000003d0: 4e12 5e3d 300e 3e3c f23c 24bd c406 25be
000003e0: d10e 8e3e 50a3 e73e bcad 023d 9155 88be
000003f0: 1f63 193e 2d9b 56bd 7958 893e c073 653e
-0.46744293 -0.14687115 0.19248775 0.36427516 0.1665788 -0.035426877 0.027704453 -0.022589682
0.09576207 0.61348116 0.11137269 -0.1272659 0.15644164 -0.33997443 0.005401163 -0.0513722
0.045226566 -0.047850616 0.022774076 0.29488966 0.16543177 0.018104402 -0.008393661 -0.026884137
0.23144877 0.30265796 -0.08991426 -0.010604333 0.53697836 -0.18637519 0.12501095 -0.13324073
0.08484142 -0.051752925 0.109580055 0.047477566 0.048667055 0.01579783 -0.009096335 -0.077005215
-0.10512789 0.21952657 -0.08316299 -2.0068629 0.1625659 -0.06980021 -0.0692231 -0.12575813
0.1312915 0.2993397 -0.019927638 -0.3105137 0.2343138 0.009081631 -0.019667003 -0.07895807
-0.017527077 0.53891844 0.37964916 -1.0417814 0.2554486 0.047392562 -0.07165867 0.12995695
-0.29889706 0.4408151 -0.29894814 0.017075036 -0.43923065 -0.017792061 -0.017582713 -0.24894348
0.19695726 -0.16664378 0.08042275 -0.01714642 -0.23229556 0.07597003 0.11599863 -0.062937655
-0.4293709 0.26277372 0.061839446 -0.3429394 -0.060791712 -0.006716149 0.0043678693 0.17308424
0.14991516 -0.028841566 0.10810301 0.2999675 0.057393085 0.24243607 -0.38860056 -0.012420143
-0.3452031 0.07579172 0.2214463 -0.15314679 0.09002746 0.025787538 0.0076273642 -0.0724024
0.268756 0.26658744 -0.24172848 0.43244687 0.23932946 -0.1896512 -0.60436803 -0.1449873
0.3954581 -0.440353 -0.30973917 -0.24322549 0.25332418 0.0010372618 -0.01606671 0.028323218
0.10598412 0.23384218 -0.19139116 -0.15819708 0.25068593 -0.07097172 0.16637546 -0.01762853
-0.3884801 0.16686329 0.13064173 -0.19351056 0.099502526 -0.027253944 -0.01317506 -0.15852837
0.06439618 0.05447305 -0.03239851 -1.0345503 0.050106574 0.14988099 0.20404124 -0.29580426
-0.007266131 -0.11930227 0.55939746 -0.6294508 0.13742504 -0.014930884 -0.0063404916 -0.025143612
0.4059037 0.15732147 -0.14283918 0.03892563 0.19165842 0.054157138 0.11952431 0.35706002
0.19188632 -0.08510338 0.51773685 0.13136011 -0.050939944 -0.015550986 0.0016398693 -0.27706838
0.16683102 0.4340509 -0.1963611 -0.4058028 0.039207246 -0.20999089 0.13275747 -0.03077956
-0.14544007 -0.014323485 0.019229239 -0.15136412 0.09357326 -0.0021937224 -0.024045343 -0.109489776
-0.008792298 0.26804745 -0.03139172 -0.4737399 0.3485193 -0.13041112 -0.1023125 0.2570611
-0.43781406 -0.037529666 -0.06478642 -0.18989892 0.110136494 0.0104953945 -0.01537079 -0.15119466
0.038008105 0.33857414 -0.16834953 -0.35714206 0.24322459 0.11426348 -0.24139512 0.31953022
0.3033629 0.12589645 -0.18841177 0.38769433 -0.23978232 0.0035015498 0.0061555705 -0.104925014
-0.0078260675 -0.36541727 0.26847988 0.22122644 -0.0003973393 0.25817817 0.109949134 0.10479228
-0.4404016 -0.01734347 0.14295319 0.2514766 -0.094935514 0.010731882 -0.023631608 -0.08220561
0.14476764 0.26402846 0.12589157 -0.39592794 0.35032055 0.085480995 -0.51426524 -0.28062704
0.20277998 -0.22253703 -0.5069842 0.2558733 0.054216675 0.011600062 -0.040097184 -0.16115862
0.2774568 0.45241785 0.031903967 -0.26627782 0.14979218 -0.05239408 0.26825312 0.22407436

layers.0.bias f4 [100]
00000000: b41c 2fbe e8d3 ae3d 328f 90bb 1e0d d2bd
00000010: 6f5f 03bd bf4c a4be 26a1 96be c851 8ebe
00000020: f8b3 54be be62 20bf d600 34be 2241 893e
00000030: 8268 eabd f963 8bbb d3b8 0abe 3345 96be
00000040: f0e7 013e a88a 603d eb76 a2be d972 453c
00000050: 7ec2 58bd 41d4 69be 8f01 a2be f745 cbbe
00000060: 94e8 8c3d 3c0b ab3c 90ab 523d 1daf 6abe
00000070: 84d4 0bbf c7a1 16be c0df bbbe a96d d8be
00000080: bff0 543e 42e6 43bf 7688 9a3c 04bf 53be
00000090: 0e72 91bd bc9e d3be 8f41 eb3c 4330 bdbd
000000a0: 7d36 203c ff82 6dbe 680c 0ebe 3ec2 6ebc
000000b0: 132e 9ebe 3124 34bf 18bc 5ebe 0ed4 08be
000000c0: 0a2c c8be 6a6f 743e a5c7 b83e 31b9 efbe
000000d0: f69c 9e3e 5bd2 65be e266 75be c8a8 04bf
000000e0: 0ad6 70be 8365 8e3d 5997 0dbf 9cbd 71be
000000f0: 7847 a0be 1634 af3d a0cd 18bf 93ad b2be
00000100: 92fb babe 22e9 753e 55b3 22bf 7e07 02be
00000110: 1aef c1be 3003 a63e af5f 65be d6b5 d4be
00000120: 6709 fabd 3188 9e3e 174b 0abe 2a81 dabe
00000130: daa9 003e 5d0a 0a3f 895c 9fbe d778 d73c
00000140: 0143 a63e 0ec2 3b3c 80b5 c13d 73f2 0abf
00000150: ebf2 a4be c283 e4be 165e 09bf 1b2c 693e
00000160: c089 263e 972d 1b3e f64e ca3e 3dc0 b53e
00000170: babc 8ebc b394 93bd 3247 d0be 94a2 01bf
00000180: 0384 a23d 3982 04bf f9d6 ecbd 34d2 56be
-0.17100793 0.08536512 -0.0044116015 -0.10256408 -0.032073434 -0.32089803 -0.29419822 -0.2779677
-0.20771778 -0.6265067 -0.17578444 0.26807505 -0.114457145 -0.004253861 -0.13547067 -0.2934967
0.12686133 0.054819733 -0.31731352 0.012051308 -0.052919857 -0.22834875 -0.31641814 -0.39701816
0.06880298 0.02087938 0.051433146 -0.22918363 -0.5462115 -0.1471015 -0.36694145 -0.42271164
0.20794962 -0.7652322 0.018863898 -0.20678335 -0.07101832 -0.41332042 0.028717784 -0.09237721
0.009778616 -0.23194502 -0.1387192 -0.014572678 -0.30894527 -0.70367724 -0.2175144 -0.13362142
-0.390961 0.23870626 0.36089817 -0.46820977 0.30979127 -0.22443525 -0.23965028 -0.5182004
-0.2351915 0.069529556 -0.55309063 -0.23607486 -0.31304526 0.085548565 -0.5968876 -0.34898052
-0.36520058 0.24014714 -0.6355489 -0.1269817 -0.37877733 0.32424307 -0.22399782 -0.4154498
-0.122088246 0.3096328 -0.13505207 -0.4267667 0.12564793 0.53922063 -0.31125286 0.026302738
0.32472995 0.01145984 0.094584465 -0.542762 -0.32216582 -0.44631773 -0.5365919 0.22770731
0.16263485 0.1515411 0.39513367 0.3549823 -0.017423976 -0.072060965 -0.40679318 -0.506387
0.079353355 -0.51761204 -0.1156444 -0.20978624

layers.2.weight f4 [100, 100]
00000000: 0563 87be 1b36 60be 0e47 91be 127d ecbd
00000010: 6fcb bb3b 8e53 91bb ed82 93be dea3 a0be
00000020: 9966 c1bd f3b0 673e 28d6 37bd 95bb 05be
00000030: 0212 ef3d 0ce8 72be 3fba 3b3d d4db 70be
00000040: e11f cfbe 7d66 983d f45b f1bd 0aec 693e
00000050: bddd 9a3d 9244 d23d 4dec 9cbd 1932 d03b
00000060: 5703 abbd a03a bdbe b42b 78be 3bea e83d
00000070: e4b7 093e 8f77 3dbe 987d b9bd 47ef abbe
00000080: bad9 d8bd d49f 61be 6853 b9bd 3b1b e5bb
00000090: 8b11 6abe 244d 873e 5d45 04be fd98 9a3d
000000a0: 68b8 3dbe 3bc2 f73d 75d2 09bc 21e8 d03c
000000b0: e590 1c3e 4669 00be db22 773d 0fd5 23be
000000c0: bedd 9abe e16d 42be 915b 4abe 975a aabd
000000d0: e4d2 f8bd ad01 823d 9f85 3d3e ec4b ffbd
000000e0: db0c eabd 5078 403d 04d1 fdbd 0cdd f8bd
000000f0: e6f1 293e 2271 e83d 4306 f23c 983d b3bc
00000100: 88c0 b8be 8443 863c 4cc0 82bd 0354 fd3d
00000110: 1923 c6bd 3540 183e 7f04 20be 47c9 a93d
00000120: 155f 0abe 7e67 9cbe a769 2e3e 142c 06be
00000130: 7840 32bd 5916 45be a387 77be f5f6 1e3e
00000140: 8a72 5ebd 31c7 43bc bbb2 6bbd 02c6 d1be
00000150: 02d3 d3bd e22c d13d 44fa 73bd 5622 2abe
00000160: c289 dabd 5d36 133b a3cd e3bd b87b beba
00000170: 3c31 8b3e 3253 67be 7e24 233e 6d63 12be
00000180: 2610 26bd b3bd 683d 7ebc 92be b357 00bc
00000190: 159a b83d df13 ddbe 4a06 c5bd beb3 ac3e
000001a0: 5a13 4b3d 6af0 413d 019d d3bc 3977 993e
000001b0: 8505 443e 5eb3 df3e 9ef8 133d 1be2 ba3c
000001c0: c72e d83d e3b9 533d e367 073c 8f6f 85be
000001d0: 7537 e73d f2d7 86bd 06cb 2b3e 2ebd c83e
000001e0: 2a97 cc3c 1a3b 76be 60d7 283e bf25 a3be
000001f0: b76e 833e 6750 973d 1fd7 863d 1eb2 123e
00000200: bb64 03bd de0c c3bd 29b7 35be a3a5 fcbd
00000210: a013 33bd 5f3c 2bbf 0a70 953e 2992 fdbc
00000220: 2604 48be 458e c93d a4b3 f3be 1b3a 833e
00000230: 2775 693e 0058 db3d 2885 89be 6f10 ffbb
00000240: c39f 8a3d 522b 31be dd7e a73d 55b9 13bd
00000250: 4102 08bf 0f65 abbd 0d11 5d3e 4eff 8c3d
00000260: 168d f23d f175 1a3d 32a0 a93d dd69 793b
00000270: 2965 5d3e 8759 393c 15a2 15be b746 323f
00000280: 6c7b 98bd 66ae 443e 9202 4fbd d9fd 4dbe
00000290: 1304 423e 540f c63d 179e 1f3e de65 833e
000002a0: 8412 20bd c073 883d c6d1 8b3e 9675 dcbe
000002b0: 219b a1be 79e4 ed3b 16b7 5b3e 4510 013e
000002c0: 2156 203d d7d6 80bd 985f 9fbe 88d3 043e
000002d0: 481a dd3d 3984 dbbd e942 37bb fda8 7f3d
000002e0: 9cc7 29be f1fa 453d 9294 613d c593 abbd
000002f0: 11a8 343d 3558 13bb c1c0 06bb 75b8 c6be
00000300: 3736 523e 0a42 d83d fb11 723e b890 f33d
00000310: 481e d53e 9601 253e f9c9 15bd f116 153f
00000320: 9b2a 84bb 5fac 2dbd 503c ca3e a1ff cabe
00000330: 944b ee3d f0fc c8bd a099 a83e 34df 6fbe
00000340: 7261 6ebd 1060 5ebd 9b30 703b 22c6 93be
00000350: 6dc2 d4be 867a 36bf dbd5 a9be 2e52 0abe
00000360: e21a f4be 2602 80be 0fdb 11be f11e 5ebe
00000370: 2aab 37be 37c5 803e e1e9 d73d 277f 393d
00000380: 77d8 77be cee5 1bbe 8045 e5be 917f dd3e
00000390: 089c 3c3e 6b9b 0cbd 21db 643e 4c71 f8bd
000003a0: 8aa0 d9be e648 22bf 00ae 4fbe 46df 1dbe
000003b0: e569 8cbc 6d54 983c a56b 5f3d 4c89 8cbd
000003c0: 55bd 8cbd fad7 1ebc d9bc 2ebd 857f 953c
000003d0: 760b 26be e68d 8a3e 0b1b c7bd c196 3ebe
000003e0: a9c1 afbd 1496 b9be fe38 3ebe b6c9 5d3b
000003f0: bab5 3abe e128 f3be 47bb 9fbd 51c7 9e3e
-0.26442733 -0.2189564 -0.28374523 -0.11547293 0.0057310383 -0.0044350093 -0.28810826 -0.3137502
-0.09443397 0.22626095 -0.04488197 -0.13059838 0.116733566 -0.23721331 0.045831915 -0.23521358
-0.4045401 0.07441423 -0.11785117 0.22843948 0.075618245 0.10266985 -0.07662258 0.0063536284
-0.083502464 -0.3695879 -0.24235421 0.11372801 0.13449055 -0.18502639 -0.09057158 -0.33580992
-0.10588403 -0.22033626 -0.090491116 -0.0069917715 -0.22858255 0.2642604 -0.12917085 0.075487114
-0.18527377 0.120975934 -0.008411993 0.025501313 0.15289648 -0.12540159 0.060335975 -0.15999244
-0.302473 -0.18987228 -0.19761492 -0.0831806 -0.12149599 0.06347976 0.18508004 -0.12465653
-0.11428233 0.04698974 -0.12393382 -0.12151536 0.16596183 0.11349703 0.029544001 -0.021879956
-0.3608439 0.016389616 -0.06384334 0.123695396 -0.09674663 0.14868243 -0.15626715 0.08290344
-0.13512833 -0.30547708 0.1703249 -0.13102752 -0.043518513 -0.19246806 -0.24172835 0.15523894
-0.05430845 -0.011949346 -0.057543498 -0.4097138 -0.10342981 0.10213639 -0.059564844 -0.1661466
-0.106708065 0.0022462823 -0.111232065 -0.0014532721 0.27186 -0.2259033 0.1593189 -0.1429574
-0.040542744 0.056821536 -0.28659433 -0.007833409 0.09013764 -0.43179223 -0.0962034 0.33730882
0.049579002 0.047348417 -0.025831701 0.29973772 0.1914273 0.43691534 0.03612577 0.022812894
0.10555797 0.051690947 0.008264515 -0.26061675 0.112898745 -0.06584157 0.16776666 0.39206833
0.024974424 -0.24045983 0.16488409 -0.31864735 0.25670406 0.073883824 0.06584 0.14325759
-0.032078486 -0.095239386 -0.17745651 -0.1233628 -0.043719888 -0.66888994 0.29187042 -0.030953484
-0.19532833 0.09841589 -0.47597992 0.25630268 0.22798596 0.10710144 -0.26859403 -0.0077839415
0.067687534 -0.17301682 0.08178494 -0.03606542 -0.5312844 -0.08368885 0.21588536 0.06884633
0.11843316 0.037710134 0.08282508 0.0038057484 0.21620621 0.011312849 -0.1461261 0.6963915
-0.07445416 0.19207153 -0.05053956 -0.20116366 0.18946867 0.09670892 0.1558765 0.25663656
-0.039080158 0.066627026 0.27308482 -0.4305846 -0.31563666 0.007259902 0.2145656 0.12603863
0.03914464 -0.062909774 -0.3112762 0.12971318 0.107960284 -0.10718579 -0.0027963466 0.06241702
-0.16580051 0.04833502 0.05507333 -0.08377794 0.044105593 -0.0022482995 -0.0020561668 -0.38812605
0.20528494 0.10559471 0.23639672 0.11892837 0.41624665 0.16113886 -0.03656957 0.5823813
-0.0040333993 -0.042400714 0.3949914 -0.39648154 0.11635509 -0.09813869 0.32929707 -0.23424989
-0.0581984 -0.05429083 0.0036650065 -0.288621 -0.41554585 -0.71280706 -0.3317097 -0.13507912
-0.4767676 -0.2500164 -0.1424372 -0.2169149 -0.17936388 0.25150463 0.10542656 0.045287278
-0.24203669 -0.15224382 -0.44779587 0.43261388 0.18418896 -0.034327906 0.22349216 -0.12130985
-0.42505294 -0.63392484 -0.2028122 -0.15417203 -0.017140338 0.018594945 0.054546017 -0.06862125
-0.0687205 -0.0096950475 -0.042660568 0.018249283 -0.1621531 0.27061385 -0.09721955 -0.18612196
-0.085818596 -0.36247313 -0.18576428 0.0033842153 -0.18233386 -0.47492126 -0.07799392 0.3101144

layers.2.bias f4 [100]
00000000: b901 4abd 45df c5bc 2b2b 8dbe 8d89 88bd
00000010: f032 763d e2af 3a3d ac62 3dbe 920a 91bd
00000020: d40e 01be 41a1 52be 5e64 9cbe 0a8e ef3d
00000030: eac0 dfbd d059 123e 79d5 47bd cf52 4c3d
00000040: 47d2 9abc b261 ef3c eb9f 0b3e 9340 ffbd
00000050: f357 e1bd de77 9fbd 47b3 1abe 0655 1abe
00000060: 5353 41bd 598e a6bb e9d1 94bd 75d8 2b3a
00000070: 53ec e7bd 23e4 00be 87ce a5bd c0a6 4e3d
00000080: 831b 03be 9fb9 acbd 72ea d3bb 0edc 3d3d
00000090: 5a5e 68bd 19ec 4abe 8fda a0bd ed61 8cbd
000000a0: 5167 0bbd 5da0 8dbe 2266 d5bd 7b5f e3bd
000000b0: 11fc 0fbe 54a3 8dbd e6cb 0bbe bb75 24be
000000c0: 65a4 86be af35 d1bd 23af 80bc 4ed4 47bd
000000d0: 9508 c43b 5519 1e3c d393 63be e97f b7bd
000000e0: 7161 4bbe 0575 83be 7a99 83be 22e3 e4bd
000000f0: d758 23bd 82d6 5abd b8c3 b2bd 8497 343e
00000100: 8432 74be 3a1a 1b3e e2f5 d5bd 6c2c febd
00000110: 7ba1 843b 04d4 f0bd d29e 5dbe 4404 20be
00000120: afbe a1be 3ce7 96bd 072c 66be d6e4 65bd
00000130: 4ea8 9fbd 30f1 3cbe 14f4 8ebe 6c8d f2bd
00000140: 39a4 4abe 577b 01be 8842 b9bc 012f 4dbe
00000150: 8062 40be 68aa b7bd c76f 4c3b fc0c a53d
00000160: 2e00 15bc 2281 49bd 5149 b3bc 9c9d 85be
00000170: 2b98 d6bd 78d2 bbbd 01ee c2bd dfef 24be
00000180: 899d c2bc b8c3 32be 748f 77be 3c2a 51be
-0.04931805 -0.024154315 -0.27571997 -0.06666861 0.06010717 0.04557789 -0.18494672 -0.07082094
-0.12603313 -0.20569326 -0.30545324 0.11697014 -0.10925467 0.14292073 -0.048787568 0.04988366
-0.018899096 0.02922139 0.13635223 -0.124634884 -0.11003103 -0.07786535 -0.15107451 -0.15071496
-0.047198605 -0.005082887 -0.072666 0.0006555387 -0.11324372 -0.12587027 -0.080960326 0.050451994
-0.12803464 -0.08433842 -0.006467157 0.04635244 -0.056730606 -0.19816627 -0.07854187 -0.06854615
-0.034034077 -0.2766141 -0.10419871 -0.11102196 -0.14061 -0.06915918 -0.13652 -0.16060536
-0.26297298 -0.102153175 -0.015708512 -0.048786454 0.0059824684 0.009649594 -0.22224359 -0.08959944
-0.1986139 -0.25675216 -0.2570303 -0.11176135 -0.039879646 -0.053427227 -0.08728737 0.17635924
-0.23847395 0.15146723 -0.10447289 -0.124108166 0.0040475703 -0.11759189 -0.21642616 -0.15626627
-0.31590793 -0.07368323 -0.22477733 -0.056126438 -0.077957734 -0.1845138 -0.27920592 -0.1184338
-0.19789208 -0.12644707 -0.022614732 -0.20037462 -0.18787575 -0.08968049 0.0031194554 0.08059117
-0.009094281 -0.049195416 -0.021885546 -0.2609681 -0.104782425 -0.09171003 -0.09518052 -0.16107129
-0.02375676 -0.17457473 -0.24175817 -0.20426267

layers.4.weight f4 [2, 100]
00000000: 71fe 583d 85ae 95bc f635 c33e db1a f03f
00000010: d2a1 753d 06de 8ebd 5dc4 61be 15ae ecbc
00000020: 3c16 dbbe 63c3 ff3b 2da8 123e 943a 69bd
00000030: 142d 8abd 7db5 fe3c 317a 54bd ef38 b7bd
00000040: 221f 10bd 4240 e03d f88d 02be 5771 4bbe
00000050: ec10 8d3e 40c4 4a3c 8ced 183d 8e47 93be
00000060: f787 0a3d f84e d0bd 11f9 77bd e5b4 80bd
00000070: e060 c03e 0806 2e3d db2e 753f bb82 8c3d
00000080: b477 823d 2b6e f2bd 0bd7 79bc 6c21 9f3c
00000090: 579a 8f3d eea5 22bf e401 863c cbcf f53c
000000a0: 3ca5 a63d 4c23 073f 68dc b7bc 6601 9dbe
000000b0: 6e54 c4bf 5563 1ec0 f65e 0b3e 9a24 a63d
000000c0: 7d40 963d 4e23 c33e 994a 3bbf a378 0ebd
000000d0: d86f 1d3e 4812 e93f 9b88 7ebf 031a e63d
000000e0: 3edc 42be e4ce 233f 948f e03f fe92 753c
000000f0: e58b 08bc 910e 1f3d 443d 063f d977 003f
00000100: ca61 e63e 9486 d4be 093d d03b 15db 863f
00000110: 8619 3cbf c2e4 e83b 1ab3 60bf aa27 90be
00000120: e1b9 c63d 9026 58bd dd83 5e3e dedd cd3e
00000130: f76a adbb 246c 863e 0fa8 37bf fd91 17be
00000140: 3e76 253f d6e6 0c3e baa0 3c3d e1af 50be
00000150: ac03 48be 5749 b03f 770d 093d 2d0d bcbd
00000160: 7b78 63be c92d aec0 173c 8cbe 4fb6 06c0
00000170: 1d5b 1a3f e8a7 463e ca94 6abc 4d06 08be
00000180: fce0 0ebd 41c7 d63f 2ea6 a3bf 47ca 813f
00000190: 3f56 3bbe d69c 48be f86f bebd b3d2 f1bd
000001a0: e603 e0bd 62c7 98be 1675 103e 98d0 4240
000001b0: 95c1 d73e 7f07 553e 6c7f 85bf 4730 973d
000001c0: 62f6 d73c 0fb6 0c3e dd13 063d 6001 86bd
000001d0: 1ef0 ddbd bc81 083f 1bde e53d 69a7 24be
000001e0: b1d8 d7bd 8559 133d 3bb8 b7be f193 d7be
000001f0: c738 cfbe b0ed 5e3e 7784 19be b22d f1bf
00000200: 6518 953e 09ae 923e f565 99be 94e9 51bd
00000210: eade 753e 058c 95be d387 7e3c e3f8 72bf
00000220: 4bd9 cdbd a142 44bf 9dec 973d 65ef 9f3e
00000230: 966f d9bd 7bc6 963f 06b1 acbe 2fb0 323e
00000240: a48a 853f be25 0b3f 8800 3640 97b4 3dbf
00000250: 45d6 923e bfa4 8bbe 9550 1f3d 11c0 9dbe
00000260: 363a 18bf 7b12 e9bd 09a2 d4be 1797 5f3e
00000270: 7380 6bc0 4ad8 933f 5695 9f3e 3360 8bbe
00000280: d517 99bd 1644 26ba 51fe 4bbe 5dd8 83bd
00000290: 808d b7bf 3be7 013f 8533 113d 4972 5dbf
000002a0: cd32 11bf 0608 abbe 830e fa3f 1aea 27c0
000002b0: 64bc 023f 14af ec3e 0bb7 9fbe 321e 343e
000002c0: 8db4 05bd d4a9 f03c 1a28 99bf 8864 3fbc
000002d0: a2ee d13d 9126 0abe d199 1bbe b212 5f3e
000002e0: b5a1 163e 9748 2d3e d672 83be c63c fcbe
000002f0: 5f2b 323d d700 f63d 6c37 b93e 18e2 51bf
00000300: f761 d23e cd70 093e 04d9 843d 2f9d 31be
00000310: cd5a 953c 9f81 ad3d dd1d 953e 8a14 babe
0.05297703 -0.018271694 0.38127106 1.8758196 0.059968777 -0.06975941 -0.22047563 -0.028891603
-0.427904 0.0078052743 0.14321966 -0.05694063 -0.06746879 0.0310924 -0.051874343 -0.08946406
-0.03518594 0.10949756 -0.1274947 -0.19867454 0.27551973 0.012375891 0.037335917 -0.2876553
0.033821072 -0.10171312 -0.060540263 -0.06284503 0.3757391 0.04248622 0.9577462 0.06860872
0.06370488 -0.11837419 -0.015249024 0.019425116 0.0701186 -0.6353444 0.016358323 0.03000631
0.08136985 0.52788234 -0.022443965 -0.3066513 -1.5338266 -2.4748127 0.13610443 0.0811245
0.07336519 0.38112873 -0.731607 -0.034783017 0.15374696 1.8208704 -0.99427193 0.1123543
-0.19029328 0.63987565 1.7543817 0.014988659 -0.008334135 0.03883225 0.52437234 0.50182873
0.44996482 -0.41508925 0.006354932 1.0535609 -0.73476446 0.007107348 -0.8777329 -0.2815526
0.09703422 -0.05277115 0.2172999 0.40208334 -0.005292292 0.2625438 -0.7174081 -0.14801784
0.6463355 0.13759932 0.04605172 -0.20379592 -0.1953265 1.3772382 0.033460107 -0.091822006
-0.22213928 -5.443089 -0.27389595 -2.1048772 0.6029528 0.19399989 -0.014317701 -0.13283654
-0.03488253 1.6779557 -1.2785089 1.0139855 -0.18294619 -0.19591078 -0.092987 -0.11807766
-0.109382436 -0.29839617 0.14107165 3.0439816 0.4213988 0.20803641 -1.0429511 0.07382255
0.026362602 0.13741325 0.032733787 -0.06543231 -0.10836814 0.5332296 0.11224004 -0.16079487
-0.105393775 0.035974044 -0.35882744 -0.42105058 -0.40473005 0.21770358 -0.14991938 -1.884207
0.29120174 0.28648403 -0.299606 -0.051248148 0.24010816 -0.2920839 0.015535313 -0.9491102
-0.10051211 -0.7666417 0.07418177 0.3123733 -0.106169865 1.1779321 -0.33728808 0.17450021
1.0432935 0.54354465 2.8437824 -0.74103683 0.286791 -0.2727413 0.03889521 -0.30810598
-0.5946382 -0.11380478 -0.41529873 0.2183498 -3.679715 1.1550381 0.31168622 -0.27221832
-0.07475249 -0.0006342543 -0.19921233 -0.064377524 -1.4340057 0.50743455 0.035449523 -0.8650251
-0.5671814 -0.3340456 1.9535679 -2.6236634 0.5106871 0.46227324 -0.31194338 0.17589644
-0.03264289 0.029377855 -1.1965363 -0.011681683 0.10250594 -0.13491274 -0.15195395 0.21784475
0.14710124 0.16922222 -0.2567355 -0.49265116 0.043498393 0.12011879 0.36175096 -0.81985617
0.41090366 0.13421936 0.06486705 -0.17345117 0.018231774 0.08471989 0.29124346 -0.36343795

layers.4.bias f4 [2]
00000000: e10b 15bd 7573 05bc
-0.03638828 -0.008145203
