Save/Trainings/MRL/2800000/context.pt (torch, 5335 bytes, 6 tensors)

layers.0.weight f4 [25, 11]
1.2560492 0.2199666 -0.73138344 0.059360232 -0.61748654 0.5703883 -2.0084581 -0.41325346
-0.058829747 -0.22929083 -0.31630337 1.4741998 -0.4071699 -0.22570644 -0.5687502 -0.2876255
-1.0968668 -0.7902246 0.086025625 0.011301971 -0.50731194 0.501567 1.4801339 1.191726
0.22115228 0.22986978 1.2686791 0.40085685 1.2859539 -0.88666856 -1.0547855 1.1448272
-1.2179393 -1.0633836 1.5791556 -0.2709223 -0.39068574 0.38211602 -0.09381667 -0.03364617
-1.1258271 0.6295837 -0.085234806 0.34193876 0.058719642 1.7498115 -0.36158714 -0.2025616
1.0375282 -0.66781265 -1.1106442 -2.7914176 -0.947129 -1.126043 -0.4938372 0.7135495
0.074104816 0.8317212 -1.2739133 -1.3615204 -1.3721234 -0.5411808 0.62562513 -0.70106965
0.3111289 1.2315439 -1.6893014 -0.49371457 -0.26420993 -1.0529394 0.31819373 -0.2714614
-0.11986934 -0.31250837 0.48947605 -0.6486666 0.2663261 -0.74563694 0.8965374 1.1379478
-0.347395 -0.29042813 0.58839613 0.101498865 -0.6861918 -1.0814514 -1.8275802 0.5580578
-0.06143043 -0.8312038 0.52123904 -0.70784086 0.41001618 -0.34429306 -0.19526573 0.8002256
-0.5912536 0.4952886 0.20992568 -0.1986436 -0.7480509 0.12870881 -0.9690454 -0.72410554
-0.607526 -1.5930552 -0.14093472 -0.09622278 -1.137015 0.6653914 0.8650471 0.36608383
0.80388314 -0.28658572 0.18986028 1.3159949 -1.2902414 -0.7519769 -0.7655693 0.3159454
-0.052852888 0.9550278 -1.3186259 -1.0299022 -0.87291956 -0.42494938 -0.6641588 -1.0567063
-0.3814037 0.07385564 -0.3537043 0.36909422 1.9108348 -0.99181074 -0.803098 -0.42318955
0.13680969 0.2013767 -0.3428816 -0.35852802 -0.20236279 -0.7264583 -0.34319392 0.5849591
-0.5089546 0.7595383 -0.5662888 0.2991523 0.41503546 1.7010518 -0.4796164 -1.062317
-0.19084126 -0.09953002 1.4111545 -1.1445009 -0.5872764 -0.52306855 -0.17715134 -0.98572797
-0.8592146 -0.11730737 0.47431248 -0.52297854 -0.04572395 -0.050156403 -0.42946476 -0.15418708
-0.8392798 0.19105184 -0.6688834 0.17525956 0.26101437 -0.08687528 0.17060056 0.15259302
2.2992342 -0.89814436 0.74801147 -0.5639529 0.39827478 -0.33202124 0.10686019 -0.28944856
-0.0076228655 -0.8124652 0.1564357 -0.9363147 -1.1139424 -0.58076257 -0.35592437 0.29682666
-0.55547154 0.31576115 0.8359944 0.05609977 0.09656388 -0.45980167 -0.29576287 -1.1179487
0.43947977 -0.16323414 0.7927432 -1.6023107 0.968792 0.61169297 -0.9941331 -0.17844105
-0.6592799 -1.0284377 -0.5244569 -0.914403 -1.1586696 -0.25338167 -0.18395104 -0.46436033
0.00083886826 -0.16059074 -0.67016274 0.64821327 0.45066488 -0.16369984 -0.7401925 -0.011837204
-0.86390483 0.93763053 -2.1978953 -0.38877624 0.09939827 -0.1324093 0.4170603 1.8606559
-0.6497949 0.7041418 -0.3440275 0.2031147 -0.018279085 -0.56588244 -0.20018761 0.06734181
-0.90981853 0.6344654 -0.27350911 0.075148724 -1.5021627 -0.7416361 0.6871328 0.25978833
-1.4643784 -0.51023585 0.22931497 1.2905871 0.19965944 0.39287755 0.87252086 1.1356112
00000000: 38c6 a03f ed3e 613e f23b 3bbf b723 733d
00000010: 9913 1ebf f804 123f 948a 00c0 f595 d3be
00000020: 76f7 70bd 37cb 6abe 84f2 a1be 94b2 bc3f
00000030: 9378 d0be 971f 67be 9d99 11bf a643 93be
00000040: 2266 8cbf 294c 4abf 342e b03d e72b 393c
00000050: 32df 01bf b266 003f 0775 bd3f 7a8a 983f
00000060: be75 623e fc62 6b3e 1464 a23f 1c3d cd3e
00000070: 239a a43f b6fc 62bf 3603 87bf b389 923f
00000080: 6fe5 9bbf f41c 88bf c521 ca3f 54b6 8abe
00000090: f607 c8be b6a4 c33e f422 c0bd 91d0 09bd
000000a0: 1a1b 90bf 662c 213f 968f aebd 9912 af3e
000000b0: 0284 703d d3f9 df3f f321 b9be 4f6c 4fbe
000000c0: b9cd 843f c5f5 2abf 9729 8ebf 96a6 32c0
000000d0: 0c77 72bf 2d22 90bf 3bd8 fcbe 2eab 363f
000000e0: 44c4 973d aeeb 543f 970f a3bf 4d46 aebf
000000f0: bda1 afbf d38a 0abf f828 203f 4d79 33bf
00000100: 4a4c 9f3e 3ba3 9d3f 073b d8bf 28c8 fcbe
00000110: 8646 87be b8c6 86bf 4aea a23e fdfc 8abe
00000120: 0e7e f5bd 1901 a0be 9b9c fa3e 040f 26bf
00000130: e55b 883e 10e2 3ebf 7a83 653f 46a8 913f
00000140: c2dd b1be ffb2 94be 21a1 163f a3de cf3d
00000150: 44aa 2fbf 006d 8abf 26ee e9bf e0dc 0e3f
00000160: 799e 7bbd c6c9 54bf ec6f 053f 0f35 35bf
00000170: a4ed d13e 2e47 b0be bdf3 47be 96db 4c3f
00000180: 655c 17bf 7896 fd3e c2f6 563e 3a69 4bbe
00000190: 4480 3fbf 3ecc 033e 5c13 78bf fb5e 39bf
000001a0: d386 1bbf 3ce9 cbbf 3151 10be 7310 c5bd
000001b0: b589 91bf 1757 2a3f ba73 5d3f 576f bb3e
000001c0: 49cb 4d3f 5dbb 92be bc6a 423e 8572 a83f
000001d0: a126 a5bf 8f81 40bf 5afc 43bf 98c3 a13e
000001e0: 457c 58bd b47c 743f bcc8 a8bf d6d3 83bf
000001f0: a877 5fbf f792 d9be 5006 2abf 2742 87bf
00000200: 5947 c3be a041 973d bb18 b5be ebf9 bc3e
00000210: 3c96 f43f 4fe7 7dbf d597 4dbf 4dac d8be
00000220: d717 0c3e b235 4e3e 2d8e afbe fc90 b7be
00000230: 3138 4fbe 2cf9 39bf 1db7 afbe e1bf 153f
00000240: d94a 02bf 1a71 423f 4ef8 10bf 7e2a 993e
00000250: 877f d43e 11bc d93f 4890 f5be 01fa 87bf
00000260: e46b 43be 65d6 cbbd b6a0 b43f 017f 92bf
00000270: bf57 16bf d2e7 05bf 2967 35be ab58 7cbf
00000280: 7df5 5bbf d93e f0bd 16d9 f23e ece1 05bf
00000290: 0949 3bbd cd70 4dbd cee2 dbbe 38e3 1dbe
000002a0: 0adb 56bf 18a3 433e f13b 2bbf 3e77 333e
000002b0: ada3 853e abeb b1bd eab1 2e3e 5841 1c3e
000002c0: a726 1340 caec 65bf ae7d 3f3f 385f 10bf
000002d0: acea cb3e b0fe a9be 84d9 da3d 9a32 94be
000002e0: 3bc9 f9bb b8fd 4fbf ae30 203e 52b2 6fbf
000002f0: aa95 8ebf dbac 14bf b83b b6be aaf9 973e
00000300: 6233 0ebf 72ab a13e bb03 563f dfc8 653d
00000310: 49c3 c53d 206b ebbe 3b6e 97be f118 8fbf
00000320: 7e03 e13e da26 27be 38f1 4a3f 8418 cdbf
00000330: c102 783f e997 1c3f 827f 7ebf 40b9 36be
00000340: 91c6 28bf d9a3 83bf cf42 06bf 5116 6abf
00000350: 494f 94bf 3ebb 81be a95d 3cbe a3c0 edbe
00000360: 7fe7 5b3a e671 24be c98f 2bbf 4ef1 253f
00000370: 8cbd e63e eea0 27be 417d 3dbf d5f0 41bc
00000380: de28 5dbf 8e08 703f 51aa 0cc0 ae0d c7be
00000390: 5291 cb3d 4e96 07be ed88 d53e f929 ee3f
000003a0: f558 26bf a342 343f 5f24 b0be 4dfd 4f3e
000003b0: 05be 95bc acdd 10bf fbfd 4cbe 81ea 893d
000003c0: dee9 68bf 536c 223f 6309 8cbe 93e7 993d
000003d0: de46 c0bf dddb 3dbf efe7 2f3f fa02 853e
000003e0: c070 bbbf d19e 02bf 8bd1 6a3e f531 a53f
000003f0: 8673 4c3e 3f27 c93e 875d 5f3f b55b 913f

layers.0.bias f4 [25]
0.058652133 -0.656117 0.11286323 -0.52824163 0.00014159933 -1.0025349 -1.0769613 0.09376265
-0.70418113 -0.9005473 -0.10037069 -0.64383703 -0.44214427 -0.4946683 -0.5567363 -1.088298
-0.15157008 -0.645167 -0.39748624 -1.1704419 0.4707929 -0.37018317 -0.9549835 -0.0350656
0.50709045
00000000: 383d 703d 49f7 27bf d624 e73d d83a 07bf
00000010: 487a 1439 1053 80bf ded9 89bf a206 c03d
00000020: 3745 34bf 458a 66bf 268f cdbd 81d2 24bf
00000030: bc60 e2be 2a45 fdbe 4586 0ebf 594d 8bbf
00000040: 3035 1bbe aa29 25bf 5183 cbbe 0ad1 95bf
00000050: c40b f13e a688 bdbe cc79 74bf f2a0 0fbd
00000060: aed0 013f

layers.2.weight f4 [15, 25]
-0.30527934 -0.23086005 -0.40069216 -0.092548124 -0.05670191 -0.22032256 0.07523733 -0.0025935993
0.1104 -0.15283905 -0.27744502 -0.12486851 0.048326988 -0.084725425 -0.038415372 -0.07003345
-0.21783994 -0.0731101 -0.33134228 -0.010824732 -0.13310935 -0.12411173 -0.0473979 -0.23975474
-0.21650907 0.41462454 0.4192916 -2.48025 -0.4120225 -3.4170585 3.0269797 -3.3730204
-4.159726 -1.0060163 -3.129556 -0.2867052 0.6477541 0.4415 -1.4585621 0.94619924
-0.6944061 0.6810171 -1.5630895 -1.6004046 -1.8919342 0.46281645 0.6523522 1.1038013
-2.4678142 -2.2513943 0.07482108 0.58489263 -4.306819 0.10756268 -1.4591632 0.9152997
-0.11074691 -5.0558457 0.08826612 -0.79004556 -3.0641007 0.63542664 -5.31685 -0.8107292
0.6065229 -1.1610985 -2.9664407 -0.7448407 -2.244281 -0.04692251 0.6603121 -0.3001632
0.58236897 -3.2859538 -2.1369188 0.37901804 0.4442697 -2.5801592 -0.5534025 -3.8837078
3.0497847 -2.9874156 -4.435564 -1.1803236 -2.9511752 -0.27841035 1.1020511 0.5109328
-2.124395 0.88290787 -0.48533273 0.7628948 -1.5192158 -1.8235624 -2.2199566 0.51666814
0.63029283 1.151135 -2.6498923 -2.2246587 -1.807133 -0.6811935 -1.6912383 -3.2515686
-0.36180294 0.10062201 -1.4719609 -1.262069 0.7912901 0.72747296 -2.7660816 -0.10277072
-2.6957438 -1.2016546 -1.2814981 -0.0007492686 -1.7440208 0.4507558 0.357229 -0.8987366
-2.0786648 -1.7027006 -0.96396923 -1.7203076 -0.5033481 -0.066075005 -0.007788051 -0.03805353
-0.07915728 -0.09312883 -0.15740675 -0.030649424 0.049770206 -0.06672502 -0.004964301 -0.23540598
-0.089028314 0.021999277 -0.25799116 -0.21530348 -0.09404236 0.03387822 -0.28587916 0.025081368
-0.049425848 -0.041732978 -0.32833463 -0.20531426 -0.08882645 -0.16625217 0.53826916 0.37328732
-0.08622005 -3.9578397 -2.1102428 -1.6640674 -0.05222466 -0.23591647 -1.0031298 0.2396379
0.26411912 -0.07495664 -0.052274704 -0.050562277 -0.03153133 -1.1979328 0.092651606 -1.2332054
-2.1331742 -1.1489012 0.79904807 0.42503616 0.85838765 -0.37597913 -0.011905797 -0.43536672
-0.59770656 -1.8514394 0.034216803 -1.5109723 -0.47060034 -0.35216647 -1.9965694 -0.06035174
-0.56947947 -0.46371716 -0.28901452 -2.0971081 -0.5139687 0.12877528 -0.39644346 -1.571735
-0.20585613 -0.39750928 0.12584719 -0.11466885 -0.61518043 -0.113071434 -1.425836 -1.4765809
-0.06459306 0.034453414 -1.6996837 -0.919959 -0.2885546 -0.9366136 -0.4093398 -2.3530405
0.27242187 -0.16482529 -0.0843964 -0.6249383 -0.72706145 0.400065 -1.0892788 -0.338955
-0.38953054 -0.26676452 -0.21460173 -0.35141337 -0.00015723295 0.39388177 -0.8357952 -1.0552913
-1.500743 -0.43581697 0.547197 0.3189337 -2.3084106 -0.80576944 -2.6195853 -0.37914217
0.016420104 -2.3866796 -2.5059996 -1.7013333 -1.0471916 0.39745083 0.68164104 -0.5236889
0.3469857 0.59614366 -2.2658648 -4.041835 -1.3446257 -2.2149827 0.364516 -0.75058436
-1.2703224 0.3207354 -0.52426946 -0.15726182 -1.1179731 -0.47089204 -0.11637936 -0.065719366
00000000: 934d 9cbe 9466 6cbe 8627 cdbe df89 bdbd
00000010: 4340 68bd 3d9c 61be 0716 9a3d 60f9 29bb
00000020: 6519 e23d d781 1cbe 460d 8ebe 10bb ffbd
00000030: 85f2 453d 8684 adbd 7059 1dbd b36d 8fbd
00000040: 6f11 5fbe c0ba 95bd b2a5 a9be 375a 31bc
00000050: d14d 08be 4a2e febd 4d24 42bd 4482 75be
00000060: 8eb4 5dbe ab49 d43e 63ad d63e 6abc 1ec0
00000070: 9df4 d2be 16b1 5ac0 09ba 4140 91df 57c0
00000080: 7a1c 85c0 24c5 80bf a54a 48c0 06cb 92be
00000090: 36d3 253f 4a0c e23e 2ab2 babf 1d3a 723f
000000a0: 99c4 31bf 2357 2e3f 5113 c8bf 0fda ccbf
000000b0: e62a f2bf 47f6 ec3e 8e00 273f 5c49 8d3f
000000c0: abf0 1dc0 d816 10c0 cb3b 993d 86bb 153f
000000d0: 76d1 89c0 d349 dc3d dcc5 babf 1551 6a3f
000000e0: 47cf e2bd 7dc9 a1c0 dec4 b43d 6d40 4abf
000000f0: 3a1a 44c0 52ab 223f a323 aac0 f38b 4fbf
00000100: 1645 1b3f e09e 94bf 2ada 3dc0 e1ad 3ebf
00000110: 4da2 0fc0 d131 40bd 370a 293f feae 99be
00000120: 2216 153f 114d 52c0 47c3 08c0 a70e c23e
00000130: 5177 e33e 5421 25c0 c9ab 0dbf ab8e 78c0
00000140: ac2f 4340 d131 3fc0 24f0 8dc0 d814 97bf
00000150: 0ee0 3cc0 cd8b 8ebe 0310 8d3f 7ecc 023f
00000160: 16f6 07c0 4006 623f 887d f8be 134d 433f
00000170: aa75 c2bf 7e6a e9bf c513 0ec0 5d44 043f
00000180: df5a 213f 6458 933f d697 29c0 cf60 0ec0
00000190: 2250 e7bf b262 2ebf 7f7a d8bf b319 50c0
000001a0: 3c3e b9be ea12 ce3d 3769 bcbf 7a8b a1bf
000001b0: fd91 4a3f ab3b 3a3f 7b07 31c0 7579 d2bd
000001c0: 1187 2cc0 d1cf 99bf 2108 a4bf 916a 44ba
000001d0: 133c dfbf 77c9 e63e b8e6 b63e 9a13 66bf
000001e0: d808 05c0 18f2 d9bf b0c6 76bf 0a33 dcbf
000001f0: 6cdb 00bf 5552 87bd e832 ffbb 05de 1bbd
00000200: 361d a2bd 54ba bebd 3c2f 21be 8014 fbbc
00000210: d8db 4b3d 21a7 88bd 93ab a2bb 440e 71be
00000220: 7a54 b6bd d437 b43c 6b17 84be 8478 5cbe
00000230: 4899 c0bd e3c3 0a3d c15e 92be 7177 cd3c
00000240: c272 4abd 33f0 2abd 7a1b a8be e73d 52be
00000250: a4ea b5bd 023e 2abe 02cc 093f 841f bf3e
00000260: 2394 b0bd 3f4d 7dc0 380e 07c0 2900 d5bf
00000270: 86e9 55bd 1694 71be 8f66 80bf a363 753e
00000280: 9f3a 873e de82 99bd 001e 56bd 641a 4fbd
00000290: ff26 01bd dd55 99bf 20c0 bd3d add9 9dbf
000002a0: ed85 08c0 320f 93bf 6a8e 4c3f 579e d93e
000002b0: 4bbf 5b3f 5680 c0be 8810 43bc 63e8 debe
000002c0: 4c03 19bf f7fb ecbf eb26 0c3d 8a67 c1bf
000002d0: 87f2 f0be 2a4f b4be 968f ffbf 6333 77bd
000002e0: 68c9 11bf 566c edbe b6f9 93be 0537 06c0
000002f0: 7493 03bf abdd 033e a3fa cabe 9d2e c9bf
00000300: f3cb 52be 5686 cbbe 16de 003e 81d7 eabd
00000310: 777c 1dbf ff91 e7bd cb81 b6bf 9a00 bdbf
00000320: 5e49 84bd 061f 0d3d 3c8f d9bf 6f82 6bbf
00000330: 6ebd 93be e9c5 6fbf fc94 d1be 3798 16c0
00000340: e17a 8b3e f6c7 28be 05d8 acbd f5fb 1fbf
00000350: b320 3abf 52d5 cc3e 7d6d 8bbf 828b adbe
00000360: 8c70 c7be 5c95 88be 8ec0 5bbe 74ec b3be
00000370: e6de 24b9 dfaa c93e adf6 55bf c913 87bf
00000380: 5918 c0bf 6723 dfbe 1a15 0c3f 474b a33e
00000390: 00bd 13c0 e846 4ebf 49a7 27c0 ec1e c2be
000003a0: 7483 863c 5cbf 18c0 4c62 20c0 4ac5 d9bf
000003b0: 600a 86bf ad7e cb3e 0780 2e3f 7a10 06bf
000003c0: 1ca8 b13e df9c 183f ee03 11c0 b656 81c0
000003d0: b21c acbf 47c2 0dc0 d7a1 ba3e 4c26 40bf
000003e0: ed99 a2bf 6e37 a43e 8636 06bf 3e09 21be
000003f0: be19 8fbf c318 f1be 4d58 eebd e097 86bd

layers.2.bias f4 [15]
-0.19093573 -0.19873972 -0.6907227 -0.18880337 -0.59970015 -0.14128597 0.35782236 -0.35526004
-0.82551515 0.37469625 -0.5445129 -0.13090764 -0.5752438 -0.13355081 -0.40933588
00000000: a884 43be 6d82 4bbe 34d3 30bf ac55 41be
00000010: f385 19bf 45ad 10be 7e34 b73e a5e4 b5be
00000020: f654 53bf 30d8 bf3e 3365 0bbf a70c 06be
00000030: 2d43 13bf 8bc1 08be 7994 d1be

layers.4.weight f4 [8, 15]
-0.13426143 0.62054014 -0.5326995 0.47359478 -0.60926765 -0.1763746 0.9067486 -0.41101876
-0.04316406 0.60008216 -0.03000768 1.2568244 -0.74900407 0.6405472 0.32841054 0.0011134285
-0.64678824 -1.0244334 -0.61996764 -1.9927367 0.23365727 0.5305148 -0.21810819 -0.7224663
0.7966004 -0.15947807 0.23364544 -0.76022214 -0.707079 0.21794763 -0.076249294 0.5683112
-0.8868809 0.38992965 -0.8204358 0.014368069 -1.082125 -0.122306265 -0.2834242 -1.6438161
-0.021994071 -0.96884805 -0.94088066 0.45740235 0.25955293 -0.16751221 2.9300678 -0.407187
3.3906772 0.59798825 0.20092162 -0.23994325 -0.15135773 0.0024867693 -1.1016707 0.061552517
1.0665098 -0.36248675 2.8726254 0.16965912 0.109563306 -0.6824455 0.20033911 -0.6323683
0.25037542 0.07216287 -0.008130834 0.1054328 0.41975516 0.028485782 0.2492352 0.24922858
0.3723219 -0.7309574 0.1882125 -0.051276263 0.5521548 -0.022687618 0.561498 0.757798
-0.0077648885 0.202835 -0.20071484 -0.007715622 0.056798648 -0.07028149 0.10562497 -0.02339192
0.5085135 -0.20738536 0.025060121 -0.27900222 -0.5387853 -0.57644856 0.7383752 0.15749626
0.44151717 -0.054239094 0.23901983 0.7402973 0.0756179 -0.2694094 -0.16221729 -0.39837107
-0.0118324505 0.07391367 0.4356885 -0.031084824 0.6306607 0.46485156 0.0094887065 -0.058563005
0.13550153 0.27084413 0.47830775 0.0014170056 0.75721127 -0.046302214 0.3398641 -0.2135785
00000000: d47b 09be b8db 1e3f ff5e 08bf 047b f23e
00000010: f7f8 1bbf 8b9b 34be ad20 683f 0d71 d2be
00000020: cccc 30bd fc9e 193f abd2 f5bc 9fdf a03f
00000030: bbbe 3fbf e7fa 233f 6d25 a83e 76f0 913a
00000040: ea93 25bf a220 83bf 33b6 1ebf ff11 ffbf
00000050: da43 6f3e d1cf 073f c157 5fbe 8df3 38bf
00000060: 01ee 4b3f 384e 23be c040 6f3e eb9d 42bf
00000070: 2103 35bf aa2d 5f3e 9728 9cbd d87c 113f
00000080: a00a 63bf dca4 c73e 1508 52bf 0d68 6b3c
00000090: 1283 8abf b57b fabd fa1c 91be 9168 d2bf
000000a0: e92c b4bc 6d06 78bf 8edd 70bf a430 ea3e
000000b0: 1fe4 843e 5288 2bbe 3b86 3b40 d17a d0be
000000c0: db00 5940 c215 193f 66be 4d3e afb3 75be
000000d0: 85fd 1abe 11f9 223b 8c03 8dbf 7e1e 7c3d
000000e0: 6583 883f dd97 b9be 18d9 3740 1fbb 2d3e
000000f0: ba62 e03d c0b4 2ebf b225 4d3e e4e2 21bf
00000100: 3531 803e 20ca 933d 3137 05bc 27ed d73d
00000110: 26ea d63e 045b e93c 8337 7f3e c735 7f3e
00000120: faa0 be3e 0620 3bbf c7ba 403e 0f07 52bd
00000130: 045a 0d3f 62db b9bc 55be 0f3f 0dff 413f
00000140: 9b70 febb fab3 4f3e 3188 4dbe 54d3 fcbb
00000150: b3a5 683d beef 8fbd e751 d83d 69a0 bfbc
00000160: f12d 023f d45c 54be e24a cd3c 61d9 8ebe
00000170: d5ed 09bf 2292 13bf 2806 3d3f b346 213e
00000180: 8a0e e23e d029 5ebd 9dc1 743e 2084 3d3f
00000190: 8fdd 9a3d 07f0 89be 4a1c 26be 4bf7 cbbe
000001a0: e5dc 41bc 0d60 973d 9012 df3e 9aa5 febc
000001b0: fb72 213f 0601 ee3e 8576 1b3c c3df 6fbd
000001c0: eac0 0a3e 15ac 8a3e c1e4 f43e d1ba b93a
000001d0: 99d8 413f 64a7 3dbd ab02 ae3e 53b4 5abe

layers.4.bias f4 [8]
0.060415257 0.19960433 0.2689392 -0.21441124 0.08269852 -0.44272688 -0.15957256 -0.30270946
00000000: fd75 773d 1465 4c3e 66b2 893e 9f8e 5bbe
00000010: d75d a93d 19ad e2be fd66 23be bcfc 9abe
