Save/Trainings/MRL/2800000/critic.pt (torch, 100545 bytes, 10 tensors)

layers_q1.0.weight f4 [100, 18]
-0.38115722 0.41256136 1.5931921 0.12645613 -0.46965277 -0.009960486 0.052950628 -0.91622823
-0.12628539 0.13327934 0.4353281 0.7822801 0.025985291 0.9375796 0.00882353 0.5616375
-0.117549784 0.5747962 1.1929884 -0.10911592 -1.2188929 0.54676527 1.0246727 0.024520824
-0.035528388 0.22326668 -0.22907606 0.15304476 0.2608458 0.31857803 -0.32249504 -0.024969103
0.39891082 0.3001136 -0.17147186 0.9636024 0.2281864 -0.30581394 -0.02246448 -0.7037707
-0.23182149 -0.09282823 0.04955037 -0.19085106 1.2573094 -1.1054544 0.20739457 -0.77959496
0.106427394 0.19795176 -1.0199851 0.037342414 0.05919424 0.592498 -0.62392277 -0.3991974
-0.12366483 -0.6676431 -0.076361485 0.065778464 0.010336574 -0.6518356 -0.074225515 0.28068376
1.3767726 0.5850088 1.390791 -0.2696889 -0.41381615 -0.08740029 -1.228429 -0.9167338
-1.1070614 0.30481383 0.16143908 -0.024266424 0.21275467 -0.04611166 -0.04694803 -0.14500047
-0.53420544 0.18345284 -0.0927172 -0.0806302 3.7577913 -0.2551448 -1.1070013 0.18199204
-0.65814507 0.11675897 -0.8694039 0.032640282 0.31367007 -0.20799628 0.26562446 0.0045651123
-0.019583069 -0.25239742 -0.2076337 -0.4695003 -0.08494533 -0.4142051 0.66664356 1.4198991
-0.2725578 0.21964528 -0.38277134 0.055367712 -0.0140058575 -0.578931 -0.02460166 0.035040546
0.3351881 0.017272621 0.029774526 0.00010063435 -2.8472562 -0.01381791 0.34318355 -0.14377874
0.21080464 -0.10400317 0.17009614 0.14841287 0.051767115 -0.34411898 -0.06754622 -0.23953556
-0.07175848 -1.4940606 0.26702788 0.044752583 0.005323397 0.23993184 -0.03812693 0.033373583
0.42702666 0.49643773 0.0641566 0.17157653 -0.05757126 -0.22252275 -0.05378073 0.111349605
-0.28648934 0.15238883 -0.026612027 -0.05343633 0.8989372 -0.030773569 -0.03500027 -0.30133012
0.036735 0.27666143 -0.81526077 -0.23413363 -1.3796519 -0.5769996 -0.12856886 0.6593814
-0.25305855 -0.202715 1.2254542 0.3728341 -0.5794636 0.727758 0.6007758 0.015948499
-0.02518264 -0.064202346 0.26235777 -0.31253672 0.2337146 0.22973576 -0.5710244 -0.019579966
0.049474966 0.25050628 -0.6170478 0.40671426 -0.74961054 0.049323678 -1.1506182 0.5205337
0.39182976 -0.0036710827 0.051564805 -0.39614683 -0.038575873 0.71380186 0.39501223 0.3520415
0.891328 -1.0696115 -0.565603 -0.06193326 -0.6367618 -0.60894006 0.8264359 0.5448872
0.83512956 0.17039812 -0.60162795 -0.02433801 -0.027053073 -0.24911958 -0.077903874 0.04064863
-0.07227666 -0.2504967 0.45825607 0.8073596 -0.3679457 0.94227237 0.023046749 1.0715771
-1.1309239 -0.08418949 0.29459208 -0.05741357 0.24607483 -0.00366889 -0.0013211824 -0.14768732
-1.2149984 1.9091587 -0.45034328 -0.27023992 0.54046875 -0.32985047 -0.33915776 0.35319933
-0.2122521 -0.5985601 0.101026446 -0.4023431 -0.2825388 -0.69184476 0.4088851 0.082674734
-0.023884665 0.08658208 0.24634348 0.6752104 -0.107691005 -0.066670164 0.24635907 1.1548773
-0.23726137 0.77194196 0.83070934 0.46217024 -0.4771452 0.017831499 -0.44544256 0.39763427
00000000: 0a27 c3be 3e3b d33e b8ed cb3f b77d 013e
00000010: 5476 f0be 4e31 23bc c2e2 583d ef8d 6abf
00000020: f550 01be 617a 083e 53e3 de3e 8243 483f
00000030: 1bdf d43c 3705 703f 9190 103c 7ac7 0f3f
00000040: f1bd f0bd d825 133f d8b3 983f 2b78 dfbd
00000050: af04 9cbf cff8 0b3f 7a28 833f e5df c83c
00000060: 3786 11bd 05a0 643e ea92 6abe c4b7 1c3e
00000070: 958d 853e a91c a33e 121e a5be 018c ccbc
00000080: 0a3e cc3e 7da8 993e 5296 2fbe a6ae 763f
00000090: b2a9 693e a593 9cbe 6e07 b8bc 512a 34bf
000000a0: 9d62 6dbe ba1c bebd 54f5 4a3d 766e 43be
000000b0: 84ef a03f 887f 8dbf 3e5f 543e 8993 47bf
000000c0: 9bf6 d93d deb3 4a3e df8e 82bf 5cf4 183d
000000d0: a975 723d f3ad 173f 67b9 1fbf 9a63 ccbe
000000e0: fd43 fdbd a8ea 2abf 6963 9cbd dcb6 863d
000000f0: bc5a 293c b3de 26bf 8c03 98bd c8b5 8f3e
00000100: 163a b03f 23c3 153f 7105 b23f aa14 8abe
00000110: b6df d3be ecfe b2bd 293d 9dbf 11af 6abf
00000120: 30b4 8dbf 8f10 9c3e 4950 253e 61ca c6bc
00000130: 5cdc 593e 94df 3cbd 944c 40bd 017b 14be
00000140: b0c1 08bf 10db 3b3e 84e2 bdbd 7221 a5bd
00000150: a77f 7040 57a2 82be 38b2 8dbf 1f5c 3a3e
00000160: 327c 28bf 541f ef3d 4191 5ebf d1b1 053d
00000170: 5d99 a03e fafc 54be eeff 873e f096 953b
00000180: ac6c a0bc 3c3a 81be ee9d 54be 5862 f0be
00000190: d1f7 adbd b112 d4be 27a9 2a3f 41bf b53f
000001a0: b28c 8bbe b1ea 603e 9bfa c3be 41c9 623d
000001b0: d378 65bc d234 14bf 6c89 c9bc ad86 0f3d
000001c0: c69d ab3e 507f 8d3c b5e9 f33c a80b d338
000001d0: 7239 36c0 8464 62bc c1b5 af3e bc3a 13be
000001e0: 2cdd 573e 9dff d4bd af2d 2e3e 8bf9 173e
000001f0: c109 543d 5d30 b0be ac55 8abd cf48 75be
00000200: 1cf6 92bd 613d bfbf e1b7 883e 7c4e 373d
00000210: e46f ae3b b1b0 753e fc2a 1cbd bdb2 083d
00000220: 3da3 da3e 162d fe3e 8964 833d c2b1 2f3e
00000230: d7cf 6bbd 01dd 63be 2f49 5cbd 430b e43d
00000240: bbae 92be d10b 1c3e 7701 dabc 0ee0 5abd
00000250: c020 663f da18 fcbc 715c 0fbd f147 9abe
00000260: 7077 163d 91a6 8d3e eeb4 50bf bac0 6fbe
00000270: 6f98 b0bf 3fb6 13bf 8ea7 03be 38cd 283f
00000280: e490 81be 8594 4fbe afdb 9c3f 1ce4 be3e
00000290: ba57 14bf 594e 3a3f 71cc 193f 6da6 823c
000002a0: d34b cebc 857c 83bd c253 863e d004 a0be
000002b0: e152 6f3e da3f 6b3e a82e 12bf 2a66 a0bc
000002c0: 43a6 4a3d 5c42 803e d8f6 1dbf da3c d03e
000002d0: 7ae6 3fbf a007 4a3d 7547 93bf b241 053f
000002e0: e99d c83e 8c96 70bb 9e35 533d c2d3 cabe
000002f0: bc01 1ebd b8bb 363f 0b3f ca3e c93e b43e
00000300: 122e 643f 08e9 88bf 5ccb 10bf bbad 7dbd
00000310: d202 23bf 7fe3 1bbf 4e91 533f ba7d 0b3f
00000320: 0dcb 553f d87c 2e3e 4a04 1abf 8260 c7bc
00000330: 689e ddbc 3419 7fbe 118c 9fbd 2e7f 263d
00000340: c905 94bd 1a41 80be 8aa0 ea3e 1eaf 4e3f
00000350: 6163 bcbe c338 713f 89cc bc3c 7029 893f
00000360: 1dc2 90bf 8a6b acbd c6d4 963e 7e2a 6bbd
00000370: 0afb 7b3e c371 70bb 862b adba 583b 17be
00000380: 1185 9bbf 505f f43f 6593 e6be e35c 8abe
00000390: 295c 0a3f 29e2 a8be 16a6 adbe 8bd6 b43e
000003a0: 9d58 59be 3c3b 19bf f4e6 ce3d eaff cdbe
000003b0: eda8 90be bd1c 31bf 6359 d13e 5f51 a93d
000003c0: c6a9 c3bc f251 b13d 7741 7c3e 97da 2c3f
000003d0: 1a8d dcbd 5e8a 88bd 8d45 7c3e 05d3 933f
000003e0: a5f4 72be fd9d 453f 5ea9 543f 94a1 ec3e
000003f0: 604c f4be 5d13 923c 0c11 e4be b896 cb3e

layers_q1.0.bias f4 [100]
-1.1112111 -1.2487322 -0.4705818 -0.15778853 -0.23334156 0.09807187 -0.2675073 -0.57407707
-0.7531881 -0.96968603 -0.53140867 -1.2374536 -0.3705548 -0.93525237 -0.6450998 -0.71921587
-0.9472626 0.38584355 -0.8646268 -0.7424366 0.11230093 -0.4565803 -0.6393344 -0.38217714
0.000101610975 0.32833305 -0.6791128 0.1336903 -0.33459318 -0.91143763 -0.7829262 -0.88506263
-0.35704908 -0.82767725 -0.44659325 -0.9236736 -0.9002443 -0.34029374 0.116341874 0.0687522
-0.7916791 -0.6360163 -0.13009723 -0.22303267 -0.5451962 -0.6873976 -0.7496946 -0.39726081
0.53030664 -0.044047672 -0.47632125 -0.5729348 0.031532448 -0.8609607 -0.91778064 -0.36631083
-0.4237998 -0.410314 -0.8442213 -0.6740027 -0.7183645 -0.42240348 0.17091054 -0.9497923
-0.4108735 -1.0309883 -0.05524723 -0.93887234 -0.309861 -0.9221169 -1.0534784 -0.33709055
-0.49914828 -0.7164503 -0.95297116 -1.2035881 -0.18763112 -0.9923831 -0.5299125 -0.47488505
0.39805552 0.17251869 -0.26115608 -0.6830652 -0.6440897 0.100633025 -1.0123523 -0.31181952
-0.98635954 -0.635728 -0.6160958 -0.8331966 -0.35526773 0.20881443 -0.8736131 -0.721641
-0.6664729 -0.35815364 -0.6321119 -0.43543866
00000000: 2a3c 8ebf 75d6 9fbf 19f0 f0be 5193 21be
00000010: 17f1 6ebe e8d9 c83d b8f6 88be b7f6 12bf
00000020: efd0 40bf 583d 78bf 660a 08bf e164 9ebf
00000030: 5cb9 bdbe b36c 6fbf 4325 25bf 881e 38bf
00000040: cd7f 72bf 498d c53e 2f58 5dbf 5310 3ebf
00000050: 08fe e53d e5c4 e9be 6bab 23bf b9ac c3be
00000060: fa17 d538 451b a83e 56da 2dbf 1ce6 083e
00000070: cc4f abbe fa53 69bf da6d 48bf 7793 62bf
00000080: 23cf b6be a8e2 53bf dfa7 e4be e075 6cbf
00000090: 6976 66bf fb3a aebe a644 ee3d f4cd 8c3d
000000a0: 7bab 4abf f7d1 22bf 3538 05be ad62 64be
000000b0: fa91 0bbf 4af9 2fbf fceb 3fbf c565 cbbe
000000c0: 2dc2 073f 556b 34bd 61e0 f3be dbab 12bf
000000d0: 2b28 013d ec67 5cbf acf3 6abf 188d bbbe
000000e0: 4afc d8be ad14 d2be e31e 58bf 718b 2cbf
000000f0: bce6 37bf 4545 d8be 2c03 2f3e 9725 73bf
00000100: 035e d2be 6df7 83bf eb4a 62bd f059 70bf
00000110: 1aa6 9ebe da0f 6cbf 61d8 86bf 2297 acbe
00000120: 5d90 ffbe 4969 37bf ebf5 73bf 2d0f 9abf
00000130: 5f22 40be d20c 7ebf 58a8 07bf 2224 f3be
00000140: efcd cb3e bda8 303e 40b6 85be 5cdd 2ebf
00000150: 10e3 24bf b018 ce3d c394 81bf cfa6 9fbe
00000160: 0f82 7cbf 12bf 22bf 74b8 1dbf 5f4c 55bf
00000170: a7e5 b5be 73d3 553e 1ca5 5fbf 77bd 38bf
00000180: f89d 2abf ea5f b7be 16d2 21bf d1f1 debe

layers_q1.2.weight f4 [100, 100]
-0.04295194 -0.38267207 0.108253434 -0.35374302 0.11207302 0.06516276 -0.081789955 -0.3371947
-0.2121673 -0.10932579 -0.20187463 -0.18004137 -0.16146468 -0.027373657 -0.007471638 -0.3059886
-0.49078318 -0.10082865 -0.4279661 -0.022807913 -0.7635888 -0.1153419 -0.23521686 -0.05772032
0.16450119 -0.8295906 0.014800781 0.060676448 -0.20416632 0.03979469 0.14895369 -0.037812456
-0.155186 0.1180868 -0.36910385 -0.053347565 0.07450945 -0.20099322 -0.23838864 -0.4366965
-0.018929118 0.18183528 0.020601299 -0.3282447 -0.33088854 -0.075163186 -0.15239657 -0.09936734
-0.106738485 0.037016615 -0.099876635 0.06459075 -0.19439149 -0.0651424 -0.21355289 -0.26235452
-0.00095428486 -0.16473831 -0.2586079 0.051402353 -0.1667922 -0.20448609 -0.14728014 0.050309207
0.08573311 0.0024293382 -0.53953063 -0.27696013 -0.18632472 -0.35206512 -0.041363303 -0.3072454
-0.46877447 -0.048575323 -0.6692629 0.00026076467 -0.12722832 -0.32704473 -0.035290383 -0.45996746
0.016070584 -0.23939462 -0.2903792 -0.14914964 -0.041393578 -0.273605 0.086295374 -0.13791616
-0.07636656 -0.19430332 -0.14387295 -0.7601468 0.06294205 0.09728897 -0.4148826 -0.7163744
-0.3105676 -0.1660082 -0.26438618 0.06542785 0.12354991 -0.08276635 0.004878181 -0.04405912
-0.09681624 0.07379068 0.008974185 -0.030516911 0.10592241 0.052695706 -0.13009642 0.105416104
-0.042134028 -0.19917172 -0.0522947 -0.11500296 -0.09451959 0.09142789 -0.0691154 0.20722972
-0.27780572 -0.11796733 -0.16700645 -0.07389393 0.09059933 -0.18807761 -0.038699776 -0.012412237
-0.16514903 -0.3403771 -0.13493653 -0.2658237 -0.24071482 -0.030363018 -0.12091354 0.030899484
0.03454419 -0.1993934 -0.2312089 -0.29375795 -0.05337153 0.0015156724 0.0061241817 -0.08166395
-0.09125893 0.062360924 -0.20328026 -0.08788616 -0.1297875 -0.11439477 -0.13290955 -0.0028351475
-0.09750436 -0.09440445 -0.08523819 -0.15278047 -0.06731142 0.022313302 -0.058663975 -0.09568366
0.039642125 -0.24788956 -0.12504692 -0.079504624 0.02279629 -0.0623519 -0.20229864 -0.24343753
0.0028237388 -0.296725 -0.0103670545 -0.147529 -0.009792636 -0.017265448 0.09413897 -0.09526778
-0.138712 -0.020128451 -0.023202218 0.070961066 0.09161145 -0.2633392 -0.22298521 0.09273542
0.13550623 -0.0589826 -0.08660619 0.120668024 -0.009548262 0.04287002 -0.054779354 0.17272182
-0.05712797 -0.07387632 0.011699017 -0.21229109 -0.07269986 -0.044041857 -0.14706543 0.038711444
0.031952176 -0.10796841 -0.29276922 -0.81608254 0.56138444 -1.0906171 -0.0017722836 -0.46439904
-0.14823553 -0.38126165 -0.52418846 -0.33101147 0.56175315 0.07073491 0.20976782 -0.05706687
-0.35466337 -0.39998534 -0.26787412 0.32967106 -0.14052609 -1.3995636 0.6667582 0.4989763
0.2080225 0.12835082 -0.32359752 -0.14542048 -0.7071752 -0.07954403 0.76603574 0.15278785
0.10235685 0.0900072 0.36794916 -0.54880387 0.107865535 0.40494487 0.15870667 0.29487544
-0.32776296 -0.8590698 0.54078853 0.73123765 0.27291825 0.6356101 0.693346 -0.3996778
-0.5140012 -0.50696206 0.30343643 -1.1431801 0.108150154 0.15100698 0.83645725 -0.32035142
00000000: 60ee 2fbd 98ed c3be fab3 dd3d ce1d b5be
00000010: 8a86 e53d 0e74 853d 7e81 a7bd c9a4 acbe
00000020: 6242 59be 33e6 dfbd 39b8 4ebe c45c 38be
00000030: ff56 25be b83e e0bc a4d4 f4bb 8aaa 9cbe
00000040: ef47 fbbe 407f cebd 5f1e dbbe a9d7 babc
00000050: 8e7a 43bf 6038 ecbd b0dc 70be 246c 6cbd
00000060: 0073 283e 0d60 54bf fa7e 723c de87 783d
00000070: fa10 51be c2ff 223d 5187 183e 3ce1 1abd
00000080: 14e9 1ebe 7ed7 f13d 2efb bcbe fa82 5abd
00000090: 6998 983d 2bd1 4dbe 271c 74be af96 dfbe
000000a0: 3d11 9bbc 0733 3a3e 0ec4 a83c b00f a8be
000000b0: 396a a9be 28ef 99bd d90d 1cbe 1b81 cbbd
000000c0: b599 dabd bc9e 173d 1f8c ccbd 2848 843d
000000d0: 900e 47be 6169 85bd 9cad 5abe 5553 86be
000000e0: f928 7aba 29b1 28be 4168 84be 468b 523d
000000f0: 93cb 2abe cd64 51be 9bd0 16be 0711 4e3d
00000100: d794 af3d 8835 1f3b ae1e 0abf b8cd 8dbe
00000110: e8cb 3ebe e141 b4be 916c 29bd 454f 9dbe
00000120: 3503 f0be ebf6 46bd d054 2bbf 3eb7 8839
00000130: 2448 02be 6872 a7be a68c 10bd db80 ebbe
00000140: 75a6 833c dd23 75be 95ac 94be afba 18be
00000150: 508c 29bd f415 8cbe a1bb b03d e539 0dbe
00000160: 1266 9cbd 73f7 46be 6e53 13be fb98 42bf
00000170: c3e7 803d 713f c73d 7e6b d4be 5064 37bf
00000180: b702 9fbe 0efe 29be a05d 87be 09ff 853d
00000190: bc07 fd3d 6781 a9bd 26d9 9f3b 5677 34bd
000001a0: 9847 c6bd 911f 973d 7608 133c 9afe f9bc
000001b0: d9ed d83d 74d7 573d ff37 05be 66e4 d73d
000001c0: bb94 2cbd acf3 4bbe f832 56bd ac86 ebbd
000001d0: 7d93 c1bd 8c3e bb3d 608c 8dbd 0734 543e
000001e0: 8d3c 8ebe db98 f1bd bd03 2bbe b355 97bd
000001f0: 248c b93d 6b97 40be a883 1ebd b25c 4bbc
00000200: d41c 29be e845 aebe cd2c 0abe 0b1a 88be
00000210: f27d 76be ddbb f8bc 85a1 f7bd ea20 fd3c
00000220: 357e 0d3d c92d 4cbe 07c2 6cbe 7167 96be
00000230: 1b9c 5abd 87a9 c63a 5cad c83b 6e3f a7bd
00000240: f6e5 babd 2b6e 7f3d b328 50be a9fd b3bd
00000250: 04e7 04be ce47 eabd 7119 08be e2cd 39bb
00000260: 5eb0 c7bd 1f57 c1bd 5c91 aebd 7c72 1cbe
00000270: 92da 89bd 63ca b63c a349 70bd cbf5 c3bd
00000280: c85f 223d c3d6 7dbe 4d0c 00be 52d3 a2bd
00000290: 49bf ba3c b564 7fbd 6027 4fbe b047 79be
000002a0: 7a0e 393b 57ec 97be 94da 29bc d811 17be
000002b0: 4b71 20bc 4570 8dbc efcb c03d c11b c3bd
000002c0: 850a 0ebe 6ce4 a4bc 9412 bebc 0954 913d
000002d0: c99e bb3d 65d4 86be 3c56 64be 11ec bd3d
000002e0: 25c2 0a3e bd97 71bd 965e b1bd cc20 f73d
000002f0: 5070 1cbc 7998 2f3d 5160 60bd fddd 303e
00000300: 05ff 69bd 784c 97bd 3cad 3f3c d662 59be
00000310: aae3 94bd 3c65 34bd 5298 16be e48f 1e3d
00000320: 49e0 023d 8b1e ddbd d9e5 95be c9ea 50bf
00000330: e4b6 0f3f 5799 8bbf f84b e8ba b6c5 edbe
00000340: 0ecb 17be ba34 c3be 3731 06bf 567a a9be
00000350: 0ecf 0f3f 77dd 903d 60cd 563e f3be 69bd
00000360: 7096 b5be e1ca ccbe cc26 89be a5ca a83e
00000370: 12e6 0fbe e624 b3bf aab0 2a3f d279 ff3e
00000380: da03 553e 666e 033e 93ae a5be 1be9 14be
00000390: 6f09 35bf fbe7 a2bd eb1a 443f 6b74 1c3e
000003a0: 78a0 d13d b255 b83d d563 bc3e 697e 0cbf
000003b0: 9be8 dc3d ef54 cf3e 0084 223e eaf9 963e
000003c0: 8cd0 a7be 00ec 5bbf 1e71 0a3f 6432 3b3f
000003d0: f1bb 8b3e 58b7 223f 207f 313f 92a2 ccbe
000003e0: 9595 03bf 44c8 01bf 055c 9b3e ba53 92bf
000003f0: d47d dd3d 93a1 1a3e 1022 563f 1a05 a4be

layers_q1.2.bias f4 [100]
-0.27123883 -0.18598129 0.08826843 -0.42165098 -0.92109144 -0.76295406 -0.8757063 -0.24103525
-0.61358464 -0.8061273 -0.8214442 -0.8471451 -0.9450336 -0.03855393 -0.57190883 -0.17229187
-0.3682111 -0.26457655 -0.158386 1.6170758 -0.2052718 0.32169375 -0.6492265 -0.1684983
-0.11217449 -0.7170873 -0.34635448 -0.48950148 -0.18453455 -0.17948514 -0.23692255 -0.28482854
0.13991004 -0.07726474 -0.17519383 -0.6654046 -0.35870185 -0.5979142 0.8182678 -0.81901777
1.9911114 -0.80534697 0.028290395 -0.33684126 -1.0499603 -0.38105905 -0.6619929 -0.69774395
1.2965081 -0.6700343 -0.425868 -0.4397207 -0.14758621 -0.03360601 -0.17470571 0.28438875
0.17543393 -0.47774968 1.233545 -0.6483907 -0.33555532 -0.6655268 -0.100496456 -0.15392047
0.034808025 -0.1343134 -0.09442258 -0.07723634 0.16353738 -0.23321149 -0.24271224 0.43208206
0.16028865 0.3232068 -0.34790865 0.6843498 -0.33886996 -0.3472675 -0.17379732 -0.116063476
-0.38731477 -0.81187886 -0.21054755 -0.11138472 -0.1548191 0.35346308 0.016276648 1.5433837
-0.17957269 -0.9870167 -0.21931335 -0.664408 -0.4050114 -0.35655224 -0.84775794 -0.21114627
-0.8878358 1.4132687 -1.1479881 -0.2622712
00000000: d1df 8abe e171 3ebe 14c6 b43d a3e2 d7be
00000010: a6cc 6bbf f550 43bf 4a2e 60bf f2d1 76be
00000020: e213 1dbf 5c5e 4ebf 2b4a 52bf 80de 58bf
00000030: b9ed 71bf baea 1dbd 9e68 12bf 486d 30be
00000040: 2a86 bcbe 9476 87be f12f 22be 57fc ce3f
00000050: c532 52be 0bb5 a43e b533 26bf d18a 2cbe
00000060: bdbb e5bd 0993 37bf 6055 b1be f09f fabe
00000070: a0f6 3cbe f4ca 37be d39b 72be 0cd5 91be
00000080: 9444 0f3e fa3c 9ebd 0366 33be f557 2abf
00000090: c5a7 b7be e810 19bf 007a 513f 26ab 51bf
000000a0: bddc fe3f 382b 4ebf 42c1 e73c 7576 acbe
000000b0: 1965 86bf 2c1a c3be 5e78 29bf 599f 32bf
000000c0: faf3 a53f 5e87 2bbf 5f0b dabe 1223 e1be
000000d0: d720 17be 75a6 09bd 0ee6 32be 679b 913e
000000e0: f4a4 333e 9b9b f4be cde4 9d3f effc 25bf
000000f0: e8cd abbe f75f 2abf 16d1 cdbd 549d 1dbe
00000100: dc92 0e3d 7489 09be a060 c1bd 162e 9ebd
00000110: 5876 273e fece 6ebe 8f89 78be dc39 dd3e
00000120: b522 243e 5d7b a53e 1521 b2be 8c31 2f3f
00000130: 5d80 adbe 0ccd b1be edf7 31be b0b2 edbd
00000140: 1f4e c6be 4bd7 4fbf c799 57be ac1d e4bd
00000150: e688 1ebe 1df9 b43e 9b56 853c 998d c53f
00000160: e7e1 37be 20ad 7cbf ae93 60be a516 2abf
00000170: a75d cfbe 048e b6be aa06 59bf ba36 58be
00000180: 3549 63bf fde5 b43f 46f1 92bf 6948 86be

layers_q1.4.weight f4 [1, 100]
-0.23333682 0.025382366 0.07799698 0.018200532 -0.063315935 -0.18993062 -0.19159737 -0.029325206
-0.056265503 0.01538053 -0.9472107 0.02474422 -0.09122227 -0.030272398 0.062242165 0.022878759
-0.23034629 -0.03895371 -0.0062553235 0.1323746 0.026029892 0.094648756 -0.007049607 -0.011189339
-0.022367144 0.002175277 -0.011943368 -0.065110095 -0.17475735 -0.09864223 -0.08042956 0.10110917
0.059587184 0.03629395 -0.014348414 -0.09052989 -0.058104973 -0.036611445 0.05701756 0.013850145
0.11826639 -0.099021144 0.07534573 -0.051470216 0.021512203 0.05685256 -0.06292604 -0.040906128
0.083732516 -0.00728774 -0.26336515 0.016186042 0.009357152 0.052192025 -0.23657115 0.08232922
-0.058641326 0.079711914 0.102937125 -0.022510145 0.028556908 -0.07296942 -0.020695277 0.017793236
-0.10255277 -0.012484575 -0.029946389 0.009173072 -0.1564597 -0.11574835 -0.021448003 0.047100425
-0.12893882 0.06143835 0.014512777 0.10384513 -0.124627784 0.0085303625 -0.14678138 -0.12744465
-0.072069116 0.06002735 0.016102696 -0.018667255 -0.006291206 0.11779719 -0.034168724 0.037254035
-0.058932625 0.019549921 0.003786621 0.109650224 -0.015753184 -0.009853897 -0.0560801 -0.10494506
-0.08899301 0.07470546 -0.3334169 0.15505064
00000000: d9ef 6ebe aeee cf3c e1bc 9f3d 4819 953c
00000010: c9ab 81bd 2c7d 42be 1a32 44be 6a3b f0bc
00000020: a876 66bd 9efe 7b3c 677c 72bf 64b4 ca3c
00000030: bed2 babd d2fd f7bc a4f1 7e3d 3c6c bb3c
00000040: e6df 6bbe ed8d 1fbd 75f9 ccbb 358d 073e
00000050: a43c d53c 35d7 c13d 6400 e7bb 7d53 37bc
00000060: 4d3b b7bc 188f 0e3b 1eae 43bc 7158 85bd
00000070: 97f3 32be f004 cabd 41b8 a4bd 5312 cf3d
00000080: b111 743d f7a8 143d 9c15 6bbc bc67 b9bd
00000090: 7bff 6dbd e2f5 15bd 3f8b 693d b8eb 623c
000000a0: a635 f23d 99cb cabd dd4e 9a3d 6fd2 52bd
000000b0: 5c3a b03c 3bde 683d 5edf 80bd 2f8d 27bd
000000c0: f47b ab3d fecd eebb ccd7 86be 9798 843c
000000d0: bd4e 193c 4ec7 553d b53f 72be 399c a83d
000000e0: e331 70bd 0040 a33d b3d0 d23d 3267 b8bc
000000f0: 2df0 e93c fe70 95bd 2489 a9bc 1fc3 913c
00000100: 3007 d2bd 1a8c 4cbc 2152 f5bc a74a 163c
00000110: f936 20be 790d edbd b9b3 afbc 60ec 403d
00000120: 8a08 04be c7a6 7b3d 00c7 6d3c c1ac d43d
00000130: da3c ffbd efc2 0b3c dc4d 16be da80 02be
00000140: f998 93bd 3ddf 753d cde9 833c 12ec 98bc
00000150: 7626 cebb a73f f13d 81f4 0bbd b097 183d
00000160: 5663 71bd 2827 a03c f528 783b 4c90 e03d
00000170: d20c 81bc 3d72 21bc 3fb4 65bd 70ed d6bd
00000180: f841 b6bd 2dff 983d 9fb5 aabe 98c5 1e3e

layers_q2.0.weight f4 [100, 18]
0.3170776 0.16717434 -0.021345206 0.09544174 0.032910023 0.038613245 0.01502676 -0.28554544
0.07570143 -0.042891715 0.09104557 0.018311542 -0.054924786 -0.015599249 -0.16018084 0.116294
0.11159595 -0.12484704 0.9191211 0.21215077 -0.474573 -0.7915657 0.2366614 0.26581436
-0.2961624 -0.15896527 0.7752525 -1.0040798 -0.71320075 -0.25754988 0.68144685 -0.83780944
-0.22071178 -0.17872714 -0.38895383 -0.6171047 0.8093722 -0.74565274 -0.2731217 -0.88264287
-0.23515941 -0.02620935 0.027281087 0.2193075 -0.18200268 -0.09844193 -0.07494451 0.039578382
0.42506668 0.033381157 -0.732657 0.48441142 -0.75090396 -0.1201023 -0.8960158 -0.13863769
0.21687841 -0.3015774 -0.42129776 0.027401336 0.019695964 -0.33319327 0.11142464 0.88750345
1.6990634 1.2390839 -0.37619132 0.42702812 -0.28709793 0.14098285 -0.55887985 0.25052264
-1.3971096 -0.10540177 0.46446317 -0.079790406 0.17155518 -0.058393564 0.06297787 0.00654457
-0.09866003 1.7100033 0.42417908 0.31996363 1.5253824 -1.0576456 -0.57235897 -0.37547684
-1.1702535 -1.2575859 -0.064705856 -0.29117897 1.6402963 -1.6661096 0.36869237 0.0069918223
-0.008386705 -0.030308578 -0.012801202 0.07709479 0.4397966 0.1703098 -0.19454724 0.20693967
0.16351432 -0.18083079 0.19588651 0.4508266 -0.43107715 -0.58983815 -0.106252395 -1.1829658
0.46973577 0.042740133 -0.120796375 -0.49946648 0.5426721 -0.23174049 0.6044329 0.49649012
1.0468792 0.21862288 -0.41703293 -0.034068186 0.019066842 -0.400329 -0.47230583 -0.089067
0.2844261 -1.3457196 0.8030066 0.0501913 -0.03542423 -0.3980528 0.11379309 1.1699377
-0.62006557 -0.008319844 0.6072684 -1.0222021 -0.34407127 0.0978887 -0.5932308 -0.5128204
0.07845546 -1.4885094 0.21007732 -0.10964327 1.463313 0.03151626 0.035165273 0.8395712
-0.027349308 0.061234705 -0.04084376 -0.1325165 -0.5209434 0.6362941 -0.45435983 0.8238691
-0.45649594 0.4400737 -0.018103793 0.052558344 -0.31901574 1.6327113 0.48399404 -0.038535517
-0.003704826 -0.017341089 -0.36583304 -0.62785465 0.23440753 -0.36200237 0.91319275 0.60496616
-0.25458214 0.703983 -0.45611563 -0.31647277 0.14709334 0.05511033 -1.5982481 1.5948102
-0.09784967 0.01895775 -0.02286897 -0.016860755 0.05653698 -0.09536673 0.16854462 0.14442046
0.20200434 0.26409513 0.17805511 -0.22053175 0.11550855 0.25913396 0.79259247 0.034907635
-0.5595692 1.0985765 0.29764766 0.015732922 0.039431587 0.4741404 -0.1580005 -0.056225758
0.012879648 -0.085297436 -0.14577469 1.4747291 0.24804057 0.8368828 0.31702447 0.49540734
0.13376878 0.07615916 -0.09753945 -0.49415424 -0.16668987 0.005170199 0.040596936 0.024126917
0.056000695 -1.3179926 -0.8075394 -0.6094191 0.018219221 0.18778159 -0.5311758 -0.13349625
-0.36802444 -0.4526535 -1.0395534 -0.16218054 0.41965938 -0.8964347 0.42742565 0.08743851
-0.022896208 -0.2145463 0.17389412 -0.27072933 -0.39996472 0.16984868 1.8474424 -0.66264397
-0.33143967 -0.026602564 -1.2555959 -0.8607105 0.55084234 0.8853679 0.47083318 0.17671663
00000000: ff57 a23e c02f 2b3e 24dc aebc f576 c33d
00000010: a9cc 063d ec28 1e3d cd32 763c 0333 92be
00000020: 5a09 9b3d 39af 2fbd 1a76 ba3d 1602 963c
00000030: d0f8 60bd fe93 7fbc 7206 24be 8c2b ee3d
00000040: 6b8c e43d ceaf ffbd 854b 6b3f 0d3e 593e
00000050: 3bfb f2be 0da4 4abf 5e57 723e d218 883e
00000060: 99a2 97be cbc7 22be f376 463f b085 80bf
00000070: 5394 36bf 94dd 83be 4d73 2e3f ae7a 56bf
00000080: 4502 62be 3f04 37be f524 c7be 93fa 1dbf
00000090: 0433 4f3f 19e3 3ebf 9cd6 8bbe e2f4 61bf
000000a0: a1cd 70be feb4 d6bc 967c df3c 2592 603e
000000b0: e95e 3abe ec9b c9bd 827c 99bd f11c 223d
000000c0: 57a2 d93e aeba 083d 698f 3bbf c604 f83e
000000d0: 3e3b 40bf 32f8 f5bd 4b61 65bf 0af7 0dbe
000000e0: 6015 5e3e 5a68 9abe 57b4 d7be c478 e03c
000000f0: 6e59 a13c 4f98 aabe 9a32 e43d 6d33 633f
00000100: e97a d93f 4d9a 9e3f 269c c0be 6ea3 da3e
00000110: 80fe 92be cf5d 103e c012 0fbf 8144 803e
00000120: 7dd4 b2bf e2dc d7bd 1ece ed3e 2769 a3bd
00000130: 29ac 2f3e 172e 6fbd 8bfa 803d d573 d63b
00000140: 450e cabd 63e1 da3f 002e d93e 46d2 a33e
00000150: bb3f c33f ee60 87bf 1e86 12bf 803e c0be
00000160: deca 95bf 93f8 a0bf 8184 84bd 6915 95be
00000170: 3bf5 d13f 1443 d5bf 3fc5 bc3e a81b e53b
00000180: 6468 09bc b249 f8bc 22bc 51bc e0e3 9d3d
00000190: 052d e13e b165 2e3e 6437 47be fee7 533e
000001a0: 4c70 273e b52b 39be 7996 483e bed2 e63e
000001b0: 25b6 dcbe a2ff 16bf db9a d9bd 6c6b 97bf
000001c0: 3581 f03e 4710 2f3d 1764 f7bd 12ba ffbe
000001d0: 8fec 0a3f 614d 6dbe 1dbc 1a3f f433 fe3e
000001e0: 2300 863f adde 5f3e 5785 d5be 158b 0bbd
000001f0: 1132 9c3c ecf7 ccbe 12d2 f1be c268 b6bd
00000200: 4ca0 913e 8a40 acbf d791 4d3f 6595 4d3d
00000210: ff18 11bd 94cd cbbe 5a0c e93d 85c0 953f
00000220: 9ebc 1ebf f44f 08bc f175 1b3f 85d7 82bf
00000230: 1c2a b0be df79 c83d f9dd 17bf 3348 03bf
00000240: 42ad a03d 7a87 bebf 821e 573e a78c e0bd
00000250: d74d bb3f 3217 013d 7609 103d 23ee 563f
00000260: a80b e0bc 3ed1 7a3d c94b 27bd 68b2 07be
00000270: 8c5c 05bf 2ce4 223f daa1 e8be 16e9 523f
00000280: d6b9 e9be 5751 e13e 684e 94bc 6b47 573d
00000290: 0856 a3be affc d03f 11ce f73e 6bd7 1dbd
000002a0: abcc 72bb e60e 8ebc 784e bbbe 15bb 20bf
000002b0: 8708 703e 6058 b9be 00c7 693f 10df 1a3f
000002c0: 9758 82be 3b38 343f fd87 e9be b808 a2be
000002d0: a39f 163e 5fbb 613d 6593 ccbf be22 cc3f
000002e0: 6865 c8bd 494d 9b3c b557 bbbc 911f 8abc
000002f0: 5293 673d a24f c3bd f696 2c3e f5e2 133e
00000300: 3ada 4e3e 7a37 873e 1454 363e 13d3 61be
00000310: bf8f ec3d 35ad 843e 57e7 4a3f 4ffb 0e3d
00000320: ed3f 0fbf 289e 8c3f 4665 983e 54e2 803c
00000330: 0483 213d 88c2 f23e e2ca 21be fb4c 66bd
00000340: 2905 533c 6cb0 aebd f645 15be ecc3 bc3f
00000350: 59fe 7d3e f43d 563f 0851 a23e 08a6 fd3e
00000360: affa 083e 55f9 9b3d c3c2 c7bd c901 fdbe
00000370: c0b0 2abe c66a a93b f948 263d d0a5 c53c
00000380: fc60 653d fbb3 a8bf e7ba 4ebf e402 1cbf
00000390: 7a40 953c d149 403e 23fb 07bf 3eb3 08be
000003a0: b36d bcbe 33c2 e7be 1610 85bf a812 26be
000003b0: 98dd d63e bf7c 65bf 89d7 da3e f612 b33d
000003c0: d490 bbbc 06b2 5bbe 4d11 323e 099d 8abe
000003d0: 2dc8 ccbe d0ec 2d3e fe78 ec3f 09a3 29bf
000003e0: 76b2 a9be 9fed d9bc 5eb7 a0bf 8657 5cbf
000003f0: 0104 0d3f 78a7 623f 0c11 f13e 34f5 343e

layers_q2.0.bias f4 [100]
-0.6900816 -0.537096 -0.8455294 -0.6805238 -0.33652607 -1.0321741 -0.33336204 -0.13537602
-1.1818262 -0.7376044 -0.40234363 -0.7129066 -0.39265156 -0.37225112 -0.7193173 -1.0242759
-0.101329185 -1.077786 -0.5996047 -0.48588267 -0.16270529 -0.5902224 -0.83601683 0.0543702
-0.018583292 -0.5857403 -0.73452497 -0.8080958 -0.9276512 -0.958106 -0.9031219 -0.5839174
0.0036579617 0.5530668 -1.0629917 -0.10537152 -0.44592744 -0.826985 -0.8622032 -0.8642618
-0.52368665 -0.53901964 -0.4631988 -0.7585429 -0.9031545 -0.9709906 -0.4735816 -0.53555137
-0.8307845 0.27684894 -0.35684642 -0.23469329 -0.5868422 -0.71836823 -0.86212605 0.22366722
-0.24644355 -0.38750932 0.22927178 -1.0618111 -0.4438457 0.6394836 -0.29162297 -0.36074764
-1.1398785 0.12384958 -0.39357275 -0.78284645 -0.81012523 -0.66207874 -0.2545842 0.4060408
0.14448886 -0.0030314473 -0.46532968 -0.76352596 -0.21847124 -1.038784 -0.42736423 0.6568601
-0.4266153 -0.29387057 -0.28147277 0.60679895 -0.6529614 -0.8446388 -0.5950116 -0.39617655
-0.40820533 0.31205824 0.40864986 -0.4980332 -0.8802927 0.25736827 -0.55214465 -0.6372291
-0.9977534 -0.78279173 -0.4438467 -0.2744978
00000000: 30a9 30bf 207f 09bf 9d74 58bf cf36 2ebf
00000010: 254d acbe 481e 84bf 6eae aabe 03a0 0abe
00000020: 1546 97bf a4d3 3cbf fcff cdbe 0c81 36bf
00000030: a009 c9be b397 bebe 2e25 38bf 791b 83bf
00000040: ad85 cfbd e4f4 89bf b27f 19bf 9dc5 f8be
00000050: 379c 26be d118 17bf 3305 56bf 49b3 5e3d
00000060: fd3b 98bc 14f3 15bf d409 3cbf 5edf 4ebf
00000070: 8d7a 6dbf 6f46 75bf ff32 67bf 9c7b 15bf
00000080: 6aba 6f3b c995 0d3f 1d10 88bf 06cd d7bd
00000090: 9a50 e4be 4ab5 53bf 59b9 5cbf 4340 5dbf
000000a0: 5410 06bf 31fd 09bf 6528 edbe de2f 42bf
000000b0: 2235 67bf d792 78bf 4a79 f2be e519 09bf
000000c0: 4bae 54bf 25bf 8d3e 93b4 b6be 7053 70be
000000d0: 4a3b 16bf fbe6 37bf 4bb4 5cbf 0509 653e
000000e0: b35b 7cbe 9f67 c6be 39c6 6a3e 6de9 87bf
000000f0: be3f e3be 32b5 233f 9b4f 95be eab3 b8be
00000100: 8ae7 91bf d9a4 fd3d 5e82 c9be a068 48bf
00000110: 5e64 4fbf fe7d 29bf dc58 82be 94e4 cf3e
00000120: e3f4 133e 3fab 46bb b13f eebe 7076 43bf
00000130: edb6 5fbe e0f6 84bf 7ccf dabe fc27 283f
00000140: 526d dabe 3476 96be 331d 90be 2d57 1b3f
00000150: 7a28 27bf 403a 58bf ae52 18bf a7d7 cabe
00000160: 4a00 d1be 19c6 9f3e 8e3a d13e 35fe febe
00000170: dd5a 61bf c6c5 833e 5a59 0dbf 7221 23bf
00000180: c46c 7fbf 0a65 48bf e03f e3be fa8a 8cbe

layers_q2.2.weight f4 [100, 100]
-0.08594916 -0.069803275 -0.112104654 -0.10366008 -0.09660067 -0.1400753 0.0089126 -0.060298927
-0.15878555 0.05024363 -0.109905876 -0.07200481 -0.032634787 -0.12585175 -0.11454598 -0.023234755
-0.11495382 0.0032837957 0.036161896 -0.081771284 -0.10347799 -0.07618429 -0.13841812 -0.10521262
-0.060427185 -0.11878711 -0.111657314 -0.061413955 -0.0023396325 0.026446788 0.018101683 -0.018091945
-0.10167664 0.027634248 -0.07650469 -0.049587127 0.013885543 0.0069468534 -0.13912609 -0.03955039
-0.080900624 0.064352676 -0.0891817 -0.10015458 -0.15275705 -0.010519897 0.049989436 0.036183167
-0.01713886 -0.033757906 0.018353352 -0.0590281 0.083840445 -0.13181175 -0.06275434 -0.031655278
-0.100933574 -0.099653475 -0.06631945 -0.005142865 -0.0937547 -0.01131968 0.0042016245 0.057122614
-0.0919559 -0.055791046 -0.0055316444 -0.018297186 -0.0432023 0.014608244 -0.010384731 -0.046945967
0.016145665 0.027914323 0.023917105 0.02927842 -0.0599362 -0.05479132 -0.045137864 -0.12786242
-0.17043386 -0.04716997 -0.00692945 0.003337526 0.019580334 -0.11988045 -0.017278139 -0.077493876
-0.020154066 0.009247435 0.018798847 0.04095932 -0.07318382 -0.016327376 -0.029038876 -0.10131351
0.018244121 0.048576336 -0.077783816 -0.089530624 0.06652609 0.0098227635 -0.00018069119 -0.06680541
-0.17513075 -0.14614291 -0.0095031755 -0.026306491 -0.068299405 0.010870894 -0.090931274 -0.08553694
-0.036710102 0.037043747 -0.08075333 0.018179962 -0.09051255 -0.077445135 0.08453114 -0.079548806
0.007940451 0.039333038 -0.10208915 -0.07076305 0.06758097 -0.0010499171 -0.06244905 -0.062380612
-0.08872445 -0.0019175004 -0.15525948 -0.078731835 -0.1617363 -0.07877512 -0.045140732 -0.1600285
-0.046523124 -0.13343397 0.0036577561 0.11691981 -0.04741615 0.001314096 -0.11356004 0.044683266
-0.16367716 -0.1417774 -0.037717663 -0.05662618 0.043263305 0.007131908 0.020309936 -0.11643769
0.05258804 -0.020157382 -0.08663266 0.06649758 -0.08675853 -0.0045441715 0.011401894 -0.042189397
-0.06522188 -0.023014976 0.049760867 -0.11024482 -0.052497976 -0.1255395 -0.069646224 0.003897769
0.023614444 -0.038039993 -0.1406074 -0.050826356 0.043616455 -0.11195065 -0.021832803 0.0046330565
-0.027997034 -0.08581137 -0.10747007 0.01745345 -0.07370944 -0.05667601 -0.061690297 -0.05645052
-0.075573005 -0.03977965 -0.16651697 -0.0039904076 -0.0896826 -0.039744154 -0.041571807 -0.06951147
-3.291005e-05 -0.090218216 0.0011458482 0.025011532 -0.15546419 -0.11992532 -0.11774455 -0.08042496
0.14133479 0.0059765917 -0.17923243 -0.052925788 -0.09178042 -0.12574984 -0.16385442 -0.0022674557
-0.060013603 0.0493358 -0.074530415 -0.018233974 -0.035067905 0.090788625 -0.03536539 -0.053064324
-0.21030107 -0.06826652 -0.051430345 -0.13703 0.05200567 0.02629489 0.08139585 -0.17194663
-0.23677948 0.12412288 0.025231399 -0.28276518 -0.020182027 -0.064845294 -0.31163552 -0.12087735
-0.14395224 -0.07165556 -0.1602957 -0.2186642 -0.110410005 0.04151398 -0.090009235 -0.17919317
0.07899202 -0.08385657 -0.06343616 -0.3022669 -0.018050017 -0.22735734 -0.18827382 -0.33677435
0.112617664 0.04621339 -0.12681943 -0.028169991 -0.19766411 0.041151136 -0.056369327 -0.13252123
00000000: 1d06 b0bd 05f5 8ebd 2097 e5bd bc4b d4bd
00000010: 92d6 c5bd e66f 0fbe 2706 123c 02fc 76bd
00000020: ae98 22be 44cc 4d3d 5516 e1bd 4277 93bd
00000030: 0eac 05bd 48df 00be 1597 eabd d056 bebc
00000040: e96c ebbd f334 573b 7f1e 143d b477 a7bd
00000050: 45ec d3bd 8206 9cbd 7bbd 0dbe b779 d7bd
00000060: 7f82 77bd a846 f3bd 97ac e4bd 338d 7bbd
00000070: 8554 19bb efa6 d83c fb49 943c 8f35 94bc
00000080: d83b d0bd 3861 e23c 7eae 9cbd df1b 4bbd
00000090: 3080 633c 6ea2 e33b 1277 0ebe 97ff 21bd
000000a0: 3aaf a5bd 56cb 833d e5a4 b6bd d81d cdbd
000000b0: 586c 1cbe a55b 2cbc b9c1 4c3d cd34 143d
000000c0: cb66 8cbc bb45 0abd c559 963c 73c7 71bd
000000d0: 8ab4 ab3d a9f9 06be 5985 80bd f7a8 01bd
000000e0: 43b6 cebd 1f17 ccbd 7ed2 87bd 7a85 a8bb
000000f0: 7702 c0bd 2e76 39bc c8ad 893b 67f9 693d
00000100: 6053 bcbd 2785 64bd cc42 b5bb fbe3 95bc
00000110: e5f4 30bd 6b57 6f3c b824 2abc 6a4a 40bd
00000120: ea43 843c 94ac e43c ceed c33c 4cd9 ef3c
00000130: a97f 75bd dd6c 60bd 7be2 38bd 5eee 02be
00000140: 3786 2ebe 4c35 41bd 7110 e3bb 65ba 5a3b
00000150: f066 a03c e283 f5bd e28a 8dbc 1cb5 9ebd
00000160: 241a a5bc 8e82 173c 0a00 9a3c f6c4 273d
00000170: 66e1 95bd fdc0 85bc f0e2 edbc 757d cfbd
00000180: b274 953c fbf7 463d 1f4d 9fbd d55b b7bd
00000190: d53e 883d a8ef 203c ec77 3db9 46d1 88bd
000001a0: 7a55 33be 7da6 15be 35b3 1bbc b680 d7bc
000001b0: 8fe0 8bbd d61b 323c 2d3a babd fe2d afbd
000001c0: 555d 16bd 2fbb 173d 0062 a5bd 25ee 943c
000001d0: a55e b9bd 8e9b 9ebd aa1e ad3d 7cea a2bd
000001e0: aa18 023c ae1b 213d 1e14 d1bd 38ec 90bd
000001f0: e467 8a3d 5f9d 89ba 93ca 7fbd d082 7fbd
00000200: 2ab5 b5bd a354 fbba 57fc 1ebe 283e a1bd
00000210: 339e 25be da54 a1bd 7de5 38bd 83de 23be
00000220: 088f 3ebd eaa2 08be f7b6 6f3b a773 ef3d
00000230: 7037 42bd bf3d ac3a 2b92 e8bd cd05 373d
00000240: fc9a 27be 182e 11be d67d 1abd daf0 67bd
00000250: dd34 313d c8b2 e93b 0661 a63c e276 eebd
00000260: 8e66 573d 1821 a5bc 776c b1bd e22f 883d
00000270: 75ae b1bd 46e7 94bb 02cf 3a3c cace 2cbd
00000280: 0d93 85bd e789 bcbc 0dd2 4b3d 09c8 e1bd
00000290: 1e08 57bd 6d8d 00be aea2 8ebd b671 7f3b
000002a0: 1473 c13c d3cf 1bbd 63fb 0fbe 4c2f 50bd
000002b0: 2ba7 323d 6246 e5bd b5da b2bc e5d0 973b
000002c0: 095a e5bc dfbd afbd 4519 dcbd 8afa 8e3c
000002d0: faf4 96bd 1b25 68bd f7ae 7cbd a938 67bd
000002e0: 05c6 9abd fcef 22bd 6d83 2abe f7c1 82bb
000002f0: 83ab b7bd c4ca 22bd 3347 2abd 085c 8ebd
00000300: e608 0ab8 54c4 b8bd 4930 963a fce4 cc3c
00000310: 0132 1fbe 689b f5bd 0e24 f1bd d7b5 a4bd
00000320: 11ba 103e 49d7 c33b b588 37be b6c8 58bd
00000330: 5ff7 bbbd 91c4 00be 74c9 27be 9899 14bb
00000340: d3d0 75bd 5614 4a3d 67a3 98bd 6a5f 95bc
00000350: 5da3 0fbd 63ef b93d 4ddb 10bd fa59 59bd
00000360: 2a59 57be 51cf 8bbd a0a8 52bd 9851 0cbe
00000370: e603 553d 6268 d73c deb2 a63d c712 30be
00000380: 5276 72be 2334 fe3d 14b2 ce3c 99c6 90be
00000390: c754 a5bc 9ccd 84bd b18e 9fbe 8b8e f7bd
000003a0: 3768 13be 26c0 92bd 8e24 24be 82e9 5fbe
000003b0: a41e e2bd 900a 2a3d c356 b8bd 6a7e 37be
000003c0: 91c6 a13d febc abbd d1ea 81bd bac2 9abe
000003d0: a1dd 93bc 5dd0 68be daca 40be b06d acbe
000003e0: 17a4 e63d 404a 3d3d f4dc 01be c1c4 e6bc
000003f0: 7668 4abe 188e 283d 86e3 66bd a5b3 07be

layers_q2.2.bias f4 [100]
-0.14772214 -0.037092995 -0.086116515 -0.44927537 -0.32561585 -0.06335323 -0.5516232 1.3884554
-0.3332934 -0.92022693 -0.34856296 -0.1555684 -0.0014939387 0.102842085 0.8731606 -0.11662511
0.7283984 -0.10192667 -0.92570305 0.3044843 0.124961644 -0.077480614 -0.5908339 -0.020053826
-0.08429635 -0.13941747 -0.6512589 -0.050287332 -0.14153005 -0.06782813 -0.113758735 -0.14316414
-0.12722486 -0.30857038 -0.3185686 0.68678653 1.3683933 0.4875154 -0.12267869 0.64671886
-0.5035138 -0.40293795 -0.2543729 -0.4162222 -0.4032271 -0.09389707 1.1904513 -0.102365054
-0.10178084 -0.8989436 -0.15137468 -0.8171077 -0.120894656 -0.3483434 -1.001621 -0.60123974
-0.2654002 -0.69253486 -0.7473335 -0.4567793 -0.3222471 -0.0749767 -0.18915135 0.3778191
-0.3337785 -0.6639091 -0.7037107 -0.3739776 -0.9053475 -0.29864317 -0.5582325 -0.908233
0.08999443 -0.045705106 -0.77752453 -1.0095569 -0.09890939 1.2157279 -0.04028703 -0.6864141
-0.1426894 -0.55591446 -1.155642 -0.018039014 -0.5166641 -0.075612016 -0.18802519 0.81243485
-0.18372913 -0.34448007 -0.81696934 0.16303381 -0.26048633 -0.04344493 -0.30140957 -0.1343073
-0.41115484 0.07953898 -0.1790648 -0.23591202
00000000: 7944 17be d3ee 17bd db5d b0bd 6c07 e6be
00000010: 1fb7 a6be 57bf 81bd 2e37 0dbf e8b8 b13f
00000020: 6fa5 aabe fe93 6bbf d876 b2be 534d 1fbe
00000030: 44d0 c3ba df9e d23d 7487 5f3f 25d9 eebd
00000040: 5178 3a3f eebe d0bd e0fa 6cbf 5ee5 9b3e
00000050: e4eb ff3d 28ae 9ebd e440 17bf ec47 a4bc
00000060: 91a3 acbd 74c3 0ebe e7b8 26bf 17fa 4dbd
00000070: 41ed 10be 7ae9 8abd 57fa e8bd 9f99 12be
00000080: 3c47 02be f0fc 9dbe 6c1b a3be 3ed1 2f3f
00000090: 8327 af3f 9e9b f93e f73e fbbd 5e8f 253f
000000a0: 48e6 00bf e24d cebe 2a3d 82be 141b d5be
000000b0: c873 cebe 1b4d c0bd b560 983f c5a4 d1bd
000000c0: 7972 d0bd 2b21 66bf f701 1bbe f82d 51bf
000000d0: 9e97 f7bd 115a b2be 1e35 80bf d9ea 19bf
000000e0: 89e2 87be f749 31bf 4051 3fbf fade e9be
000000f0: 92fd a4be 628d 99bd e4b0 41be 8171 c13e
00000100: 04e5 aabe f2f5 29bf 6226 34bf fe79 bfbe
00000110: dbc4 67bf c2e7 98be 53e8 0ebf f581 68bf
00000120: 004f b83d 4735 3bbd d90b 47bf 2939 81bf
00000130: 0291 cabd f99c 9b3f 0304 25bd d6b8 2fbf
00000140: 2c1d 12be 6950 0ebf 14ec 93bf 8ec6 93bc
00000150: 1944 04bf 79da 9abd ad89 40be bbfb 4f3f
00000160: 7d23 3cbe b15f b0be e724 51bf 56f2 263e
00000170: 775e 85be 50f3 31bd 5b52 9abe da87 09be
00000180: e382 d2be 55e5 a23d c35c 37be ec92 71be

layers_q2.4.weight f4 [1, 100]
0.03885727 -0.0014981143 -0.027882941 0.01104311 -0.027075548 -0.039873205 -0.03621334 0.15059891
0.020251852 -0.097148575 -0.033139046 -0.02102024 0.020338047 0.031234866 0.08612465 -0.029513892
0.08369855 0.006123267 -0.05578967 0.09082139 -0.06580274 0.027033212 0.010242816 0.05328763
-0.019199496 0.051009204 0.04212719 -0.09227069 0.01765201 -0.0024429648 -0.028578123 0.005763958
-0.012308633 0.012593735 -0.13522838 -0.10637242 0.07441333 -0.047076236 0.029578343 0.06259456
0.025439525 0.064555675 -0.011747313 0.011862036 -0.024500003 -0.01656359 0.08678153 -0.14133486
0.06583199 0.13464755 -0.009769719 -0.100205235 -0.075743936 -0.0040660803 -0.053907797 -0.07966879
0.030194951 0.01658801 0.05981601 0.008110508 0.0021584686 0.13938558 0.013596562 -0.0244693
0.03242631 -0.23482676 0.00666489 0.0119678425 -0.12062358 -0.09346969 0.0149391 0.04985538
0.002365864 -0.015974505 0.019681096 0.02341759 0.02390867 0.095469356 -0.029708361 -0.010621555
-0.14789507 0.10960217 -0.12487072 0.0020048234 -0.12079927 0.00812477 0.014737049 0.06081242
-0.08756757 0.046431094 0.010490269 0.04607761 -0.26313797 -0.010034951 0.026708163 0.016186923
0.007170867 0.030821271 -0.0038150838 0.03429289
00000000: cd28 1f3d 605c c4ba c46a e4bc 29ee 343c
00000010: 8acd ddbc 1652 23bd 7054 14bd 9a36 1a3e
00000020: 36e7 a53c d5f5 c6bd cfbc 07bd a332 acbc
00000030: fa9b a63c 43e0 ff3c 1f62 b03d 1ec7 f1bc
00000040: 256a ab3d b0a5 c83b b683 64bd 9100 ba3d
00000050: 96c3 86bd c174 dd3c 7cd1 273c 2144 5a3d
00000060: 4348 9dbc 07ef 503d 8f8d 2c3d 6af8 bcbd
00000070: f39a 903c 261a 20bb ab1c eabc 96df bc3b
00000080: 26aa 49bc f455 4e3c 4f79 0abe c9d9 d9bd
00000090: 0466 983d 03d3 40bd 484e f23c 9431 803d
000000a0: 8d66 d03c c435 843d cd77 40bc fc58 423c
000000b0: 3bb4 c8bc 5eb0 87bc 84ba b13d 16ba 10be
000000c0: ecd2 863d 0ce1 093e 2c11 20bc 6738 cdbd
000000d0: a31f 9bbd c13c 85bb 6cce 5cbd 6429 a3bd
000000e0: 675b f73c 94e3 873c a201 753d f0e1 043c
000000f0: 1875 0d3b 18bb 0e3e 1dc4 5e3c d773 c8bc
00000100: 73d1 043d 6d76 70be 2665 da3b c514 443c
00000110: 7f09 f7bd 096d bfbd 20c3 743c 2835 4c3d
00000120: 9d0c 1b3b f7dc 82bc 403a a13c 3fd6 bf3c
00000130: 1ddc c33c 7085 c33d f35e f3bc 0806 2ebc
00000140: ce71 17be 1a77 e03d 38bc ffbd 5b63 033b
00000150: 9c65 f7bd c11d 053c aa73 713c 7216 793d
00000160: a056 b3bd 882e 3e3d 61df 2b3c e0bb 3c3d
00000170: 05ba 86be a369 24bc 14cb da3c 709a 843c
00000180: 98f9 ea3b e47c fc3c 7c06 7abb b476 0c3d
