Save/Trainings/MRL/2800000/critic_target.pt (torch, 100545 bytes, 10 tensors)

layers_q1.0.weight f4 [100, 18]
0	0xbec12c27	-0.37728998
1	0x3eca9768	0.3956864
2	0x3fce6402	1.612427
3	0x3de7ced0	0.11318743
4	0xbeee823c	-0.46583736
5	0xbc9516be	-0.01819932
6	0x3d8610c0	0.065461636
7	0xbf69df41	-0.91356283
8	0xbdeddc27	-0.11614256
9	0x3e05ea6a	0.13077703
10	0x3edc8626	0.43071097
11	0x3f47b7ea	0.78015006
12	0x3d00267f	0.031286713
13	0x3f6cd40b	0.9251105
14	0x3c63e268	0.01390896
15	0x3f0d6abb	0.5524098
16	0xbdeb38b3	-0.11485424
17	0x3f114d94	0.56759
18	0x3f96da26	1.1785324
19	0xbdd974d8	-0.10617989
20	0xbf9bb062	-1.2163203
21	0x3f0e7fe9	0.55663925
22	0x3f841f76	1.0322101
23	0x3ce13d7a	0.027495135
24	0xbd021d5e	-0.031766288
25	0x3e5ea828	0.21743834
26	0xbe692494	-0.2276786
27	0x3e22d500	0.15901566
28	0x3e821929	0.2540982
29	0x3e9fe9a8	0.31232953
30	0xbea1b1b2	-0.31580883
31	0xbd121abc	-0.035670027
32	0x3ecadddb	0.39622387
33	0x3e9b9751	0.30388883
34	0xbe324e62	-0.17412713
35	0x3f74e77a	0.95665705
36	0x3e62327b	0.2208957
37	0xbea2e10b	-0.3181232
38	0xbcd9959b	-0.026560595
39	0xbf396ebf	-0.7243461
40	0xbe677063	-0.22601466
41	0xbdb71d1d	-0.089411
42	0x3d431291	0.04762513
43	0xbe3807d1	-0.17971732
44	0x3fa02ca8	1.2513628
45	0xbf8d138c	-1.102159
46	0x3e6b3b16	0.22971758
47	0xbf4267ba	-0.75939524
48	0x3dc1d100	0.09463692
49	0x3e43b136	0.1911057
50	0xbf83a32f	-1.0284175
51	0x3d16ae80	0.03678751
52	0x3d41a38f	0.047275122
53	0x3f1cac63	0.6120054
54	0xbf1ef6ab	-0.62095135
55	0xbece0119	-0.40235212
56	0xbdf62b9a	-0.12020035
57	0xbf29d2ef	-0.66337484
58	0xbd9077f2	-0.07054128
59	0x3d5293e3	0.051410567
60	0xbb9edc9b	-0.0048480756
61	0xbf277973	-0.6541969
62	0xbd9272c2	-0.071507946
63	0x3e8c9984	0.27460873
64	0x3fb05f02	1.3778994
65	0x3f1849a5	0.5948737
66	0x3fb12c1c	1.3841586
67	0xbe9435bb	-0.28947243
68	0xbec6814b	-0.38770518
69	0xbdb7b3d1	-0.08969844
70	0xbf9abe9e	-1.2089422
71	0xbf6a0912	-0.9142009
72	0xbf8d98d3	-1.1062263
73	0x3e9a41c5	0.30128303
74	0x3e35b163	0.17743449
75	0xbbcb94a1	-0.0062127863
76	0x3e595f3f	0.2122774
77	0xbd50b3d6	-0.050952755
78	0xbd4293c3	-0.047504198
79	0xbe165901	-0.1468239
80	0xbf0a3acf	-0.53995985
81	0x3e44f846	0.19235334
82	0xbdb12594	-0.086497456
83	0xbda4026d	-0.08008275
84	0x406fde77	3.7479532
85	0xbe80eb62	-0.25179583
86	0xbf8e7467	-1.1129273
87	0x3e3981fa	0.18115988
88	0xbf283085	-0.65699035
89	0x3df287c7	0.11842304
90	0xbf5da4b7	-0.8657946
91	0x3d092671	0.033483926
92	0x3ea558c6	0.3229429
93	0xbe529f83	-0.20568661
94	0x3e7f3c42	0.2492533
95	0x3c4cb6b3	0.012494731
96	0xbc64a62b	-0.013955633
97	0xbe763c38	-0.24046409
98	0xbe5806fb	-0.21096413
99	0xbef02afd	-0.46907797
100	0xbd9f807e	-0.0778818
101	0xbed37832	-0.4130264
102	0x3f289f14	0.65867734
103	0x3fb801f1	1.4375592
104	0xbe8b74ea	-0.27237636
105	0x3e653e0b	0.22386949
106	0xbec1894f	-0.3780007
107	0x3d8abc24	0.06774166
108	0xbb251025	-0.0025186625
109	0xbf152edd	-0.5827463
110	0xbce1d9f4	-0.027569748
111	0x3d2541f9	0.04034612
112	0x3eae50fd	0.34046164
113	0x3cb17628	0.021662787
114	0x3cf224ad	0.029558504
115	0x3a8b5821	0.0010631123
116	0xc0356c47	-2.8347337
117	0xbc4d2cae	-0.0125228595
118	0x3eae6cf1	0.3406749
119	0xbe0e0dca	-0.13872448
120	0x3e57dc34	0.21080095
121	0xbde92b39	-0.11385197
122	0x3e327376	0.17426857
123	0x3e1838b9	0.14865388
124	0x3d629515	0.055317957
125	0xbeb1fa14	-0.34761107
126	0xbd8ca111	-0.068666585
127	0xbe7bcc44	-0.2458964
128	0xbd929893	-0.071580075
129	0xbfbebf37	-1.4902104
130	0x3e85b167	0.2611191
131	0x3d28efa8	0.04124418
132	0xba1ec0dd	-0.00060559605
133	0x3e6f2f3e	0.23357865
134	0xbceed996	-0.029156487
135	0x3cda97ed	0.026683772
136	0x3ed993fe	0.42495722
137	0x3efd9592	0.49528176
138	0x3d86fd87	0.06591325
139	0x3e260356	0.1621221
140	0xbd668f2d	-0.056288887
141	0xbe66ecea	-0.22551313
142	0xbd38e7e0	-0.04514301
143	0x3dd5b48e	0.10434829
144	0xbe92af35	-0.28649297
145	0x3e1c0c15	0.15238984
146	0xbcda01d1	-0.026612194
147	0xbd5adfb2	-0.05343599
148	0x3f66202b	0.89892834
149	0xbcfc1864	-0.03077335
150	0xbd0f5d34	-0.035000995
151	0xbe9a47be	-0.3013286
152	0x3d16772e	0.036734752
153	0x3e8da625	0.2766582
154	0xbf50b559	-0.81526715
155	0xbe6fc102	-0.2341347
156	0xbfb09907	-1.37967
157	0xbf13b5b6	-0.57699144
158	0xbe03a78d	-0.12856884
159	0x3f28ccef	0.65937704
160	0xbe819065	-0.25305477
161	0xbe4f9510	-0.20271707
162	0x3f9c8adb	1.2229875
163	0x3eba5e00	0.3639984
164	0xbf1151c1	-0.5676537
165	0x3f3cedcd	0.73800355
166	0x3f191783	0.598015
167	0x3cd96752	0.026538525
168	0xbc80691b	-0.015675118
169	0xbd902689	-0.070386
170	0x3e8982c6	0.26857585
171	0xbea039d0	-0.31294107
172	0x3e69c5be	0.22829339
173	0x3e64e5cf	0.2235329
174	0xbf1027d3	-0.56310767
175	0xbcae884a	-0.021305222
176	0x3d36c2b5	0.04461928
177	0x3e7d7c70	0.247545
178	0xbf200141	-0.62501913
179	0x3ecca225	0.39967456
180	0xbf3e9ab0	-0.74454784
181	0x3d5ecd38	0.05439493
182	0xbf93583f	-1.1511306
183	0x3f0999d9	0.5375038
184	0x3ec70c95	0.38876787
185	0xbcae5204	-0.021279342
186	0x3d757842	0.05992914
187	0xbec7b936	-0.39008492
188	0xbd317913	-0.043328356
189	0x3f3aa67c	0.72910285
190	0x3ecf5eb5	0.40501943
191	0x3eb98b1e	0.3623895
192	0x3f61afd7	0.88158935
193	0xbf87d74c	-1.0612578
194	0xbf0e9466	-0.5569519
195	0xbd835b9a	-0.06413956
196	0xbf2088a9	-0.62708527
197	0xbf182bb5	-0.5944169
198	0x3f541cb1	0.8285628
199	0x3f0c3d81	0.5478135
200	0x3f55d0a4	0.83521485
201	0x3e29e67e	0.16591832
202	0xbf1b3853	-0.6063282
203	0xbcb069c0	-0.0215348
204	0xbc88e9aa	-0.016712982
205	0xbe7894a5	-0.24275453
206	0xbd9a8880	-0.075455666
207	0x3d2f9254	0.04286416
208	0xbd9f726a	-0.077854946
209	0xbe863f34	-0.26220095
210	0x3eed4d3f	0.46347997
211	0x3f4e74f1	0.8064719
212	0xbeb717bb	-0.35760292
213	0x3f6f20be	0.93409336
214	0x3d012315	0.031527597
215	0x3f884b79	1.0648032
216	0xbf910437	-1.1329411
217	0xbd9b548d	-0.07584486
218	0x3e984a09	0.29743984
219	0xbd3f362c	-0.04668252
220	0x3e7ff766	0.24996719
221	0xbbd6e5dc	-0.006558163
222	0x3bc5f690	0.0060413554
223	0xbe0c66e3	-0.13711123
224	0xbf9cdbb5	-1.2254549
225	0x3ff55d9e	1.9169195
226	0xbedd935d	-0.43276492
227	0xbe8282aa	-0.25490314
228	0x3f06f4ca	0.5271727
229	0xbea8fa22	-0.33003336
230	0xbea9053b	-0.33011803
231	0x3eabe89a	0.33575898
232	0xbe6410fd	-0.22272106
233	0xbf1a531d	-0.6028307
234	0x3da37b61	0.07982517
235	0xbecb7a19	-0.3974159
236	0xbe8ae534	-0.27127993
237	0xbf2ccb8e	-0.674981
238	0x3ecd952c	0.40152872
239	0x3db23786	0.087019965
240	0xbcd3c235	-0.025849441
241	0x3d8fab23	0.070150636
242	0x3e6af791	0.22946002
243	0x3f2f2209	0.6841131
244	0xbde9832c	-0.11401972
245	0xbd875609	-0.06608207
246	0x3e80e5ca	0.25175315
247	0x3f92e8d0	1.1477299
248	0xbe78fb19	-0.24314536
249	0x3f4bc40a	0.79596007
250	0x3f51df4e	0.8198136
251	0x3eed181e	0.46307462
252	0xbeeea865	-0.4661285
253	0x3cf4f8a1	0.029903712
254	0xbeed5a2d	-0.4635786
255	0x3ec880d7	0.39160797

layers_q1.0.bias f4 [100]
0	0xbf8efa16	-1.117007
1	0xbfa0afea	-1.2553685
2	0xbef4e6a1	-0.47832206
3	0xbe251706	-0.16122064
4	0xbe6cda61	-0.2313018
5	0x3ddb822e	0.10718189
6	0xbe8ae142	-0.27124983
7	0xbf12eb53	-0.57390326
8	0xbf40d099	-0.75318295
9	0xbf785f99	-0.9702087
10	0xbf05fef6	-0.52342165
11	0xbf9ddaef	-1.2332438
12	0xbeb93b45	-0.36178032
13	0xbf731b9f	-0.9496402
14	0xbf24f330	-0.64433575
15	0xbf37bd06	-0.717728
16	0xbf727f5c	-0.94725585
17	0x3ec2f38a	0.3807643
18	0xbf5d57ba	-0.86461985
19	0xbf3ece57	-0.745336
20	0x3de617a0	0.11234975
21	0xbeecbce6	-0.46237868
22	0xbf2341db	-0.6377236
23	0xbec1cd9b	-0.37852177
24	0x3ae4cf28	0.0017456757
25	0x3ea4326f	0.32069728
26	0xbf2e3f16	-0.6806501
27	0x3e0ebf0a	0.13940063
28	0xbead22d5	-0.33815637
29	0xbf6953b3	-0.9114334
30	0xbf486dd1	-0.78292567
31	0xbf609525	-0.87727576
32	0xbeb6cee0	-0.35704708
33	0xbf53e2a2	-0.8276769
34	0xbee28b6e	-0.44247
35	0xbf6c7543	-0.9236643
36	0xbf676f73	-0.90404433
37	0xbeab8ef5	-0.33507505
38	0x3df04d0e	0.11733447
39	0x3da34262	0.07971646
40	0xbf47899d	-0.77944356
41	0xbf202375	-0.62554103
42	0xbe003b98	-0.12522733
43	0xbe586314	-0.21131545
44	0xbf0c0ba1	-0.54705244
45	0xbf2eedbc	-0.68331504
46	0xbf407d69	-0.7519136
47	0xbec63eef	-0.3871989
48	0x3f0b1819	0.54333645
49	0xbd3f3f01	-0.046690945
50	0xbef8b136	-0.485727
51	0xbf12ab4e	-0.5729264
52	0x3d11b211	0.035570208
53	0xbf5c67e2	-0.8609601
54	0xbf681d33	-0.90669554
55	0xbebb2e0d	-0.3655857
56	0xbed8fc1a	-0.42379838
57	0xbece3bcd	-0.4028
58	0xbf587a59	-0.8456169
59	0xbf2afbd1	-0.6679049
60	0xbf3b121c	-0.7307451
61	0xbed7220b	-0.4201816
62	0x3e2df6f3	0.16988735
63	0xbf71a8ba	-0.9439808
64	0xbed455dc	-0.41471756
65	0xbf83732d	-1.0269524
66	0xbd298318	-0.041384786
67	0xbf70595c	-0.9388635
68	0xbe9ff603	-0.3124238
69	0xbf6d8d18	-0.92793417
70	0xbf874aea	-1.0569737
71	0xbead20f9	-0.3381422
72	0xbefbb67e	-0.49162668
73	0xbf3768f7	-0.7164454
74	0xbf73f594	-0.952966
75	0xbf99f0ee	-1.2026651
76	0xbe389a35	-0.18027575
77	0xbf7e0c64	-0.99237657
78	0xbf061214	-0.52371335
79	0xbef2c994	-0.47419417
80	0x3ec4be8d	0.3842663
81	0x3e30e89a	0.1727623
82	0xbe888cfd	-0.26670066
83	0xbf2c249c	-0.6724336
84	0xbf24936c	-0.6428745
85	0x3dc8a5ce	0.0979725
86	0xbf81944d	-1.0123383
87	0xbea28461	-0.31741622
88	0xbf7c81dc	-0.9863565
89	0xbf22beef	-0.6357259
90	0xbf1d889a	-0.6153656
91	0xbf55b719	-0.8348251
92	0xbeb6585a	-0.35614282
93	0x3e498fc0	0.19683743
94	0xbf5fa4ca	-0.87360823
95	0xbf3794c3	-0.7171137
96	0xbf2a9dc7	-0.66647
97	0xbeb88ee1	-0.36046508
98	0xbf224fa2	-0.6340276
99	0xbedef1e1	-0.43543914

layers_q1.2.weight f4 [100, 100]
0	0xbd2fedef	-0.04295152
1	0xbec3ed79	-0.38267115
2	0x3dddb4b1	0.1082548
3	0xbeb51d48	-0.35373902
4	0x3de5870a	0.11207397
5	0x3d8573b5	0.0651621
6	0xbda780e7	-0.08178883
7	0xbeaca487	-0.33719274
8	0xbe594331	-0.21217038
9	0xbddfe5a2	-0.10932471
10	0xbe4eb7f9	-0.20187367
11	0xbe385c88	-0.18004048
12	0xbe2556ff	-0.16146468
13	0xbce03eb3	-0.027373647
14	0xbbf4d43c	-0.0074715894
15	0xbe9ca9e6	-0.30598372
16	0xbefb47cc	-0.49078214
17	0xbdce7ef1	-0.10082806
18	0xbedb1e32	-0.42796475
19	0xbcbad7b0	-0.022807926
20	0xbf4379d9	-0.763578
21	0xbdec3853	-0.115341805
22	0xbe70dc9c	-0.23521656
23	0xbd6c6caa	-0.057720818
24	0x3e287316	0.16450152
25	0xbf545fa2	-0.82958424
26	0x3c727f5b	0.014800872
27	0x3d7888ab	0.06067721
28	0xbe5110c2	-0.20416549
29	0x3d22ffc7	0.03979471
30	0x3e188815	0.14895661
31	0xbd1ae0de	-0.037812106
32	0xbe1ee8e6	-0.15518531
33	0x3df1d82b	0.11808809
34	0xbebcfb57	-0.36910507
35	0xbd5a82ba	-0.053347327
36	0x3d98987d	0.0745096
37	0xbe4dd0b9	-0.20099153
38	0xbe741bdc	-0.23838753
39	0xbedf96ba	-0.43669683
40	0xbc9b1086	-0.018928777
41	0x3e3a339f	0.18183754
42	0x3ca8c456	0.020601433
43	0xbea80f17	-0.32824013
44	0xbea969f7	-0.33088657
45	0xbd99eeae	-0.07516228
46	0xbe1c0e6d	-0.15239878
47	0xbdcb8089	-0.099366255
48	0xbdda9962	-0.10673787
49	0x3d179f45	0.037017126
50	0xbdcc8c80	-0.09987736
51	0x3d84487c	0.06459138
52	0xbe470e41	-0.19439031
53	0xbd85698c	-0.06514272
54	0xbe5aacea	-0.21355024
55	0xbe865325	-0.2623531
56	0xba7a2913	-0.00095428637
57	0xbe28b0cf	-0.16473697
58	0xbe8467bd	-0.25860396
59	0x3d528ba9	0.05140272
60	0xbe2acbde	-0.16679332
61	0xbe51645a	-0.20448437
62	0xbe16d03e	-0.14727876
63	0x3d4e10c9	0.050308976
64	0x3daf95a6	0.08573465
65	0x3b1f363d	0.0024293803
66	0xbf0a1e3d	-0.5395239
67	0xbe8dcd35	-0.27695623
68	0xbe3ecb68	-0.18632281
69	0xbeb44233	-0.35206756
70	0xbd296c4f	-0.041363057
71	0xbe9d4ebe	-0.30724138
72	0xbef002a4	-0.46877015
73	0xbd46f6d1	-0.048575226
74	0xbf2b5497	-0.6692595
75	0x3988b7a4	0.00026076764
76	0xbe0247fd	-0.12722774
77	0xbea7720f	-0.32704207
78	0xbd108c56	-0.035290085
79	0xbeeb80bb	-0.4599665
80	0x3c83a6c4	0.016070731
81	0xbe752324	-0.23939186
82	0xbe94ac96	-0.29037923
83	0xbe18ba16	-0.14914736
84	0xbd298c57	-0.041393604
85	0xbe8c155d	-0.2736005
86	0x3db0bc2f	0.08629643
87	0xbe0d398d	-0.13791485
88	0xbd9c65ee	-0.07636629
89	0xbe46f6d1	-0.1943009
90	0xbe135346	-0.14387235
91	0xbf4298d9	-0.76014477
92	0x3d80e86c	0.06294331
93	0x3dc74040	0.097290516
94	0xbed46c21	-0.41488746
95	0xbf3764df	-0.7163829
96	0xbe9f02ae	-0.31056732
97	0xbe29fd9f	-0.16600655
98	0xbe875e54	-0.26439154
99	0x3d85fec5	0.06542734
100	0x3dfd083b	0.123550855
101	0xbda9822e	-0.08276783
102	0x3b9fd8be	0.0048781326
103	0xbd3476e0	-0.04405868
104	0xbdc647d0	-0.09681666
105	0x3d971fed	0.07379136
106	0x3c130846	0.0089741405
107	0xbcf9fee3	-0.030517047
108	0x3dd8ed42	0.10592128
109	0x3d57d7e9	0.052696142
110	0xbe053854	-0.13009769
111	0x3dd7e46a	0.105416134
112	0xbd2c94e6	-0.042134188
113	0xbe4bf361	-0.1991706
114	0xbd5632d2	-0.05229456
115	0xbdeb8633	-0.11500206
116	0xbdc19321	-0.09451891
117	0x3dbb3ecf	0.09142839
118	0xbd8d8c5d	-0.06911538
119	0x3e5434a9	0.20723213
120	0xbe8e3cec	-0.27780855
121	0xbdf198e4	-0.1179674
122	0xbe2b0357	-0.16700493
123	0xbd9755d5	-0.07389418
124	0x3db98c6f	0.09059989
125	0xbe4096c9	-0.1880752
126	0xbd1e8356	-0.03869947
127	0xbc4b5c99	-0.012412214
128	0xbe291c9f	-0.16514824
129	0xbeae45b7	-0.34037563
130	0xbe0a2c4d	-0.13493462
131	0xbe881a9c	-0.265828
132	0xbe767d3c	-0.2407121
133	0xbcf8bb74	-0.030362822
134	0xbdf7a16c	-0.12091336
135	0x3cfd213b	0.030899635
136	0x3d0d7e4c	0.034544274
137	0xbe4c2d31	-0.19939114
138	0xbe6cc1d3	-0.23120813
139	0xbe9666c6	-0.29375285
140	0xbd5a9c81	-0.05337191
141	0x3ac6aa40	0.001515694
142	0x3bc8ade0	0.006124243
143	0xbda73f47	-0.08166366
144	0xbdbae5c0	-0.091258526
145	0x3d7f6e4b	0.062361043
146	0xbe5028ba	-0.20328036
147	0xbdb3fd00	-0.0878849
148	0xbe04e64d	-0.12978478
149	0xbdea4773	-0.11439409
150	0xbe08190d	-0.13290806
151	0xbb39cd48	-0.0028351117
152	0xbdc7aff9	-0.09750361
153	0xbdc156f9	-0.09440417
154	0xbdae90b7	-0.08523696
155	0xbe1c726e	-0.15278026
156	0xbd89db0c	-0.06731233
157	0x3cb6caf7	0.022313578
158	0xbd7048f4	-0.058663324
159	0xbdc3f549	-0.09568269
160	0x3d226066	0.039642714
161	0xbe7dd67c	-0.2478885
162	0xbe000beb	-0.12504546
163	0xbda2d33f	-0.07950448
164	0x3cbabf77	0.022796376
165	0xbd7f6424	-0.06235136
166	0xbe4f26e9	-0.20229687
167	0xbe79474c	-0.24343604
168	0x3b390ea7	0.0028237493
169	0xbe97ebd6	-0.29672116
170	0xbc29da77	-0.0103670275
171	0xbe1711de	-0.1475291
172	0xbc207117	-0.009792588
173	0xbc8d703d	-0.017265433
174	0x3dc0ccb0	0.09414041
175	0xbdc31c18	-0.09526843
176	0xbe0e0a25	-0.13871057
177	0xbca4e427	-0.020128323
178	0xbcbe1240	-0.023202062
179	0x3d915455	0.07096163
180	0x3dbb9ee7	0.091611676
181	0xbe86d40d	-0.26333657
182	0xbe645593	-0.22298269
183	0x3dbdecbf	0.09273671
184	0x3e0ac185	0.13550384
185	0xbd719754	-0.05898221
186	0xbdb15de8	-0.08660489
187	0x3df7214b	0.12066897
188	0xbc1c7016	-0.009548208
189	0x3d2f98c6	0.042870305
190	0xbd60604b	-0.054779332
191	0x3e30de8f	0.172724
192	0xbd69fecb	-0.057127755
193	0xbd974c76	-0.07387631
194	0x3c3fadf7	0.011699191
195	0xbe596272	-0.2122896
196	0xbd94e346	-0.072699115
197	0xbd3464e8	-0.044041544
198	0xbe1697fe	-0.14706418
199	0x3d1e909d	0.038712133
200	0x3d11ea29	0.035623703
201	0xbdda264e	-0.10651837
202	0xbe97a2ac	-0.29616296
203	0xbf4eb190	-0.8073969
204	0x3f0fb70c	0.5613868
205	0xbf8c120f	-1.0943011
206	0x3b4ed897	0.0031562203
207	0xbeecaec5	-0.4622709
208	0xbe17cbcd	-0.14823838
209	0xbec1bb90	-0.3783841
210	0xbf075d76	-0.52876985
211	0xbea80529	-0.32816437
212	0x3f0e860c	0.5567329
213	0x3d847021	0.064666994
214	0x3e610b20	0.219769
215	0xbd80adbe	-0.06283139
216	0xbeb59727	-0.35466883
217	0xbec60343	-0.38674363
218	0xbe89275c	-0.2678784
219	0x3ea2d53a	0.31803304
220	0xbe0fe5ed	-0.14052553
221	0xbfb3b21c	-1.403873
222	0x3f2aa439	0.66656834
223	0x3f01f1b9	0.50759465
224	0x3e621519	0.2207836
225	0x3e036e84	0.12835127
226	0xbea69328	-0.32534146
227	0xbe3ef7c2	-0.186492
228	0xbf385a93	-0.72013205
229	0xbda2e78f	-0.079543225
230	0x3f441b90	0.7660456
231	0x3e1bf8f6	0.1523169
232	0x3dd1a149	0.10235841
233	0x3db85580	0.09000683
234	0x3ebd2d43	0.36948594
235	0xbf0c7ed4	-0.54881024
236	0x3dcc44ca	0.09974058
237	0x3ecf5e1c	0.40501487
238	0x3e243757	0.16036735
239	0x3e96d331	0.29458
240	0xbea59d3f	-0.32346532
241	0xbf5c82cb	-0.86137074
242	0x3f0a70f9	0.5407863
243	0x3f41d49c	0.7571504
244	0x3e888897	0.2666671
245	0x3f21656c	0.6304538
246	0x3f3174f5	0.6931909
247	0xbecb9949	-0.39765385
248	0xbf027916	-0.5096601
249	0xbf01c7dd	-0.5069559
250	0x3e9246d9	0.28569677
251	0xbf925306	-1.1431587
252	0x3de05a46	0.10954718
253	0x3e1aa25d	0.15100999
254	0x3f584ab4	0.8448899
255	0xbea7049b	-0.326207

layers_q1.2.bias f4 [100]
0	0xbe8adf35	-0.27123418
1	0xbe3e7190	-0.18598008
2	0x3db9454d	0.09046421
3	0xbed7e212	-0.42164665
4	0xbf6bcc83	-0.92108935
5	0xbf435071	-0.7629462
6	0xbf602e4b	-0.8757064
7	0xbe76d19c	-0.24103397
8	0xbf1e6372	-0.6187049
9	0xbf4e5e21	-0.8061238
10	0xbf524a0a	-0.82144225
11	0xbf58de6a	-0.84714377
12	0xbf71ecf7	-0.94502205
13	0xbd1dea36	-0.03855344
14	0xbf161262	-0.586218
15	0xbe306d48	-0.17229187
16	0xbebc8628	-0.36821103
17	0xbe87768d	-0.26457635
18	0xbe222ff7	-0.1583861
19	0x3fcf1803	1.6179203
20	0xbe52329a	-0.20527115
21	0x3ea7971f	0.32732484
22	0xbf26334f	-0.6492204
23	0xbe2c8abf	-0.16849802
24	0xbde5bb63	-0.11217382
25	0xbf3792f8	-0.7170863
26	0xbeb15617	-0.34635994
27	0xbefb4975	-0.4907948
28	0xbe3cf6a8	-0.18453467
29	0xbe37ca70	-0.17948318
30	0xbe72976b	-0.23690574
31	0xbe91d476	-0.28482407
32	0x3e12ac8a	0.14323631
33	0xbd9e3c3e	-0.07726334
34	0xbe321de2	-0.17394212
35	0xbf2aa11b	-0.6665208
36	0xbeb7a748	-0.35869813
37	0xbf1910ce	-0.59791267
38	0x3f522230	0.82083416
39	0xbf51aaaa	-0.8190104
40	0x3ffede7e	1.9911649
41	0xbf4da963	-0.8033659
42	0x3ce7c15a	0.02829044
43	0xbeac766f	-0.33684108
44	0xbf86651d	-1.0499607
45	0xbec58eb0	-0.38585424
46	0xbf297807	-0.6619877
47	0xbf329f00	-0.69773865
48	0x3fa5d667	1.2956055
49	0xbf2b875f	-0.67003435
50	0xbeda0b32	-0.42586666
51	0xbee122d3	-0.4397188
52	0xbe1720b6	-0.14758572
53	0xbd09a5ed	-0.033605505
54	0xbe32e618	-0.17470586
55	0x3e908b15	0.2823111
56	0x3e2ea564	0.17055279
57	0xbef12c35	-0.4710404
58	0x3f9e92d3	1.2388557
59	0xbf25fc9f	-0.64838594
60	0xbeabcdaf	-0.33555362
61	0xbf2a5f47	-0.6655163
62	0xbdcdd0b9	-0.10049576
63	0xbe1d9cde	-0.15391871
64	0x3d0e93a4	0.03480877
65	0xbe098905	-0.13431175
66	0xbdc16059	-0.09442205
67	0xbd9e2d66	-0.07723503
68	0x3e3357c9	0.17513956
69	0xbe7558e4	-0.2395969
70	0xbe788974	-0.24271184
71	0x3edc3e45	0.43016258
72	0x3e196450	0.14979672
73	0x3ea7ad43	0.32749376
74	0xbeb22070	-0.34790373
75	0x3f30997c	0.689842
76	0xbeaf5c83	-0.34250268
77	0xbeb0ec12	-0.34555107
78	0xbe3195c1	-0.17342283
79	0xbdedb273	-0.11606302
80	0xbec64e11	-0.38731435
81	0xbf509845	-0.81482345
82	0xbe57996a	-0.21054617
83	0xbde41d53	-0.11138406
84	0xbe1e88ce	-0.15481874
85	0x3eb8f656	0.3612544
86	0x3c8556cc	0.01627674
87	0x3fc58f3d	1.5434338
88	0xbe37e1e0	-0.17957258
89	0xbf7cacd4	-0.98701215
90	0xbe609313	-0.21931104
91	0xbf2ce4ba	-0.6753651
92	0xbecf5d99	-0.40501097
93	0xbeb68e08	-0.35655236
94	0xbf590642	-0.84775174
95	0xbe583739	-0.21114816
96	0xbf6348d3	-0.88782996
97	0x3fb604f2	1.4220259
98	0xbf92f0d6	-1.1479747
99	0xbe837533	-0.25675353

layers_q1.4.weight f4 [1, 100]
0	0xbe6ef06a	-0.23333898
1	0x3ccfeee8	0.025382474
2	0x3da00737	0.07813876
3	0x3c95192e	0.018200483
4	0xbd81ac84	-0.06331733
5	0xbe427d80	-0.18993187
6	0xbe443238	-0.19159782
7	0xbcf03bab	-0.029325327
8	0xbd51096b	-0.051034372
9	0x3c7bff63	0.015380713
10	0xbf727d03	-0.94722
11	0x3ccab4a0	0.024744332
12	0xbdb6cf95	-0.08926312
13	0xbcf7fd9c	-0.030272298
14	0x3d4b7aa9	0.049677525
15	0x3cbb6c20	0.022878706
16	0xbe6be00a	-0.23034683
17	0xbd1f8e85	-0.038954277
18	0xbbccf919	-0.0062552807
19	0x3e0b82d2	0.13624123
20	0x3cd53cb9	0.026029931
21	0x3dbe2e37	0.092861585
22	0xbbe7012a	-0.0070496993
23	0xbc3752e8	-0.0111892
24	0xbcb73ab0	-0.022366852
25	0x3b0e8ef5	0.002175269
26	0xbc43ad69	-0.0119432
27	0xbd70d40c	-0.058795974
28	0xbe32f427	-0.17475949
29	0xbdca05a0	-0.09864354
30	0xbda4b925	-0.08043126
31	0x3dcf1298	0.10110968
32	0x3d7f06ee	0.062262468
33	0x3d14a975	0.03629442
34	0xbc7f4323	-0.0155799715
35	0xbdb982ab	-0.09058126
36	0xbd6dffca	-0.058105268
37	0xbd15f645	-0.036611814
38	0x3d5157e1	0.0511092
39	0x3c62eb13	0.013849991
40	0x3dedebaf	0.11617219
41	0xbdd137d2	-0.10215725
42	0x3d9a4f8d	0.07534704
43	0xbd52d2c1	-0.05147052
44	0x3cb03a7f	0.021512268
45	0x3d7daecf	0.06193429
46	0xbd80dfd4	-0.06292692
47	0xbd278d66	-0.040906332
48	0x3db1876d	0.086684085
49	0xbbeece0b	-0.007287746
50	0xbe86d7f4	-0.26336634
51	0x3c8498f4	0.016186215
52	0x3c194e86	0.0093571
53	0x3d55c7c9	0.052192483
54	0xbe724013	-0.23657255
55	0x3db03f8b	0.0860587
56	0xbd406f22	-0.046980985
57	0x3da2e5cd	0.07953987
58	0x3dd9c4eb	0.10633262
59	0xbcb866b0	-0.022509903
60	0x3ce9eff3	0.0285568
61	0xbd957175	-0.07297031
62	0xbca98936	-0.02069531
63	0x3c91c345	0.017793307
64	0xbdd207a1	-0.10255361
65	0xbc4c8bb9	-0.012484484
66	0xbcf552cb	-0.029946705
67	0x3c164aa6	0.009173071
68	0xbe2f4623	-0.17116599
69	0xbde98bd7	-0.114036255
70	0xbcafb357	-0.02144782
71	0x3d4da88a	0.05020956
72	0xbe08e2a0	-0.133677
73	0x3d7afe91	0.06127793
74	0x3c6dc6c3	0.0145127205
75	0x3dc95997	0.09831541
76	0xbdf42977	-0.11921971
77	0xbacea398	-0.0015765307
78	0xbe064b09	-0.13114561
79	0xbe028104	-0.12744528
80	0xbd939995	-0.07207028
81	0x3d562053	0.05227692
82	0x3c83e92d	0.016102398
83	0xbc98ec16	-0.018667262
84	0xbbce25e1	-0.0062911366
85	0x3dfad142	0.12246944
86	0xbd0bf48c	-0.034168765
87	0x3d18327d	0.037157524
88	0xbd7163c3	-0.05893303
89	0x3ca027a6	0.019550156
90	0x3b78295b	0.0037866447
91	0x3dd3168a	0.10307033
92	0xbc810c5d	-0.015752966
93	0xbc2172e6	-0.009854054
94	0xbd65b45a	-0.0560802
95	0xbdd6ecc2	-0.10494377
96	0xbdb6423f	-0.08899354
97	0x3d965e50	0.073422074
98	0xbeaab5fe	-0.33341974
99	0x3e20439f	0.15650795

layers_q2.0.weight f4 [100, 18]
0	0x3ea25896	0.3170821
1	0x3e2b2fde	0.16717479
2	0xbcaedc7e	-0.021345373
3	0x3dc37780	0.09544277
4	0x3d06cc3d	0.03290962
5	0x3d1e28b6	0.038613044
6	0x3c76323c	0.015026625
7	0xbe9232fe	-0.2855453
8	0x3d9b097d	0.07570169
9	0xbd2faea7	-0.04289117
10	0x3dba76cf	0.09104692
11	0x3c9602c5	0.018311867
12	0xbd60f96a	-0.05492536
13	0xbc7f93cc	-0.015599202
14	0xbe240647	-0.1601802
15	0x3dee2b8b	0.11629399
16	0x3de48d0a	0.111597136
17	0xbdffaf24	-0.12484577
18	0x3f6344f6	0.887771
19	0x3e499de3	0.19689135
20	0xbef5d29a	-0.4801224
21	0xbf4472be	-0.7673758
22	0x3e76872d	0.24075003
23	0x3e6fcaef	0.23417257
24	0xbe981112	-0.29700524
25	0xbe2fd316	-0.17170367
26	0x3f3d0fae	0.7385205
27	0xbf7949e7	-0.9737839
28	0xbf387ba9	-0.7206369
29	0xbe665b6f	-0.22495817
30	0x3f33f2b5	0.70292217
31	0xbf6259ef	-0.8841848
32	0xbe5dcf14	-0.21661025
33	0xbe3cec3b	-0.1844949
34	0xbece64d5	-0.40311304
35	0xbf216d23	-0.63057154
36	0x3f4f825b	0.8105828
37	0xbf3db8ae	-0.74109924
38	0xbe8cf302	-0.2752915
39	0xbf6122ab	-0.87943524
40	0xbe7dfa54	-0.24802524
41	0xbca457e6	-0.020061444
42	0x3d0a8d88	0.03382638
43	0x3e5eb2f2	0.2174795
44	0xbe3caa50	-0.18424344
45	0xbdb3b8c5	-0.08775476
46	0xbd9f98af	-0.07792794
47	0x3d0641a4	0.032777444
48	0x3edbfa2e	0.4296431
49	0x3d1920b9	0.037384722
50	0xbf3d2ddf	-0.7389812
51	0x3ef79aaa	0.48360187
52	0xbf4237d3	-0.7586643
53	0xbdfede12	-0.124447
54	0xbf6306ae	-0.8868207
55	0xbe12638c	-0.14295787
56	0x3e558fe6	0.20855674
57	0xbe9e46a4	-0.3091327
58	0xbed973b7	-0.42471096
59	0x3cdc1958	0.026867554
60	0x3c16c6cb	0.009202669
61	0xbea772b6	-0.32704705
62	0x3de5f544	0.11228421
63	0x3f62b7bb	0.885616
64	0x3fd9d3ad	1.7017723
65	0x3f9ef5eb	1.2418798
66	0xbec1c8ad	-0.37848416
67	0x3edb8ca0	0.42880726
68	0xbe915039	-0.28381518
69	0x3e09ed27	0.13469373
70	0xbf0eca40	-0.5577736
71	0x3e80de58	0.25169635
72	0xbfb3867d	-1.4025418
73	0xbddd49bc	-0.10805079
74	0x3ee86847	0.45392057
75	0xbdc42ec8	-0.09579235
76	0x3e31cfa4	0.17364365
77	0xbd7aa818	-0.061195463
78	0x3d73f5eb	0.059560698
79	0x3cc1a7c8	0.023639575
80	0xbdce8b2e	-0.1008514
81	0x3fdafb2b	1.71079
82	0x3ee14a63	0.44002065
83	0x3ea9b257	0.33143875
84	0x3fc18442	1.5118487
85	0xbf866bf3	-1.0501693
86	0xbf13ac84	-0.5768511
87	0xbec30088	-0.38086343
88	0xbf95fbda	-1.1717484
89	0xbfa0c37f	-1.2559661
90	0xbd93cb46	-0.07216506
91	0xbe935ca6	-0.28781623
92	0x3fd280ad	1.6445519
93	0xbfd45a6b	-1.6590093
94	0x3ebdd523	0.37076673
95	0x3bd948bf	0.0066309865
96	0x3a9b1309	0.0011831234
97	0xbd07d9b6	-0.03316661
98	0xbc60828e	-0.013703002
99	0x3d996cf0	0.07491481
100	0x3ee042b5	0.43800893
101	0x3e2d63ea	0.16932645
102	0xbe45a6ce	-0.19301912
103	0x3e4b831c	0.19874233
104	0x3e27a719	0.16372336
105	0xbe3c346f	-0.18379377
106	0x3e4b2f68	0.19842303
107	0x3ee4ad24	0.44663346
108	0xbedd6308	-0.43239617
109	0xbf14fab6	-0.58195055
110	0xbdf9b0d8	-0.121919334
111	0xbf98337e	-1.1890714
112	0x3ef31958	0.47480273
113	0x3d337c9d	0.043820012
114	0xbddc4a6b	-0.107563816
115	0xbefc5587	-0.49284002
116	0x3f099cc0	0.53754807
117	0xbe736f06	-0.23772821
118	0x3f1ea520	0.6197071
119	0x3f02d4e0	0.5110607
120	0x3f84140b	1.0318617
121	0x3e5f76e1	0.21822692
122	0xbed181c3	-0.40919313
123	0xbd193837	-0.037407126
124	0x3cf96642	0.030444268
125	0xbec69936	-0.38788766
126	0xbeeab1fe	-0.45838922
127	0xbd900a24	-0.07033184
128	0x3e8d25b3	0.27567825
129	0xbfacd8e9	-1.3503696
130	0x3f4e129e	0.8049716
131	0x3d289493	0.041157316
132	0xbd2ee294	-0.04269655
133	0xbecc35ba	-0.3988474
134	0x3df7babf	0.12096166
135	0x3f96e7a3	1.178944
136	0xbf1b91e8	-0.6076951
137	0xbad0fa8e	-0.0015943812
138	0x3f1b933f	0.60771555
139	0xbf831098	-1.0239439
140	0xbeafb003	-0.34313974
141	0x3db53782	0.08848478
142	0xbf1a3d00	-0.6024933
143	0xbf057606	-0.52133214
144	0x3d9eef64	0.07760504
145	0xbfbdfe78	-1.4843283
146	0x3e61a476	0.22035393
147	0xbdbc273c	-0.09187171
148	0x3fbaa35a	1.4581101
149	0x3d133e86	0.0359483
150	0x3d1a9492	0.037739344
151	0x3f5593fe	0.83428943
152	0xbcc482ef	-0.023988215
153	0x3d937fc8	0.07202107
154	0xbd3a120b	-0.045427363
155	0xbe0c0be3	-0.1367641
156	0xbf042b43	-0.5162851
157	0x3f219c36	0.63128984
158	0xbeeb92c9	-0.46010426
159	0x3f548b8b	0.83025426
160	0xbeee08e1	-0.4649115
161	0x3edf651b	0.43631825
162	0x3c196d17	0.009364388
163	0x3d671a77	0.056421723
164	0xbea7977e	-0.32732767
165	0x3fd25053	1.6430763
166	0x3eef83d7	0.46780273
167	0xbd127860	-0.03575933
168	0xbc4e5dfe	-0.012595652
169	0xbc89c248	-0.016816273
170	0xbebb7162	-0.36609942
171	0xbf1af0f9	-0.60523945
172	0x3e79efa2	0.24407819
173	0xbeb8babc	-0.36079967
174	0x3f6b1a86	0.91837347
175	0x3f1cdf59	0.612783
176	0xbe849c36	-0.2590043
177	0x3f31afbd	0.6940878
178	0xbeee9db9	-0.46604708
179	0xbea6ff7e	-0.326168
180	0x3e11f065	0.1425186
181	0x3d6f47e0	0.058418155
182	0xbfcb9f51	-1.5907995
183	0x3fcd2e13	1.6029686
184	0xbdcceebe	-0.10006474
185	0x3c8e0025	0.017334053
186	0xbc9522a9	-0.018205004
187	0xbcbe2c27	-0.023214413
188	0x3d7a2e88	0.061079532
189	0xbdc6e318	-0.097112834
190	0x3e2b5c29	0.16734375
191	0x3e1143d0	0.14186025
192	0x3e4eedfd	0.20207973
193	0x3e887ea6	0.26659125
194	0x3e353797	0.17696987
195	0xbe573bb9	-0.21018876
196	0x3df2969a	0.11845131
197	0x3e85bf2c	0.26122415
198	0x3f475587	0.7786488
199	0x3d53baa1	0.051691655
200	0xbf0c2fef	-0.5476064
201	0x3f8d3aa4	1.1033521
202	0x3e997bf1	0.29977372
203	0x3ce45cd4	0.027876295
204	0x3caf6caf	0.021414129
205	0x3ee71460	0.45132732
206	0xbe2a7d26	-0.16649303
207	0xbd85fc08	-0.06542212
208	0xba99ca78	-0.0011733314
209	0xbdcfe105	-0.10150341
210	0xbe087920	-0.13327456
211	0x3fbd92bf	1.4810408
212	0x3e722e31	0.23650433
213	0x3f5cdaaf	0.86271185
214	0x3e9bb4ad	0.30411282
215	0x3efc8de4	0.49327004
216	0x3e0aa7da	0.13540593
217	0x3d8e7dac	0.06957564
218	0xbdb418e0	-0.08793807
219	0xbf00efcc	-0.503659
220	0xbe36e77d	-0.17861743
221	0xba8b2659	-0.0010616287
222	0x3d20eedf	0.039290305
223	0x3cc9613a	0.024582494
224	0x3d5b9a47	0.053613927
225	0xbfa8af2f	-1.3178462
226	0xbf4d2594	-0.80135465
227	0xbf1bf46a	-0.6091982
228	0x3c7ccf84	0.015430335
229	0x3e43537b	0.19074814
230	0xbf0670be	-0.5251578
231	0xbe0ff692	-0.14058903
232	0xbebcb945	-0.368601
233	0xbee90c0f	-0.45517012
234	0xbf85dd53	-1.0458168
235	0xbe27ec34	-0.16398698
236	0x3ed511b6	0.41615075
237	0xbf65a32d	-0.8970211
238	0x3edd6c82	0.43246847
239	0x3db0e3a4	0.08637169
240	0xbd475a5b	-0.048670154
241	0xbe4dc2bd	-0.20093818
242	0x3e35c76c	0.17751855
243	0xbe8b95a8	-0.27262616
244	0xbec6c093	-0.38818797
245	0x3e311d68	0.17296374
246	0x3febf688	1.843461
247	0xbf26180d	-0.6488045
248	0xbeb09471	-0.34488252
249	0xbcfa2bb0	-0.03053841
250	0xbfa21974	-1.2664018
251	0xbf5c40a3	-0.8603613
252	0x3f0c3851	0.5477343
253	0x3f654dae	0.89571655
254	0x3ef24ea7	0.47325632
255	0x3e4476d6	0.19185957

layers_q2.0.bias f4 [100]
0	0xbf30a8a8	-0.6900735
1	0xbf100bf5	-0.56268245
2	0xbf57cb7f	-0.84294885
3	0xbf2d478c	-0.67687297
4	0xbea8a30f	-0.32936904
5	0xbf846620	-1.0343666
6	0xbea988f2	-0.33112293
7	0xbe0575d1	-0.13033225
8	0xbf97f556	-1.1871746
9	0xbf3a7dff	-0.72848505
10	0xbecf2931	-0.40461114
11	0xbf39c3b6	-0.72564256
12	0xbec641d5	-0.387221
13	0xbebb5b57	-0.36593124
14	0xbf3a9669	-0.7288576
15	0xbf825da6	-1.0184829
16	0xbddb9800	-0.10722351
17	0xbf894fbb	-1.0727457
18	0xbf192544	-0.5982249
19	0xbef7774a	-0.48333198
20	0xbe258a33	-0.16166
21	0xbf17181e	-0.59021175
22	0xbf53f2e4	-0.82792497
23	0x3d4dc4db	0.050236564
24	0xbccbbbeb	-0.02486988
25	0xbf15f25e	-0.5857295
26	0xbf3c0928	-0.7345147
27	0xbf51e948	-0.81996584
28	0xbf6c8823	-0.9239523
29	0xbf749cdd	-0.95551854
30	0xbf67322e	-0.90310943
31	0xbf14d8cd	-0.5814331
32	0x3b8f0236	0.0043642772
33	0x3f0c7359	0.54863507
34	0xbf88268c	-1.0636764
35	0xbdd55b26	-0.10417776
36	0xbee5aa74	-0.44856608
37	0xbf53d0af	-0.827403
38	0xbf5eb937	-0.87001365
39	0xbf5ca148	-0.86183596
40	0xbf05981d	-0.5218523
41	0xbf0aa80b	-0.54162663
42	0xbeead703	-0.45867166
43	0xbf3fa71e	-0.74864376
44	0xbf660e4f	-0.89865583
45	0xbf797ef6	-0.9745935
46	0xbef28312	-0.47365624
47	0xbf095a39	-0.53653294
48	0xbf54b09a	-0.8308197
49	0x3e8a2c2c	0.26986825
50	0xbebaf11d	-0.3651208
51	0xbe7a5861	-0.24447776
52	0xbf16ed26	-0.5895561
53	0xbf354a2f	-0.7081632
54	0xbf5b8778	-0.85753584
55	0x3e63af68	0.22234881
56	0xbe6fdf65	-0.23425062
57	0xbec57ede	-0.38573354
58	0x3e7079ac	0.23483914
59	0xbf87e246	-1.0615928
60	0xbee2092e	-0.4414763
61	0x3f2464d7	0.6421637
62	0xbe954f16	-0.291619
63	0xbeb805cf	-0.35941932
64	0xbf92c938	-1.1467657
65	0x3df49781	0.119429596
66	0xbecb526f	-0.3971133
67	0xbf486859	-0.7828422
68	0xbf4e71dc	-0.80642486
69	0xbf2db1ee	-0.67849624
70	0xbe85173c	-0.2599429
71	0x3ed1ce4f	0.40977713
72	0x3e14683c	0.14492887
73	0xbafff19d	-0.0019526962
74	0xbeebb1f9	-0.4603422
75	0xbf4375f1	-0.7635184
76	0xbe5dfa83	-0.21677594
77	0xbf851852	-1.0398047
78	0xbed6ddc0	-0.41966057
79	0x3f27f1ce	0.6560334
80	0xbed46ccd	-0.41489258
81	0xbe9654e4	-0.2936164
82	0xbe8fda0a	-0.28096038
83	0x3f1aae44	0.6042216
84	0xbf285727	-0.65757984
85	0xbf57f342	-0.84355557
86	0xbf1a40d4	-0.6025517
87	0xbeca21b2	-0.39478832
88	0xbed135c8	-0.40861344
89	0x3e9c2c0f	0.30502364
90	0x3ed23b28	0.41060758
91	0xbf014e0c	-0.50509715
92	0xbf5fc83f	-0.87414926
93	0x3e815b02	0.25264746
94	0xbf0e26c1	-0.55527884
95	0xbf23618e	-0.6382073
96	0xbf7f787e	-0.9979323
97	0xbf48ee60	-0.7848873
98	0xbee33f73	-0.44384345
99	0xbe9196bc	-0.28435314

layers_q2.2.weight f4 [100, 100]
0	0xbdb00628	-0.08594924
1	0xbd8ef485	-0.06980232
2	0xbde596ab	-0.11210378
3	0xbdd44b52	-0.10365929
4	0xbdc5d689	-0.0966006
5	0xbe0f6f2d	-0.14007254
6	0x3c120675	0.008912672
7	0xbd76fbcc	-0.060298726
8	0xbe2298a7	-0.15878545
9	0x3d4dccd0	0.050244153
10	0xbde11653	-0.10990586
11	0xbd937736	-0.07200472
12	0xbd05abf5	-0.032634694
13	0xbe00df0d	-0.12585087
14	0xbdea965c	-0.1145446
15	0xbcbe5638	-0.023234472
16	0xbdeb6c6b	-0.114952885
17	0x3b573569	0.0032838231
18	0x3d141f2d	0.036162544
19	0xbda77787	-0.08177095
20	0xbdd3ec02	-0.10347749
21	0xbd9c069d	-0.07618449
22	0xbe0dbccd	-0.13841553
23	0xbdd77962	-0.10521199
24	0xbd77822c	-0.060426876
25	0xbdf34694	-0.11878696
26	0xbde4ac4b	-0.11165675
27	0xbd7b8c8c	-0.061413333
28	0xbb1953fe	-0.002339601
29	0x3cd8a7b9	0.026447164
30	0x3c944a25	0.018101761
31	0xbc94350e	-0.018091705
32	0xbdd03b7a	-0.10167594
33	0x3ce26192	0.027634416
34	0xbd9cadce	-0.07650338
35	0xbd4b1bc1	-0.049587015
36	0x3c63804a	0.013885567
37	0x3be3a2aa	0.0069468813
38	0xbe0e76bd	-0.13912483
39	0xbd22004e	-0.03955107
40	0xbda5ae7f	-0.08089923
41	0x3d83cb7c	0.06435296
42	0xbdb6a4b0	-0.089181304
43	0xbdcd1dd1	-0.10015453
44	0xbe1c6c2e	-0.15275642
45	0xbc2c5b17	-0.010519764
46	0x3d4cc268	0.049990088
47	0x3d14350d	0.036183406
48	0xbc8c6764	-0.017139144
49	0xbd0a454d	-0.033757497
50	0x3c965a45	0.01835359
51	0xbd71c6fc	-0.059027657
52	0x3dabb4ae	0.08384071
53	0xbe06f98d	-0.13181134
54	0xbd808503	-0.0627537
55	0xbd01a89d	-0.031654943
56	0xbdceb5a1	-0.10093237
57	0xbdcc1689	-0.09965236
58	0xbd87d1f5	-0.06631843
59	0xbba8850f	-0.005142815
60	0xbdc00259	-0.09375448
61	0xbc3975c8	-0.011319585
62	0x3b89ae84	0.004201712
63	0x3d69fa1a	0.05712328
64	0xbdbc5427	-0.09195738
65	0xbd648473	-0.055790376
66	0xbbb542c8	-0.0055316426
67	0xbc95e386	-0.018296968
68	0xbd30f470	-0.043201864
69	0x3c6f578a	0.014608273
70	0xbc2a24af	-0.010384723
71	0xbd404a39	-0.046945784
72	0x3c844494	0.016145982
73	0x3ce4ad12	0.027914558
74	0x3cc3ee40	0.023917317
75	0x3cefda02	0.029278759
76	0xbd757f54	-0.059935883
77	0xbd606ccb	-0.054791253
78	0xbd38e220	-0.045137525
79	0xbe02ee65	-0.12786253
80	0xbe2e85c7	-0.1704322
81	0xbd413499	-0.0471693
82	0xbbe30fcb	-0.006929373
83	0x3b5abaf9	0.0033375605
84	0x3ca067b6	0.019580703
85	0xbdf5833c	-0.119879216
86	0xbc8d8acd	-0.0172781
87	0xbd9eb555	-0.0774943
88	0xbca51a0f	-0.020154027
89	0x3c178325	0.009247576
90	0x3c9a00a5	0.018799135
91	0x3d27c5a6	0.040959977
92	0xbd95e1f5	-0.073184885
93	0xbc85c045	-0.016327033
94	0xbcede2e3	-0.029038852
95	0xbdcf7cd9	-0.10131235
96	0x3c95755d	0.01824444
97	0x3d46f860	0.048576713
98	0xbd9f4ce6	-0.07778339
99	0xbdb75b80	-0.08952999
100	0x3d883f54	0.06652704
101	0x3c20efa7	0.009822763
102	0xb93d7857	-0.00018069275
103	0xbd88d0a5	-0.06680421
104	0xbe335508	-0.17512906
105	0xbe15a695	-0.14614327
106	0xbc1bb3cd	-0.009503317
107	0xbcd78131	-0.02630672
108	0xbd8be104	-0.06830028
109	0x3c321c87	0.010871059
110	0xbdba39e0	-0.0909307
111	0xbdaf2dbf	-0.08553647
112	0xbd165d65	-0.03671016
113	0x3d17bb65	0.037043948
114	0xbda562b6	-0.08075468
115	0x3c94ee35	0.018179992
116	0xbdb95e58	-0.09051198
117	0xbd9e9b8e	-0.077445135
118	0x3dad1f2e	0.08453213
119	0xbda2e9e7	-0.079547696
120	0x3c02191c	0.007940557
121	0x3d211c2e	0.039333515
122	0xbdd113e2	-0.102088705
123	0xbd90eba6	-0.07076196
124	0x3d8a67ad	0.06758056
125	0xba899e1c	-0.0010499391
126	0xbd7fca7c	-0.062448964
127	0xbd7f829c	-0.06238042
128	0xbdb5b4d8	-0.08872384
129	0xbafb544c	-0.0019174903
130	0xbe1efba6	-0.15525684
131	0xbda13dc7	-0.07873111
132	0xbe259ede	-0.16173884
133	0xbda1546f	-0.078774326
134	0xbd38e540	-0.045140505
135	0xbe23de6f	-0.1600282
136	0xbd3e8e78	-0.046522588
137	0xbe08a28d	-0.13343258
138	0x3b6fb7a2	0.003657796
139	0x3def7472	0.11692132
140	0xbd423731	-0.047415916
141	0x3aac3e2e	0.001314109
142	0xbde891f3	-0.113559626
143	0x3d370657	0.04468378
144	0xbe279aaf	-0.16367601
145	0xbe112e0e	-0.14177725
146	0xbd1a7da6	-0.037717484
147	0xbd67f03b	-0.056625586
148	0x3d313480	0.04326296
149	0x3be9b23b	0.0071318424
150	0x3ca66166	0.020310115
151	0xbdee768b	-0.11643704
152	0x3d5766a1	0.05258811
153	0xbca52117	-0.02015738
154	0xbdb16bf8	-0.086631715
155	0x3d88307c	0.06649873
156	0xbdb1ae60	-0.086758375
157	0xbb94e72e	-0.0045441603
158	0x3c3acf17	0.011401913
159	0xbd2cceb7	-0.042189326
160	0xbd8592f5	-0.065221705
161	0xbcbc8948	-0.02301468
162	0x3d4bd1c9	0.049760614
163	0xbde1c7ab	-0.11024412
164	0xbd57081a	-0.05249796
165	0xbe008d37	-0.12553869
166	0xbd8ea27d	-0.06964586
167	0x3b7f7233	0.003897798
168	0x3cc173e0	0.023614824
169	0xbd1bcf26	-0.03803935
170	0xbe0ffb05	-0.140606
171	0xbd502efa	-0.05082605
172	0x3d32a797	0.043616857
173	0xbde54633	-0.1119503
174	0xbcb2da60	-0.021832645
175	0x3b97d145	0.004633101
176	0xbce559bb	-0.027996888
177	0xbdafbd7f	-0.085810654
178	0xbddc18fa	-0.107469514
179	0x3c8efac4	0.017453559
180	0xbd96f5bd	-0.073710896
181	0xbd682493	-0.056675505
182	0xbd7cae64	-0.06168975
183	0xbd6738a3	-0.056450497
184	0xbd9ac586	-0.07557206
185	0xbd22ef5f	-0.039779063
186	0xbe2a8337	-0.16651617
187	0xbb82c1dd	-0.0039903955
188	0xbdb7ab30	-0.08968198
189	0xbd22caa7	-0.039744046
190	0xbd2a470f	-0.041571673
191	0xbd8e5c2c	-0.06951174
192	0xb80a085d	-3.2909553e-05
193	0xbdb8c3a8	-0.090216935
194	0x3a9630dd	0.0011458654
195	0x3ccce590	0.025011808
196	0xbe1f318e	-0.15546247
197	0xbdf59b74	-0.11992541
198	0xbdf123b4	-0.11774388
199	0xbda4b547	-0.080423884
200	0x3e10b9a6	0.1413332
201	0x3bc3d798	0.0059766285
202	0xbe378808	-0.17922986
203	0xbd58c951	-0.052926365
204	0xbdbbf730	-0.09178007
205	0xbe00c47d	-0.12574954
206	0xbe27c98e	-0.16385481
207	0xbb1499d5	-0.00226747
208	0xbd75d094	-0.06001337
209	0x3d4a13b1	0.049335185
210	0xbd98a36e	-0.07453047
211	0xbc955eb6	-0.018233638
212	0xbd0fa2bd	-0.03506731
213	0x3db9efa7	0.09078913
214	0xbd10db3e	-0.035365336
215	0xbd5959da	-0.053064205
216	0xbe575892	-0.2102988
217	0xbd8bcf0d	-0.06826601
218	0xbd52a892	-0.051430292
219	0xbe0c5185	-0.13702972
220	0x3d550479	0.05200622
221	0x3cd768f9	0.026295172
222	0x3da6b36e	0.08139692
223	0xbe3012a8	-0.17194617
224	0xbe7275fc	-0.2367782
225	0x3dfe343b	0.12412306
226	0x3cceb1b9	0.02523123
227	0xbe90c626	-0.28276175
228	0xbca554a7	-0.020181967
229	0xbd84cd4d	-0.064844705
230	0xbe9f8e86	-0.31163424
231	0xbdf78de4	-0.1208761
232	0xbe136796	-0.14394984
233	0xbd92bf9e	-0.07165454
234	0xbe2423f7	-0.16029344
235	0xbe5fe98a	-0.21866432
236	0xbde21e63	-0.11040952
237	0x3d2a0ae6	0.0415143
238	0xbdb85648	-0.09000832
239	0xbe377ea7	-0.17919408
240	0x3da1c746	0.078993365
241	0xbdabbc7f	-0.08385562
242	0xbd81ea3d	-0.063435055
243	0xbe9ac266	-0.3022644
244	0xbc93dd8e	-0.018049981
245	0xbe68cfab	-0.22735469
246	0xbe40ca59	-0.1882719
247	0xbeac6d0f	-0.33676955
248	0x3de6a432	0.112617865
249	0x3d3d4b07	0.04621413
250	0xbe01dcf5	-0.12681945
251	0xbce6c43b	-0.028169742
252	0xbe4a68d8	-0.19766557
253	0x3d288e6e	0.041151457
254	0xbd66e37b	-0.056369286
255	0xbe07b37d	-0.13252063

layers_q2.2.bias f4 [100]
0	0xbe1743de	-0.14771983
1	0xbd17ee2e	-0.03709238
2	0xbdb05da8	-0.086116135
3	0xbee6072b	-0.44927344
4	0xbea6b68f	-0.32561156
5	0xbd8bbc3c	-0.06823012
6	0xbf0d3735	-0.55162364
7	0x3fb205a1	1.3907968
8	0xbeaaa4cf	-0.33328864
9	0xbf6b8a81	-0.92008215
10	0xbeb27727	-0.3485653
11	0xbe1f4ce6	-0.15556678
12	0x3b46e344	0.0030347863
13	0x3ddd603c	0.10809371
14	0x3f5efcb9	0.87104374
15	0xbdeed8fb	-0.116624795
16	0x3f3b7b85	0.7323535
17	0xbdd0beba	-0.10192628
18	0xbf6bbb06	-0.9208225
19	0x3e9ae8c0	0.302557
20	0x3dfb0c08	0.12258154
21	0xbd9ead86	-0.07747941
22	0xbf1740be	-0.59083164
23	0xbcbdc1a1	-0.023163619
24	0xbdaca2f7	-0.084295206
25	0xbe0ec34d	-0.13941689
26	0xbf26b8e7	-0.6512589
27	0xbd4e070d	-0.050299693
28	0xbe10ed36	-0.14152989
29	0xbd8ae95d	-0.06782792
30	0xbde8f9db	-0.11375781
31	0xbe12990b	-0.14316194
32	0xbe024735	-0.12722476
33	0xbe9dfcf6	-0.30857056
34	0xbea31a5e	-0.31856054
35	0x3f2f5050	0.6848192
36	0x3faf264c	1.3683562
37	0x3efc4f8e	0.49279445
38	0xbdfb3e6c	-0.122677654
39	0x3f25400f	0.6455087
40	0xbf008500	-0.5020294
41	0xbecc8fb2	-0.3995338
42	0xbe787f0a	-0.24267212
43	0xbed51a5a	-0.41621667
44	0xbece7339	-0.40322283
45	0xbdc04c91	-0.09389604
46	0x3f984047	1.1894616
47	0xbdd1121c	-0.10208532
48	0xbdd0722a	-0.10178025
49	0xbf6775c1	-0.90414053
50	0xbe1b01ae	-0.1513736
51	0xbf512daa	-0.817103
52	0xbdf79744	-0.120893985
53	0xbeb25978	-0.34833884
54	0xbf8071f5	-1.0034777
55	0xbf1ea661	-0.61972624
56	0xbe87e25d	-0.2653989
57	0xbf314998	-0.6925292
58	0xbf3f5100	-0.7473297
59	0xbee9dec3	-0.45677766
60	0xbea4fd27	-0.3222439
61	0xbd998d06	-0.07497601
62	0xbe41b0d1	-0.18915106
63	0x3ec17250	0.37782526
64	0xbeaae4df	-0.3337774
65	0xbf29f5cf	-0.663907
66	0xbf342668	-0.70371103
67	0xbebf79a0	-0.3739748
68	0xbf679b5b	-0.9047143
69	0xbe991ff2	-0.29907185
70	0xbf0ee805	-0.55822784
71	0xbf6861e4	-0.9077437
72	0x3db84f3f	0.0899949
73	0xbd3b34a8	-0.045704514
74	0xbf470b21	-0.77751356
75	0xbf8138e5	-1.0095488
76	0xbdca90b1	-0.09890879
77	0x3f9b96c5	1.2155386
78	0xbd250367	-0.040286448
79	0xbf2fb8cf	-0.6864137
80	0xbe121d1e	-0.1426892
81	0xbf0eac4b	-0.5573165
82	0xbf93eb9e	-1.155628
83	0xbc93c61e	-0.018038806
84	0xbf0443cd	-0.51665956
85	0xbd9ad9d6	-0.0756108
86	0xbe408981	-0.18802454
87	0x3f503470	0.81330013
88	0xbe3c22f0	-0.18372703
89	0xbeae565b	-0.3405026
90	0xbf4f5813	-0.80993766
91	0x3e2cefa2	0.16888288
92	0xbe855dd5	-0.2604815
93	0xbd31f320	-0.043444753
94	0xbe9a51e6	-0.3014061
95	0xbe098775	-0.13430579
96	0xbed2824a	-0.41115028
97	0x3da2e846	0.07954459
98	0xbe375c48	-0.17906296
99	0xbe7192a4	-0.23591095

layers_q2.4.weight f4 [1, 100]
0	0x3d1f28f5	0.03885742
1	0xbac45d30	-0.0014981385
2	0xbce46b72	-0.027883265
3	0x3c34ee67	0.011043168
4	0xbcddccea	-0.02707525
5	0xbd17a6b7	-0.037024226
6	0xbd145515	-0.036213953
7	0x3e182712	0.14858654
8	0x3ca5e6bf	0.02025163
9	0xbdc90599	-0.09815521
10	0xbd07bc15	-0.033138353
11	0xbcac3277	-0.021020157
12	0x3ce17644	0.027522214
13	0x3cdf22c5	0.02723826
14	0x3dab177c	0.08354089
15	0xbcf1c6fc	-0.029513828
16	0x3daf4bfb	0.08559414
17	0x3bc8a610	0.006123312
18	0xbd5a865b	-0.053350788
19	0x3db87753	0.09007134
20	0xbd7b1227	-0.06129661
21	0x3cdd74a2	0.027033154
22	0x3c27d15f	0.010242789
23	0x3d48a9cb	0.048990052
24	0xbc9d487d	-0.019199604
25	0x3d50ee62	0.05100859
26	0x3d2c8dde	0.042127483
27	0xbdb600ec	-0.088868946
28	0x3c909a66	0.017651748
29	0xbb201a5e	-0.0024429779
30	0xbcea1c7b	-0.028578034
31	0x3bbccb3b	0.0057615316
32	0xbc49a971	-0.012308464
33	0x3c4e5589	0.012593635
34	0xbe0a7b3f	-0.13523577
35	0xbdd4863f	-0.10377168
36	0x3d96fd26	0.07372503
37	0xbd50e9ff	-0.051004406
38	0x3cf24e24	0.029578276
39	0x3d7711b7	0.06031963
40	0x3d080563	0.033208262
41	0x3d8af985	0.06785873
42	0xbcdce260	-0.026963413
43	0x3c425990	0.011862174
44	0xbcc8b421	-0.024499955
45	0xbc87b05d	-0.016563589
46	0x3db46611	0.0880853
47	0xbe10e014	-0.14147979
48	0x3d86d344	0.065832645
49	0x3e005f1f	0.12536286
50	0xbc2010ff	-0.009769677
51	0xbdcd3928	-0.10020667
52	0xbd9b2025	-0.075744905
53	0xbb853d04	-0.0040661115
54	0xbd681c38	-0.056667536
55	0xbd71ee1e	-0.059064977
56	0x3cf75be3	0.030195182
57	0x3c87e325	0.016587803
58	0x3d750253	0.05981667
59	0x3c04e264	0.008110616
60	0x3b0d74ed	0.0021584586
61	0x3e0ebb7c	0.13938707
62	0x3c5ec491	0.01359667
63	0xbcc87410	-0.024469405
64	0x3d04d1fc	0.03242682
65	0xbe70770b	-0.23482911
66	0x3bda65d1	0.0066649695
67	0x3c441489	0.011967787
68	0xbdf0473e	-0.11732338
69	0xbdcab7a5	-0.09898309
70	0x3c74c30c	0.014939081
71	0x3d4c7d54	0.04992421
72	0x3b1b0d65	0.0023659107
73	0xbc82dc6d	-0.015974248
74	0x3ca139df	0.019680915
75	0x3cbfd697	0.023417754
76	0x3cc3db81	0.023908379
77	0x3dc4e294	0.09613529
78	0xbcf35ecc	-0.029708289
79	0xbc2e05a7	-0.010621465
80	0xbe1771f5	-0.14789565
81	0x3dd616a6	0.104535386
82	0xbdffbc6b	-0.1248711
83	0x3b0362cd	0.0020047904
84	0xbdf7660b	-0.1208001
85	0x3c051dc5	0.008124773
86	0x3c717364	0.014736984
87	0x3d6fe00b	0.058563273
88	0xbdb3575f	-0.08756899
89	0x3d47483f	0.048652884
90	0x3c348f5b	0.011020507
91	0x3d4235b7	0.047414508
92	0xbe86ba44	-0.26313984
93	0xbc24697f	-0.010034918
94	0x3cdaca9a	0.026707936
95	0x3c8499bd	0.01618659
96	0x3beaf993	0.007170865
97	0x3cfc877d	0.030826325
98	0xbb7a05ec	-0.0038150502
99	0x3d0c7704	0.03429319
